models/model_20.pt (torch, 67917 bytes, 45 tensors)

node_coord_embedding.weight f4 [30, 2]
00000000: b14f 82be be51 573d 21ac 0abf 3475 793c
00000010: 1654 213f 4cde 85bd 40dc 643e 5ccc 24bf
00000020: 49c2 21be 7800 123e e73b 2dbf 1cb3 c03d
00000030: 782b 8e3e b790 e73e 86e7 d1be 3b07 23bf
00000040: fa80 9dbe a954 f3bd ebf7 85be ecd8 2bbf
00000050: 8bb0 483f 2691 ba3e 8ddb a1be ce8c 353f
00000060: 3205 0d3f c1da 2b3f 5255 89bc 34ab 14bf
00000070: 21c5 18bf e22e bc3d 7ba0 2bbf 6ec3 8cbe
00000080: c48e 25bf f378 29bf 2054 03bf e385 443e
00000090: 380d 3c3f d175 8a3e ff1b 7cbe 2593 a03e
000000a0: b8bf 823e a545 0e3e 5e0c f4bd 05ee 843e
000000b0: d593 083d d404 193f c289 213f 5c0f 05bf
000000c0: 4e76 af3e 2fb6 b93e 22dd 7cbd 0125 90be
000000d0: 0859 203f 56bb 5d3d 0ee4 09bf 6b9a 97bd
000000e0: ea59 0bbe fbfd d63e 0ce7 0a3f cae9 1d3e
-0.25451425 0.05256819 -0.541689 0.015225697 0.6301893 -0.065365404 0.22349644 -0.6437433
-0.1579677 0.14257991 -0.6766953 0.094091624 0.2776754 0.45227596 -0.4099695 -0.6368291
-0.30762464 -0.11881382 -0.2616571 -0.6712787 0.78394383 0.36438864 -0.31612816 0.70917976
0.5508605 0.67130667 -0.016764317 -0.58073735 -0.59675795 0.0918863 -0.6704175 -0.2749285
-0.6467097 -0.6620018 -0.5130024 0.19191699 0.7345767 0.27043012 -0.24620055 0.31362262
0.25536895 0.13893755 -0.11916421 0.25962844 0.03334411 0.5977299 0.63100827 -0.5197656
0.34269947 0.36271808 -0.061734326 -0.28153232 0.6263585 0.054133736 -0.5386361 -0.074025
-0.13608518 0.41990647 0.542588 0.15421215

distance_embedding.weight f4 [15, 1]
00000000: 32b5 35bf 49e4 eabe 6147 523f fdca f13e
00000010: 4bd3 173f 471e 073f 3606 3c3f 633e 7c3f
00000020: 8508 1cbf 3ed6 4d3f 3e72 db3e 42b7 d5be
00000030: 1e17 253f 5614 183f 390d 753f
-0.7097961 -0.45877293 0.82140166 0.4722518 0.5930678 0.52780575 0.7344698 0.98532695
-0.609505 0.8040503 0.42860597 -0.41741377 0.644884 0.5940603 0.957233

edge_type_embedding.weight f4 [3, 15]
00000000: e0dc a0bb 90ed 8c3f 66e2 13c0 8bf3 b93f
00000010: eff5 80bf 3fdd bb3f 2ade 6abf 540b 28bf
00000020: 5955 72be 98af 2bbd 11bf 913f 353f adbe
00000030: d11c 333f de4f 20bf 010a 173f 8b8b 32bf
00000040: f48d 9dbf 36f5 a33f 07c7 5a3f 2f41 803e
00000050: c281 f23f 2f7b 25be 0c88 0abe a445 26bf
00000060: f5f0 053d 89ba 933e 7876 173f d4ae 08c0
00000070: b679 863e 071c f6bf 8d05 763f bce5 62bf
00000080: 547f edbf b2d9 acbf 0b89 cb3f c502 053f
00000090: c0ad 9cbf f9fb e1be fc16 23c0 7ca7 1a3f
000000a0: a694 303f bcfb bfbf 5c04 4e3f 1d6b 0dbf
000000b0: 6000 2abf
-0.004909143 1.1009998 -2.3106933 1.4527448 -1.0075053 1.4676894 -0.91745245 -0.65642285
-0.2366537 -0.041915506 1.1386434 -0.33837286 0.69965845 -0.6262187 0.5899964 -0.69744176
-1.2308946 1.2809207 0.8545994 0.2504973 1.8945849 -0.16160272 -0.1352846 -0.64950013
0.032700498 0.28853253 0.59165144 -2.1356707 0.26264733 -1.9227303 0.9610222 -0.88631797
-1.8554482 -1.3503935 1.5901197 0.5195735 -1.2240524 -0.44137552 -2.5482779 0.6041181
0.6897682 -1.4998698 0.804754 -0.55241567 -0.6640682

gcn_layers.0.node_feat.U.weight f4 [30, 30]
00000000: 9668 0c3e ecc0 8cbd a080 ebbb 6f4e 363e
00000010: 97ea 48be 99c0 ac3d 88b0 1b3c e2c2 083e
00000020: 6bd6 b33d 6797 68bb 797e 093e 20c6 2dbe
00000030: d637 9bbd e42b 443e f656 f8bd cd8c 2a3e
00000040: 9fba 023e 4028 f0bc 2fa1 1bbe 2a48 e1bc
00000050: 3c0c edbd 5046 ccbd cbd4 00be a513 b6bd
00000060: 306a 5fbe 5471 9fbb 45f6 1cbe bfea 89bd
00000070: 356b 00be 939c 9f3d 6ac3 163e 034b c2bb
00000080: 1b2b 9e3d 944b a2bd 4d57 5f3d 4b4e 2a38
00000090: a4ce 82be efb7 4e3e 9c9f 293e 63e6 e1bc
000000a0: 08ab 26be 7dea 26bd 11f6 24be e50b 053e
000000b0: d874 e73d 3a8e 703d 1ea0 163e b1c6 eebd
000000c0: 2b06 1abd d34d 92bd 7237 c93c 40d3 dc3d
000000d0: 206c 313d ba5f 073e e974 dcbd 147c 3bbd
000000e0: 35be fd3d abfc b63d 83e3 2bbe f36d 953d
000000f0: 3c51 02be 758e 3fbe a8f7 163e 170d 513c
00000100: 500c 10be 3a91 2d3c 494a a8bd 48a3 223e
00000110: cd8b 0b3d 3ee4 bf3d 572c bfbd 1a27 0abe
00000120: 3c82 cd3d 8906 393e 02c9 533c b6bf 983b
00000130: 6d71 3abe c305 87bc e62d 0b3e eac4 71be
00000140: e18a 543d 7c21 5abc 5d47 1fbe 5ad8 d1bd
00000150: 1361 1e3e a60b 0dbe 5ef0 c93d 208e 823d
00000160: 74ca d93d 88e1 503e f483 02be 1fb8 0cbc
00000170: a648 19be 86e8 463d 88cb 6dbd 19a9 e8bd
00000180: e127 593e 63cf 5abe 0767 00be 8936 6f3d
00000190: 7802 eb3d a91d d63d 5601 f53c 5029 d8bd
000001a0: a56e 083d 24ab c6bd 25ad 2dbe 5a69 31be
000001b0: f2d9 6f3e dad4 6a3d 9ef2 9abd ea61 febd
000001c0: 2184 603d a07b e1bb 9eb4 b3bd 6423 2b3c
000001d0: b82e 0abc ed61 f83d 0ba1 8fbd 869d 163e
000001e0: 5b34 4bbe e168 53bd 1272 313d 8c82 663e
000001f0: f542 59be 1c8b 47be 1002 adbc c8a4 16be
00000200: 4df2 123e 8492 2c3e 2710 bbbc 7af2 53be
00000210: 04f4 40bd 693d 2dbd 698c 80bd 0579 063e
00000220: d1c6 c6bd 6b78 8abd 7094 94bd aeb1 a0be
00000230: 39b6 7a3d 3018 f4bd 3bac 5d3d 6e4e 39bd
00000240: 6d57 0d3a 7c47 413e 8344 f53d 8678 013e
00000250: f7ee 6e3d 6ea7 9a3c fc42 213e afdb f4bd
00000260: e323 3a3d a879 5a3d a292 1f3e abaa 813d
00000270: 7f41 3c3e 4c01 f93d 75dd bebd 210b debd
00000280: 9a63 d63d 499b 773e fb99 8b3c 73a3 053d
00000290: b8cd 3e3e 4337 61bd 0cd2 febd 8b32 0f3d
000002a0: e996 eb3c 120d 573e f2ce 133e 915b b53d
000002b0: f14d 873e 553f 823d 0850 e5bd 2e07 94bd
000002c0: 061a 63bd acd9 593c 19ae 683e af39 053d
000002d0: 6f98 66bc 7c14 8dbd c8f3 d73d 38fa cd3b
000002e0: 293a 2bbe d760 113d bcb7 e9bd 438a fd3d
000002f0: 74fe 783c 19b3 723d 0ced d23b 8499 72bd
00000300: fb26 e8bc ac7c 1bbc 69ca 3a3d 26ab 193d
00000310: 18ea 423e 40f3 3e3e 3353 e33c b4a6 143e
00000320: 629b 04bc db05 833d 1eff d9bd 09ce dabc
00000330: c90c e0bd 607e 423e 12c9 e6bd 522e 8fbd
00000340: 2f0e b33d ded2 1fbd abe2 c43c 8d1c 3fbd
00000350: ad0a fb3c 9107 b2bc 6de8 723b fe3f 51be
00000360: c6b3 3cbc 7caa 8f3d b40a 213e 91b6 623c
00000370: 9311 33bc 3272 f8bd 0d2a 3b3e 3da2 1d3e
00000380: f2ed 8d3c a9d7 36be 7b2b 303d b0f2 05be
00000390: 4d9d f03d 8d00 96bd 23fc 1fbd fafd 8abb
000003a0: e3a3 283e fe12 dc3d 8201 403c ae35 c33c
000003b0: fac7 1e3d b1a3 af3d b88f 1b3e 9d34 e3bc
000003c0: 84ae 00be 8038 243e 702a c3bd 4fa2 0fbe
000003d0: 7ace fc3d 6af5 263d 7b82 083e fd44 503c
000003e0: 0af7 53bd 549f 073e 5f2f 22be b7e0 fb3d
000003f0: 8956 853b b929 ba3a 8c2f 173e 285c 8f3e
0.13711771 -0.068727344 -0.007186964 0.17803358 -0.19620739 0.084351726 0.009502538 0.13355592
0.08781131 -0.0035490633 0.13427152 -0.1697011 -0.07579009 0.19157368 -0.121259615 0.16655274
0.12766503 -0.029316068 -0.15198205 -0.02750023 -0.11574599 -0.099743485 -0.12581174 -0.08890466
-0.21817851 -0.0048658047 -0.1532832 -0.067342274 -0.12540896 0.07793536 0.14722982 -0.0059293522
0.077230655 -0.07924572 0.054526616 4.0604074e-05 -0.2554828 0.20187353 0.16564792 -0.027575677
-0.1627618 -0.04075097 -0.16109492 0.12992819 0.11301583 0.058729388 0.14709517 -0.11658991
-0.03760354 -0.0714375 0.024562571 0.1078248 0.043316007 0.1322011 -0.10764486 -0.045772627
0.12389795 0.08934911 -0.16786008 0.07296362 -0.12726301 -0.18706687 0.14742911 0.0127594685
-0.14067197 0.010593707 -0.08217294 0.158826 0.03406887 0.093697056 -0.09334629 -0.13491479
0.10034606 0.18068899 0.012926342 0.0046615256 -0.18207331 -0.01648224 0.13591728 -0.23610273
0.051890258 -0.013313647 -0.15554567 -0.10246344 0.15466718 -0.13773975 0.098602995 0.063747644
0.10634318 0.20398533 -0.12745649 -0.00858882 -0.1496912 0.048561595 -0.05805543 -0.11360378
0.21206619 -0.21368174 -0.12539302 0.05840162 0.1147508 0.10454876 0.029907864 -0.10554755
0.033308644 -0.09700611 -0.1696058 -0.17325345 0.23422983 0.057331897 -0.07565807 -0.124210194
0.054813508 -0.0068811923 -0.08774684 0.0104454495 -0.00843399 0.12128053 -0.070131384 0.14708528
-0.19844191 -0.051613692 0.043321677 0.22510737 -0.21216948 -0.1948666 -0.021119148 -0.14711297
0.14350243 0.16852766 -0.02283485 -0.20697966 -0.04710771 -0.042294893 -0.06276781 0.13132103
-0.0970589 -0.06761249 -0.07254875 -0.3138556 0.061208937 -0.11918676 0.05411933 -0.045240812
0.00053917506 0.18874925 0.11975958 0.12643632 0.058333363 0.018878665 0.15748209 -0.11955964
0.04544438 0.053338677 0.1558328 0.063313805 0.1838436 0.121584505 -0.09319583 -0.108419664
0.10468216 0.2418033 0.017041197 0.03262658 0.18633163 -0.054984342 -0.12442407 0.03496031
0.028758483 0.2100108 0.14434412 0.088553555 0.26426652 0.06359736 -0.111969054 -0.07227932
-0.05544474 0.013296526 0.22722663 0.032525714 -0.014074429 -0.06888673 0.105445445 0.006285932
-0.16721405 0.035492744 -0.11411998 0.12379887 0.015197385 0.059252832 0.0064369496 -0.059228435
-0.0283389 -0.009490173 0.04560319 0.037516735 0.19034612 0.1864748 0.027749633 0.14516717
-0.008093687 0.06397601 -0.10644363 -0.026709573 -0.109399386 0.1899352 -0.1126882 -0.06991257
0.0874294 -0.039019458 0.024033865 -0.046658088 0.030644739 -0.021732124 0.0037064806 -0.20434567
-0.011517471 0.07014939 0.15726739 0.013837473 -0.010929483 -0.12131156 0.1827776 0.1539392
0.017325375 -0.17855705 0.043010216 -0.13080859 0.11748753 -0.07324324 -0.039058816 -0.004241702
0.16468768 0.1074581 0.0117191095 0.023829307 0.03876493 0.085761435 0.15191543 -0.027735049
-0.12566572 0.16037178 -0.09529579 -0.1402676 0.1234407 0.04076139 0.13331024 0.012711761
-0.051749267 0.13244373 -0.15838383 0.1229872 0.0040691537 0.0014203108 0.14764231 0.27999997

gcn_layers.0.node_feat.U.bias f4 [30]
00000000: d741 983d 20a2 043e f450 b6bc c575 be3c
00000010: 4cc6 c43d 6bd0 84bd db9c 153e 35f4 c9bc
00000020: 9431 213c 0f15 01be 7183 183e 259f bf3c
00000030: d8d0 b43d 7893 febd c643 083e 13fc 273d
00000040: f5a5 3e3e 4807 38bd 9962 06bd cb73 63bd
00000050: ae2b ffbd 3492 16be 30b8 4f3b 37a1 2ebd
00000060: 6548 343e cb8a 9fbd b995 9f3d d4f8 f7bc
00000070: cc78 27be efbc 4c3e
0.07434433 0.12952471 -0.022255398 0.023249516 0.096081346 -0.06485065 0.14610617 -0.02465258
0.0098384805 -0.1260569 0.14893891 0.023391316 0.08828896 -0.12430471 0.13307104 0.04101188
0.18617995 -0.04492882 -0.032808874 -0.05553035 -0.12459503 -0.1470421 0.0031695478 -0.042634215
0.17605741 -0.077901445 0.07792229 -0.030270018 -0.16354674 0.19993947

gcn_layers.0.node_feat.V.weight f4 [30, 30]
00000000: e627 a6bd 64f5 023e cea2 babd b766 f13d
00000010: a3f6 093e 32c6 0dbd 8bb1 343c 9e02 cdbd
00000020: 517f 07bd 99e0 f5bd 6192 26be 3175 17be
00000030: f94f 1b3e f540 c43d ef64 f2bb ac50 28be
00000040: 2274 19be b574 71bd c522 08be 3039 82bd
00000050: 301b 17bd 75e5 91bd 175a eb3d 05c4 5dbd
00000060: 45e1 b4bd b80e 363e 116b 0abe 40ca 8b3c
00000070: 5ca3 7cbd e87a 80bc 2e88 41bd 7807 eebc
00000080: 0c46 68bc ffce 4cbd d52d 30be d32b 3bbe
00000090: 47d1 c63d c88c 94bd b69d 04be f796 793d
000000a0: 9789 c2bd 61e2 00bc 85c5 d6bc bc4e 753d
000000b0: c51c fabc ce2c 813d e97a 18be 6748 d1bc
000000c0: bb1f adba 4203 5c3d 0c75 30bd 4073 7f3d
000000d0: b231 a43d 6222 283d 9e7f fdbd ce96 0bbe
000000e0: adca f6bd ea2a 583d 88b7 80bd 0c4a 16be
000000f0: 767f ea3d ec4b 3c3e 7989 6fbd b06e bfbd
00000100: af5e 113e 1354 13be 75b7 d1bd 3e0d cabd
00000110: dd24 6f3d de60 9dbc 0937 48bd 4d76 a6bd
00000120: d4a1 5abd 98af f5bd 7f75 7dbd 670b d93c
00000130: f4a5 33be 2dcb f9bd 7291 90bd 3c03 453e
00000140: 1c8c 1cbe b015 2dbd 3c58 ad3c 7eed 25bd
00000150: 0f16 1cbd 3380 b0bd e8c5 54bd 536b eebd
00000160: 4f72 013d 987f 7f3d 6710 7e3d b977 3b3e
00000170: 63ff d83d 357e 06bd 6eeb a0bc f8fe 19bd
00000180: f881 db3c d427 063e febd a6bc 8f8a b23d
00000190: ea56 c03c 8104 1f3d ebf5 60bd b2e9 bbbc
000001a0: 81d1 debd 195f a9bd afa1 01be 0901 67bc
000001b0: 82a7 9e3d cbd9 013e aab0 5c3d 3ecf 27be
000001c0: 6c8b 15bd 6f04 673c d134 bb3d 9ab9 a3ba
000001d0: 4781 50be 6761 93bd dc99 0a3e 09f9 52be
000001e0: d62c b1bd 93e4 053d 6789 c53d ed86 36be
000001f0: fbe2 00be 3ad9 3f3d d116 803d a447 473c
00000200: 2619 d93d a09f 1abe 6d41 41be ee8b 3bbd
00000210: 3cde ecbc d261 93bd dc1e e4bb 641d bebd
00000220: fc51 53bd 8e34 f5bd 63a2 243e 39cf 06bd
00000230: c921 0c3d 3587 243e bff9 c4bc 3869 b53d
00000240: 52e7 2bbe d374 293e 0be7 44be 24cb 55bc
00000250: 4c4f 4dbd a4da a8bd 7088 8abd dc0c 90bc
00000260: 29ee 103e f594 e03c b2e3 103e f142 033e
00000270: 0814 1dbe bbf0 0a3d ee2c c83d 111a 1bbe
00000280: f8ca f7bd f817 aa3d 49b6 153e bd29 1b3e
00000290: 7e10 b8bd cd47 683d 8227 d73d 6614 ffbb
000002a0: bce5 48bd c39b d9bd 56da 44bc 6182 593d
000002b0: 42ca 21be 08fc f9bd dd11 3e3e a26f e9bc
000002c0: 3ee0 213e 043d 23bd b44e 0c3e c236 8f3d
000002d0: 424c f7bd 9c80 02bd e93b a43c 6487 c4bc
000002e0: b399 913d e9cf d3bd f79f d93d 8891 8dbd
000002f0: 4fcd 90bd 17e4 a6bd f9f8 103e bc9d 343e
00000300: e7c1 3a3e f627 973d 2082 2bbc f5d4 953d
00000310: 8179 2dbe be04 293e 9faf 353e b325 c4bc
00000320: 9b56 de3d a791 173d 7834 5b3e f6e5 49bd
00000330: 5245 f33d a28b 3abe 21fe 943d 0c1e 81bd
00000340: eeec bdbd 06e3 db3d c66f 4a3e 7617 ddbb
00000350: 9202 3abd f750 f6bd 3fa5 dc3d 3e5e fa3d
00000360: 8596 38be a4cb 39bd c2a3 d1bd 2a3e 03be
00000370: 4f0f fdbd 1579 033e 1f1c aabd 6c16 263e
00000380: f4da 69bd 570e 383d 2230 12be 1980 d73c
00000390: 3f25 5e3d 7bb6 593c 6f34 77bd 926e b33c
000003a0: d1f4 8ebd 0059 13be 7bab 463d 0609 db3d
000003b0: 1c20 07bd 4fa1 403e 6e95 2dbe 4206 adbd
000003c0: 517a 1dbe 62aa 36be 2de3 84bd 54bb 283d
000003d0: 520c 23be a1d6 86bd 25fb 893d 439a 7f3c
000003e0: 5f12 a83d 9894 c0bc ed80 713d d03f 08be
000003f0: 54bf 133e 845f f8bc 6062 273e b2e7 1d3e
-0.08113079 0.12788922 -0.09113084 0.117871694 0.1347299 -0.034612842 0.011028658 -0.10010265
-0.033080403 -0.12005729 -0.16266777 -0.14790799 0.15167226 0.09582702 -0.007397286 -0.16437024
-0.14985707 -0.05894919 -0.13294514 -0.06358564 -0.036891162 -0.071238436 0.11491793 -0.054142017
-0.08832029 0.17779052 -0.13517405 0.017064214 -0.06167923 -0.015683606 -0.04724901 -0.029056296
-0.014176857 -0.050002094 -0.17204984 -0.18278436 0.09707885 -0.072534144 -0.12950787 0.060934987
-0.094988994 -0.007866473 -0.026217232 0.05988954 -0.030531297 0.06307374 -0.14890637 -0.02554722
-0.0013208309 0.053714044 -0.043080375 0.06236577 0.08017291 0.041048415 -0.12377857 -0.13631746
-0.12050376 0.0527753 -0.06285006 -0.14676684 0.114500925 0.18388337 -0.058480714 -0.09347284
0.14196275 -0.1438754 -0.1024007 -0.09865807 0.058384765 -0.019211229 -0.04888061 -0.08128033
-0.053376988 -0.119963825 -0.06187963 0.026494695 -0.17543775 -0.12196956 -0.070589915 0.19239515
-0.15287822 -0.04225701 0.021160237 -0.040509693 -0.038106974 -0.08618202 -0.05194655 -0.11641564
0.031603154 0.062377542 0.06202736 0.1830739 0.10595586 -0.032835204 -0.019643512 -0.037596673
0.026795372 0.1310113 -0.020354267 0.08717834 0.023478944 0.038822655 -0.054922026 -0.022938583
-0.108798034 -0.082700916 -0.12659334 -0.014099368 0.07746793 0.12680738 0.053879417 -0.1638765
-0.036509916 0.014100178 0.09140933 -0.0012491227 -0.20361815 -0.071963124 0.13535255 -0.20602812
-0.0865113 0.03268869 0.09645348 -0.17824908 -0.12586586 0.046838023 0.06254352 0.012163077
0.106005 -0.15099955 -0.18872614 -0.045787744 -0.028914563 -0.07196392 -0.0069616865 -0.092829496
-0.05159186 -0.11972915 0.1607757 -0.032912467 0.034211908 0.16067202 -0.02404487 0.088579595
-0.1678746 0.16548471 -0.19228761 -0.013048921 -0.05012445 -0.082448274 -0.06764305 -0.017584257
0.14153351 0.027414778 0.14149359 0.12818505 -0.15339673 0.033920985 0.09774195 -0.15146662
-0.1209926 0.08305353 0.14620318 0.1515264 -0.08987521 0.0567091 0.105055824 -0.007784414
-0.049047217 -0.10625412 -0.012014946 0.053102855 -0.15799811 -0.12206274 0.18561502 -0.028495613
0.15808198 -0.03985311 0.13701898 0.06992866 -0.12075092 -0.031860933 0.020048099 -0.02399034
0.07109394 -0.1034239 0.10626214 -0.069125235 -0.070704095 -0.081489734 0.14157476 0.17638296
0.1823803 0.07380669 -0.010468036 0.07316009 -0.16940881 0.16505715 0.17742775 -0.023943758
0.108563624 0.03700414 0.21406734 -0.049291573 0.11878456 -0.18217328 0.07275034 -0.06304559
-0.092737064 0.10736661 0.197692 -0.0067471815 -0.045412607 -0.120271616 0.10773706 0.122250065
-0.18026169 -0.045360222 -0.102363124 -0.12816682 -0.123564355 0.12839158 -0.08306145 0.16219491
-0.057093576 0.04493555 -0.14276174 0.026306199 0.05423474 0.013288136 -0.06035274 0.02190331
-0.06980289 -0.1438942 0.04850338 0.106950805 -0.032989606 0.18811534 -0.16951534 -0.08448459
-0.15378691 -0.17838433 -0.06488643 0.041194275 -0.15922669 -0.06583906 0.06737355 0.015600744
0.08206629 -0.023508355 0.058960844 -0.13305593 0.14428455 -0.030318983 0.16346121 0.15420416

gcn_layers.0.node_feat.V.bias f4 [30]
00000000: 4667 a13d 1ced aa3d e31b b7bd 7f89 433e
00000010: a922 1ebe 0ab3 bb3d 810a 0dbe 73f2 cd3d
00000020: 2e0c 45be dcf6 033e 202b 203e 4438 a3bd
00000030: eff3 4a3d 78a0 8dbd 74ab fdbd 6eb9 f63d
00000040: 7d75 04be 2fdd 36bd ed3b 253e 5036 423d
00000050: 0033 433e 43a5 db3d 8c86 02bb 0ca5 d7bc
00000060: 0020 35be e9f5 c9bd 0f17 0cbc da6b 28be
00000070: 32d8 573c 771d 98bd
0.07881026 0.08346006 -0.08940866 0.1909542 -0.1544291 0.09165008 -0.13773538 0.10056009
-0.19242927 0.12887138 0.15641451 -0.07969716 0.04954904 -0.069153726 -0.12386218 0.12047087
-0.12935443 -0.04464453 0.16136141 0.047415078 0.19062424 0.107248805 -0.0019916622 -0.026323818
-0.17687988 -0.09861357 -0.0085504195 -0.16447392 0.013174104 -0.07427495

gcn_layers.0.node_norm.batch_norm.weight f4 [30]
00000000: 9ee8 813f 6a45 803f bd26 713f 02b9 7f3f
00000010: 3ebc 843f 4d18 823f 68a8 893f 52d6 763f
00000020: 98bb 7e3f a717 763f 9e0b 893f e79a 813f
00000030: 3de2 7a3f 7b7c 843f a73c 823f 3307 733f
00000040: 0104 663f 25dd 853f 3679 883f b6a2 6f3f
00000050: c5ce 7c3f 8a2a 713f 3716 843f 6ec9 813f
00000060: cd19 853f a345 793f ad92 753f 0fb1 7f3f
00000070: 65be 6d3f 851d 833f
1.0149114 1.0021183 0.94199735 0.99891675 1.0369947 1.0163666 1.0754519 0.96420777
0.99504995 0.9612984 1.070667 1.0125397 0.9800146 1.0350488 1.017476 0.9493286
0.8984986 1.0458113 1.0661991 0.9360765 0.98753005 0.94205534 1.031928 1.0139596
1.0398499 0.9737188 0.95926934 0.99879545 0.92868644 1.0243384

gcn_layers.0.node_norm.batch_norm.bias f4 [30]
00000000: 127a 013c 2fe8 25bc 965f 9fb9 03ec 1abe
00000010: 4087 e8ba 9003 0539 a2c1 353e d4fc ed3b
00000020: 487f 79bc 85e2 643d 2ba2 bb3d ca70 58bb
00000030: e6e7 82bd f4b5 083c 93b1 e03d be66 473b
00000040: b889 c0bb 0eb0 683b 3d20 d53b ec30 2ebe
00000050: b01e 533b 2411 ce3b 8c20 503b 2764 c0bb
00000060: 38ed 7abb 2729 10be fb37 a93b 25ea 67bb
00000070: 9a7d 013c f788 d7bc
0.007902639 -0.010126158 -0.0003039806 -0.15129094 -0.0017740503 0.00012685196 0.17749646 0.0072628055
-0.0152281 0.05588009 0.091617905 -0.0033026212 -0.06391887 0.008344162 0.109713696 0.003042623
-0.0058757924 0.0035505327 0.0065040872 -0.1701085 0.0032214336 0.0062886644 0.003175768 -0.005871314
-0.0038288366 -0.14078198 0.005164144 -0.0035387364 0.007903481 -0.026310427

gcn_layers.0.edge_feat.U.weight f4 [30, 30]
00000000: f75c e43b fa0f 2fbd 1309 aabd f10f 653a
00000010: 313d 2e3d 8167 983d 1e64 2c3c 8d9d 2f3e
00000020: f250 d83d ac2b 4c3e d26b ac3d 71fb 02be
00000030: 17bd e63c 1523 003e de73 393d fcea 3d3e
00000040: 04d4 243e ccc5 07bd 26ec 9dbd 0ba6 dbbd
00000050: a58f 07bd 8418 d93d e37e 0d3e c08f fd3d
00000060: 0b05 383e 7ac2 afbd 66ac e03d b09a ee3b
00000070: b7b9 23be affb fcbc 88c0 1e3e 2312 303e
00000080: acad d5bd 7f74 f5bd c595 0cbe 23a5 8f3d
00000090: dc30 fcbd 00d7 8cbd d174 76bd 87cd c5bc
000000a0: 47d4 083d 7e80 293e 3f9b ddbd cc4b 003e
000000b0: b797 37be b660 e13d 1597 e3bd d8fd 3abe
000000c0: cba2 653d d5c7 aabd 8e2d bfbd 438c b4bd
000000d0: 1c3b 1cbe 0f48 14be f6f6 46be e254 65bd
000000e0: 1ec1 a9bd cf76 0cbd 2307 a63d 99fa bcbd
000000f0: f2cf b2bd 36fa ff3d a7d7 6dbe acf9 febd
00000100: 17f1 1bbe 32f7 02bd fefc e33c 9bf7 a7bd
00000110: 60c3 3c3e 8002 c7bd f177 5bbe e26e 653e
00000120: 2b5d dd3d 1e57 31be 5f6c 3f3d a4fa fe3c
00000130: 7681 2fbe 0f54 a93d e7e3 823d fd76 fcbd
00000140: a223 d93d 6c2e 58bc d20d 70bd b133 1cbd
00000150: 3d2e dd3d 79d5 94bd a5b7 633d 429d 59be
00000160: 8bcd d7bc fca3 513d 8562 93ba 4974 c1bc
00000170: 3c46 ac3d 9485 3b3e e87b eebc e8e9 b33d
00000180: e9a2 563d 047c 06be 3639 e73d 71f8 13be
00000190: 3eff 393e c89a c73c 6a03 91bc 68bb 883c
000001a0: 6e33 b53d c39d 8fbc e34a 23be 157e 9bbd
000001b0: 0c06 0ebd 0ac1 a1bd f2f5 f63d 4b28 26be
000001c0: d27c 1a3e cabe ad3c b5ec a3bd bbe6 a23c
000001d0: 1a3c 99bd 925f 46bd 0266 9bbd 36bd 6dbc
000001e0: 0a8c c6bd 151a 1abd 20a4 06be 9474 d13d
000001f0: f474 9b3d 6946 00bd 4ffa 92bd b5cd 1cbe
00000200: e673 233e 1100 5e3c 90e2 b1bd ddf3 a8bd
00000210: cc77 423c bec8 14bd 0921 a23c 1875 ef3d
00000220: 25cf f93d 6c52 ddbd 9247 06be e789 f3bd
00000230: e5a0 91bd 5e24 22be 75d1 43bd 4019 153c
00000240: 7163 fe3d 7bed f8bd 8cb3 42bd 8ea7 353e
00000250: c927 853d c308 213e fa1f 6a3e 924e e53d
00000260: 5f33 dfbd 72ea 82be 2374 d2bc 381f 55be
00000270: 9997 5a3d 02b7 74be fe78 4bbd 863f 643c
00000280: e7fc 98bc b8de 143e b9b2 89bd ebc0 27be
00000290: 1f65 8abd 1d05 243e c0d3 09be 16d7 2c3e
000002a0: 7564 1dbe 7b9e cebd 85ed c83a 5d37 df3d
000002b0: a1f8 bfbc 1db8 2ebd dc0e a93d ab26 463b
000002c0: d4bd 603d ad3d 043c 9404 17bd d907 0abd
000002d0: 013d 1e3f 5bad 103f 94c6 9ebe 5838 c9be
000002e0: 1374 ffbe c835 fcbe 03aa f9be 24c7 c7be
000002f0: c746 e33e 1d4c 02bf 0ce3 1abf 6de6 003f
00000300: d848 14bf f053 fabe 12c0 0fbf 083b 1d3d
00000310: e90a 8bbe d9e5 953e 0f82 98bd 9d4b 113e
00000320: 73cf 8dbe b28f 243e 7460 ad3e 2e38 5fbd
00000330: a622 633b 46a3 7dbd d67b c63d e69b 39be
00000340: 86e2 c0bc dc2f 803d a9b5 653d c0bd e6b9
00000350: c742 423d f8ca a7bd c95f b33c 25de d93d
00000360: 77d9 513d 8378 cf3d c942 0dbe f149 0bbe
00000370: c0a7 fbbd a94b aa3d 8358 1d3d 454f 47bd
00000380: 3381 903d dad0 573e 9bec 04bc c09b 22be
00000390: 4abc cd3d 967f 34bc e015 c7bd 82cc d6bd
000003a0: bd53 163e abc8 903d d483 d9bd 8e61 3f3e
000003b0: 909f e93d 83f3 51bd 8108 4abd 161f 3d3b
000003c0: f855 44bd daac 803e 1d5c 9e3d a4d6 423c
000003d0: 4f8b 2abe 6217 37be 919d 6ebd a9b9 53be
000003e0: b4dd 1fbd 310b a03d 7365 a73d d0b7 d3bd
000003f0: 8512 6bbe c6bf 12be 9074 85be 3414 5fbd
0.00696909 -0.042739846 -0.08302512 0.0008738032 0.042538825 0.07441617 0.010521917 0.17149945
0.10562314 0.19938534 0.084190026 -0.1279123 0.028166337 0.12513383 0.045276515 0.1854667
0.16096503 -0.03314762 -0.07711057 -0.107250296 -0.033095974 0.10600379 0.13817935 0.12380934
0.17970674 -0.08582015 0.109703824 0.007281624 -0.15988813 -0.03088173 0.15503132 0.17194419
-0.10433516 -0.119851105 -0.13729008 0.07013919 -0.12314007 -0.068769455 -0.06017 -0.024145855
0.03340557 0.16552922 -0.108206265 0.12528914 -0.17928968 0.11004774 -0.11112801 -0.18260896
0.056063455 -0.08338896 -0.09334861 -0.08815815 -0.15256923 -0.14480613 -0.19430146 -0.055989154
-0.08288787 -0.034292992 0.0810683 -0.09227485 -0.08731069 0.12498896 -0.23226796 -0.12449965
-0.15228687 -0.031974025 0.027830597 -0.08201524 0.18433905 -0.09717274 -0.21432473 0.2240558
0.10808786 -0.17318389 0.04673421 0.031125374 -0.17139229 0.08267986 0.06391125 -0.12327383
0.106024995 -0.013194662 -0.05860693 -0.038135234 0.10799835 -0.07267279 0.05559506 -0.21251395
-0.026343128 0.05118178 -0.0011244571 -0.02361502 0.08411834 0.18312675 -0.029111817 0.087848485
0.052401457 -0.13133246 0.11290209 -0.14450242 0.18163773 0.024365798 -0.017701823 0.016690925
0.088477 -0.017531281 -0.15946536 -0.075924076 -0.034673735 -0.078981474 0.12058629 -0.16226308
0.15086678 0.02120914 -0.08004133 0.019885411 -0.074821666 -0.048430987 -0.07587816 -0.014510443
-0.09694679 -0.03762253 -0.13148546 0.10227314 0.075906664 -0.03131715 -0.07176649 -0.15312846
0.1596218 0.0135498205 -0.086857915 -0.08249638 0.011869382 -0.036324255 0.019791143 0.11692256
0.12197713 -0.10806736 -0.1311324 -0.11891537 -0.07110766 -0.15834185 -0.047807176 0.009100258
0.12421311 -0.12154671 -0.04753451 0.17739698 0.06501729 0.15725999 0.2286376 0.11196627
-0.1089847 -0.25569493 -0.025690144 -0.2081269 0.05336723 -0.23897937 -0.049675934 0.013931161
-0.01867528 0.14538085 -0.06723542 -0.16382186 -0.067575686 0.16017576 -0.13459682 0.16878924
-0.15370353 -0.100888215 0.0015329575 0.108992316 -0.023433985 -0.042656053 0.08254787 0.003023545
0.054868534 0.008071345 -0.0368696 -0.03369889 0.61811835 0.5651452 -0.31010878 -0.393008
-0.49893245 -0.49259782 -0.4876252 -0.3901912 0.44389936 -0.5089739 -0.60502696 0.503516
-0.5792365 -0.48892164 -0.5615245 0.038386375 -0.2715676 0.29276922 -0.07446682 0.14189
-0.27697334 0.1607044 0.3386265 -0.054496937 0.0034658103 -0.061923288 0.096915886 -0.18125877
-0.023545515 0.062591285 0.056081448 -0.00044010393 0.047426965 -0.0819301 0.02189626 0.10638074
0.05123278 0.10130408 -0.13795008 -0.13602425 -0.12287855 0.08315212 0.03841449 -0.04865958
0.07055893 0.21075764 -0.008113052 -0.15879726 0.10045679 -0.011016747 -0.09720969 -0.104882255
0.14680381 0.070695244 -0.10620847 0.18689558 0.11407387 -0.05125762 -0.049324516 0.002885764
-0.04793355 0.25131875 0.07732413 0.011891995 -0.16654705 -0.17880014 -0.058255736 -0.20676292
-0.039029792 0.078146346 0.08173647 -0.10337794 -0.22956283 -0.14330968 -0.26065493 -0.054462627

gcn_layers.0.edge_feat.U.bias f4 [30]
00000000: d866 953e b2b2 56be 72e1 f3be b2d4 eebd
00000010: d336 b83d e6df 0cbe 8661 0fbf be24 013e
00000020: 00a4 ba3d 5a63 6a3e 9230 bcbe 9683 323c
00000030: bc17 86bd 5776 fa3d 2765 d1be d9ef 4abe
00000040: e65c eabb 7aaf 19bd 37d2 85bd 01a3 f7be
00000050: 5581 173e 7ee3 013d 2a53 203d 5aae 67be
00000060: 9be8 c2bd 865b 513e a394 d1be 419b 47be
00000070: c5eb 123d dd62 01bf
0.29180026 -0.20966604 -0.4763294 -0.11661662 0.08994832 -0.13757285 -0.56008184 0.12611672
0.09113312 0.22889462 -0.36755806 0.01089563 -0.06547496 0.12229603 -0.40897486 -0.19818057
-0.0071521876 -0.037520863 -0.06534236 -0.4836655 0.1479543 0.031711094 0.03914181 -0.22625104
-0.09517022 0.2044507 -0.40933713 -0.19492818 0.03586938 -0.5054148

gcn_layers.0.edge_feat.V.weight f4 [30, 30]
00000000: 32b4 8a3c c1ed d8bd c55a c7bd 8803 f13d
00000010: 2f71 23be 32d4 35b8 c335 a9bd fbb5 373d
00000020: 5fe5 02be 7976 febd 9809 ea3d 2516 35be
00000030: 1fba efbd ce6f 06be d787 f43d 94bc 4c3d
00000040: 0121 423e 0f39 fcbd 0787 73bd 89ab c9bd
00000050: ae24 c03c 54c0 af3d 2727 00be bc4c ef39
00000060: dcc0 093e a631 02be 004f a2bc d77c 33bd
00000070: 94f0 48bd 0c1e 28bd 707f 21be 2c66 f5bd
00000080: 4e87 18be b9a6 cc3c 3167 fb3d 2ee1 5a3b
00000090: e9ae 413d 3fec d8bc b32e 4e3d 3dd9 3f3e
000000a0: a558 99bd bf10 013d 2273 22be 5f7d d6bd
000000b0: 86dc 21be db15 3d3e e121 323e 96ea 3dbe
000000c0: 00c6 3bbe 7937 ed3d f516 40be 7ba8 013d
000000d0: fd50 23be d14b aebd d352 14be d460 c1bc
000000e0: db9c 6abd e99f 15be 5353 87bd 0538 28bd
000000f0: 2df7 e53d a2fd aa3d bb1a 9db9 cbd0 a2bd
00000100: 59da 3bbe b535 3dbc 600f dfbd 7a51 403e
00000110: dac7 d1bd 8783 89bd 2d90 a3bd 345a b03d
00000120: 9470 f3bd 9f6c 15bc 043a e83d 764e fb3c
00000130: 9688 d6bd 14ab 1abe e500 9bbd d42b 2bbc
00000140: ae24 c2bd 7e49 adbd 2662 33bd 60f8 d3bd
00000150: 99a8 84bb 683e c83d 8b61 e83d d826 f33d
00000160: 9264 58be 3f95 173e 56ec d13d ee4f 2a3e
00000170: aae2 353e 38b2 f83c a235 32be 6e95 fb3d
00000180: cc04 80bd 5801 493e ce82 a13d b906 643e
00000190: fd7a a4bc ec4d 213c 3c91 48be 016d 803e
000001a0: 467f ee3d c4aa 333d 7924 993d dd92 41be
000001b0: d1eb 283e 8b45 6d3d 5be8 bc3d b4a5 673c
000001c0: ed9d 2cbe d471 2d3e 72c0 9abd 5bb1 643e
000001d0: 495e 203e abba 073e 05a6 88bd fcaa 09b8
000001e0: 84f4 36be 908a 19be a344 033d bb79 e53b
000001f0: 109c 33be c796 22be be3e 083e 6dec c7bc
00000200: 26a4 24be 853d 2ebe 3104 963c f668 9cbd
00000210: 5f05 0ebd 9693 95bd 4875 afbd 7572 c23d
00000220: 426b c13d 60ac e43c 6904 533e 1371 a5bc
00000230: c326 0ebe 2e2a 953d 1e7b 393e 3bdb 8e3d
00000240: 5830 153e cdec 873c b79d 7abd cde3 843d
00000250: 5d40 b5bd 8b7c 6e3d 1aee c83c e8b7 b53d
00000260: c43b 1d3c 89cd 803d 3191 183d 9da5 bebd
00000270: 86cd a7bd 032a 1a3e 6c34 cdbc 1542 d73d
00000280: dd3c c43c 07d2 1cbe d323 103e 18fd 3e3d
00000290: 023f e03d d481 ef3d a3ba 463c 8dce 3f3d
000002a0: 3ff1 253c 3dcf 833c 9a9c 93bd 5f7f 08be
000002b0: 793e de3b 3092 fcbc b69f df3c 3b6e e03d
000002c0: ffce 373e 101a f6bd ed39 52bc 3320 0dbd
000002d0: af77 2f3e fc88 333d 5e76 26be 35bb 21be
000002e0: 8ac2 223e f869 543e e4aa 143d ad7b e33c
000002f0: 0e7c b23d b982 15bd 2a22 b83d 88c5 f3bd
00000300: 72e7 7a3d 1074 073e 3263 1b3e 8710 67bc
00000310: f24e 02bd 1b92 d53d 31e4 48be 73f7 cbbd
00000320: 09b6 50bd cc80 e3bd 52c7 f6bd 1f48 77be
00000330: 61df 173e 2f3c 50be ae59 f83d d394 3a3e
00000340: 771a a03d 75d1 e8bd c277 f6bd 719e 70bd
00000350: 48de 683d bdc5 10bd 1f1c 053e a42f 043d
00000360: c086 efba 92ec 7d3d 2899 c2bd f30d ab3c
00000370: 3c26 5b3c 80ea 0b3e 6d2e afbd 9bc7 e63c
00000380: 666b d2bd 1fb5 bbbd 38ee b53d a30b f7bd
00000390: db5c 6dbd 9fb6 2d3e 86d7 96bd 7ce3 70bc
000003a0: d9b3 b23d d4e0 313e c1f6 f13c 28da 203e
000003b0: 0073 42bd e16b 4fbc 62b2 40bd c75e 023d
000003c0: 749a 2c3e 3297 df3d 075a 91bd 069c 2cbe
000003d0: e947 8dbd 9070 f63c 44f5 82bc b5d3 153e
000003e0: a1a5 0a3e 792c 38be 767c 3f3e 1a54 85bc
000003f0: f4f8 a7bd 1c20 4e3b a973 1fbe d089 39be
0.016931627 -0.10592223 -0.0973411 0.11768252 -0.15961145 -4.3351385e-05 -0.08262207 0.044851284
-0.1278281 -0.124249406 0.11427611 -0.17684229 -0.11705422 -0.13128588 0.11939972 0.04998453
0.18957902 -0.123155706 -0.059454944 -0.09847171 0.02345499 0.085816056 -0.12514935 0.00045642804
0.13452476 -0.12714252 -0.01981306 -0.04382023 -0.04905756 -0.04104428 -0.1577127 -0.11982378
-0.14895365 0.024981843 0.122755416 0.0033398378 0.047285948 -0.026479838 0.050337505 0.18735214
-0.07487611 0.03151011 -0.15864232 -0.104731314 -0.1580678 0.18465368 0.17395736 -0.18546519
-0.1833725 0.11582846 -0.18758757 0.031654816 -0.15948863 -0.085105546 -0.1448472 -0.023605742
-0.057278495 -0.14611782 -0.0660769 -0.04106905 0.11228786 0.08349158 -0.0002996529 -0.0794998
-0.18345012 -0.011548449 -0.108916044 0.18781081 -0.10243197 -0.0671454 -0.07986484 0.08610955
-0.11886707 -0.009120136 0.113391906 0.030677062 -0.104752705 -0.15104324 -0.0756853 -0.010447461
-0.09479652 -0.08461283 -0.043794774 -0.10350108 -0.0040484187 0.09777528 0.1134673 0.11872643
-0.21132115 0.14803027 0.10250156 0.16632053 0.17762247 0.030358419 -0.17403272 0.12284361
-0.06250915 0.19629419 0.07886277 0.2226819 -0.020078177 0.009845238 -0.19586653 0.25083163
0.11645369 0.043864027 0.0747766 -0.1890368 0.16496207 0.05792765 0.09224006 0.014138628
-0.16857119 0.16937953 -0.07556237 0.2233328 0.15660967 0.13254802 -0.06672291 -3.2822587e-05
-0.17866713 -0.14994264 0.03204788 0.007003037 -0.17540002 -0.1587783 0.13305184 -0.024404729
-0.16078243 -0.17015655 0.018312545 -0.07637207 -0.03467309 -0.073035404 -0.085672915 0.09494487
0.09444286 0.027914226 0.20607151 -0.02019552 -0.13881974 0.07283436 0.18113372 0.06975409
0.14569223 0.016592408 -0.061185565 0.06488762 -0.08850167 0.058224242 0.024527598 0.08872968
0.009596769 0.06289203 0.03724784 -0.09308932 -0.08193497 0.15055089 -0.02504941 0.10510651
0.023954803 -0.15314494 0.14076166 0.046628088 0.10949518 0.116946846 0.012129459 0.04682784
0.010128318 0.01609003 -0.07207604 -0.13329838 0.0067823497 -0.030831426 0.027297836 0.10958525
0.17950056 -0.1201669 -0.012831193 -0.034454536 0.171355 0.04383181 -0.16256091 -0.1579407
0.15894523 0.20743549 0.036295786 0.027768934 0.08715068 -0.03650162 0.08990891 -0.119029105
0.06125588 0.13227868 0.15174559 -0.0141030615 -0.03181357 0.10428258 -0.19618298 -0.099593066
-0.050954852 -0.111085504 -0.12049736 -0.24148606 0.14831306 -0.20335458 0.1212648 0.18220834
0.07817548 -0.11368076 -0.12034561 -0.05874485 0.05685261 -0.035344828 0.12999009 0.032271996
-0.0018274412 0.06199319 -0.095018685 0.020880675 0.013375815 0.13663673 -0.08553777 0.028171351
-0.10274391 -0.091654055 0.08883327 -0.120627664 -0.057949882 0.16964196 -0.073653266 -0.014702674
0.087257095 0.17370921 0.029536607 0.1570822 -0.047472954 -0.012659998 -0.04704512 0.031828668
0.16855794 0.1091751 -0.070972495 -0.16856393 -0.068984814 0.03008297 -0.015986092 0.14631541
0.13539745 -0.17985715 0.18699822 -0.016275454 -0.08201781 0.0031452244 -0.15571465 -0.18118978

gcn_layers.0.edge_feat.V.bias f4 [30]
00000000: ac60 c9bc 4d42 13be 5113 87be 5ed1 253d
00000010: b5b9 473d 5418 a5bd d99b 0ebf 74d8 9f3e
00000020: 4934 75be 5d9f ab3e 53e5 fabe 26b5 003e
00000030: b7d5 96be a08f 8c3e 6a77 7fbe d5e6 abbd
00000040: 007f 0ebe 7c66 e83c 5908 a0be 2494 9bbe
00000050: b427 ca3d 1ad0 4e3e e471 533e 5c15 1bbd
00000060: 9786 08be ded8 bb3c a636 65be 7051 063d
00000070: 0680 5fbd e216 d1be
-0.02458223 -0.1438076 -0.26381925 0.04048287 0.04876109 -0.08061281 -0.55706555 0.31219828
-0.23945726 0.33520022 -0.49003085 0.12569103 -0.29459926 0.27453327 -0.24947897 -0.08393637
-0.13915634 0.02836918 -0.3125637 -0.3038646 0.09870854 0.20196572 0.20648915 -0.037862167
-0.13332592 0.022930559 -0.22384128 0.03279251 -0.054565452 -0.4083777

gcn_layers.0.edge_norm.batch_norm.weight f4 [30]
00000000: b438 883f 10c9 6f3f 704c 863f a5b4 873f
00000010: 94f2 773f 1d46 823f 7948 803f b7f7 823f
00000020: e205 843f 8bc2 863f a641 7e3f 5529 843f
00000030: 1ebe 823f cb25 7d3f 10fa 793f e370 863f
00000040: 1be4 843f e6f4 803f 3865 823f 2dfa 7d3f
00000050: 78aa 803f 8ddb 7d3f 9b65 813f 81ae 773f
00000060: 5ebf 6c3f dafd 833f c0b1 813f 92fb 7f3f
00000070: b150 823f fd14 893f
1.0642304 0.9366617 1.0492077 1.0602003 0.9685452 1.0177647 1.0022117 1.0231847
1.0314295 1.052812 0.9931892 1.0325114 1.0214269 0.9888579 0.9764719 1.05032
1.0382112 1.0074737 1.018714 0.9920986 1.0052023 0.9916313 1.0109133 0.96750647
0.92479503 1.0311844 1.013237 0.9999324 1.0180875 1.070953

gcn_layers.0.edge_norm.batch_norm.bias f4 [30]
00000000: bfd4 8a3d c5a7 90bd 90b7 943d d1c4 a4bc
00000010: 8358 c2bc 4ffa 40bd a065 603b 2e5f 543d
00000020: a31e 21be 21e2 3f3d 65ae f13d 3553 243d
00000030: 0377 993b 17b8 1fbb 700c 013b a83b 0e3d
00000040: e41d 493d e327 fd3c 7e9b bbbc 5a42 bbbd
00000050: e6c2 3a3c 8d4c 32bd 0729 30bd e2c8 75bd
00000060: 75ba 08bd 0948 2d3d 4513 14bd 52c0 853c
00000070: 0034 c93c 3604 2ebe
0.06778859 -0.070632495 0.07261574 -0.02011338 -0.023723846 -0.047113713 0.003424026 0.051848583
-0.15734343 0.046846513 0.11800841 0.040118415 0.0046833768 -0.00243712 0.0019691251 0.03472486
0.04910077 0.030902809 -0.022901293 -0.09143515 0.0113990065 -0.043530036 -0.043007877 -0.06000603
-0.033380944 0.042305026 -0.03615119 0.016327057 0.024560928 -0.16993794

gcn_layers.1.node_feat.U.weight f4 [30, 30]
00000000: 4d6a 1ebe 6f69 45bd 6de6 003e 0a99 433e
00000010: eaff 90bd 546e d6bd 0f46 b73d 619d bfbd
00000020: 6f5e 0f3e 5107 ef3d 8464 6ebd 3368 05be
00000030: d5e0 d6bd de8b a03d 1036 1b3e 8d95 d5bd
00000040: 33cf 2e3d 90d3 fcbd 983b 633e 4b99 5fbc
00000050: e180 c8bd 7a18 efbd 897f 013c 6c13 5e3d
00000060: 34a9 783e a908 2f3e 6149 00be 7062 e83d
00000070: 3bff b4bd 3154 19be 9f09 57bd 44ee 80bd
00000080: 76de 433b bdf9 5fbd da45 993d afe7 d03d
00000090: fdb0 f0bd aa31 073e 275f 9dbd 441b 7a3d
000000a0: 2260 d4bd a3aa 0c3e 6c4c 143e c3e5 113e
000000b0: e334 be3d b4e9 efbd f6a9 c5bd b5a8 793d
000000c0: a29c d33d 7677 0d3e 9695 efbd f50a 703c
000000d0: acda 923d cbd4 c83c a320 1dbd 41f2 1dbe
000000e0: a9f9 b3bd 7556 793e 4cd9 20bd 441c 9dbd
000000f0: 2c8c 69be 550b c7bd b84e c73c 427d 133e
00000100: c4c5 ccbd 9667 c03d ced0 23be cb4c 783d
00000110: 6bd8 1bbe 70db a8bd 8792 a3bd c70b b63d
00000120: 43ef 3d3e 1140 03be 96be 593e d5a4 93bc
00000130: a37d 203d 8915 86be e606 723d 23d4 293e
00000140: 3054 22be d8d7 28be f48e 70ba fce8 64bd
00000150: 5e86 02bd 08a3 09be 8fb4 e03d 8a64 6fbd
00000160: 7f1a 093e fb06 6f3c b345 3cbe 2c19 bcbc
00000170: 9baa 3dbe f5f7 26bc d7b0 3fbe 5aaf f73c
00000180: 3a2a acbd 232a 63be 3c17 91bd 5ce5 f83d
00000190: f42b 90bd 83ea 5abd fb0b 033e 224b adbd
000001a0: fe5d fc3b 9b84 9f3d b9bb ac3d 6a9e 54be
000001b0: d754 83be 9624 773d bcbe cabc bbbe 64bd
000001c0: e2fe a1bd f1cb 323d c263 d13d a4c8 943d
000001d0: 2bbb 46bd 2dcc 13be c622 0abe c2e6 16bd
000001e0: c5d0 6d3e 1d25 ed3b c3bb 75bc c766 96bd
000001f0: 01a0 1f3e ebea 9e3c 1ce8 3f3c 2e18 95bd
00000200: a5fc 25bd d57c cabc 0ae4 f7bc 2767 6d3d
00000210: b8cc dfbd 916f 61bd fd4f be3e 6fc9 e63d
00000220: 6231 f4bc 0704 b3bc 4dd6 3e3e 1e53 043d
00000230: 57c0 e0bd 8fdd e8bd 52b1 313e 3f69 36bd
00000240: 1075 0ebe 2805 41be c965 1c3e aa0a f2bd
00000250: 7ca8 80bd 9635 063e 4fa2 a93c ce42 763e
00000260: 937c d9bb a5da b83d 995c f0bd 70dc 233d
00000270: 1edf 983d 0bc4 34be c685 3d3e 0845 cf3d
00000280: 8f83 b6bd dcf9 a1ba f896 21be aa10 89bd
00000290: 2e9d 8a3d 0936 04bd 4d8f 5dbd 10b1 19bd
000002a0: f9f3 e53d a28a 00bc 947e 3abe b717 9ebb
000002b0: 3e99 ae3d a987 44bd c057 9cbd 0adf 5dbe
000002c0: f204 cf3d 5474 113e c357 2bbc 4e47 cc3c
000002d0: 97c2 7ebe b890 78be ca67 953d 8fc2 253e
000002e0: 42a6 f93c be03 d4bd ee95 1d3e 2c65 de3d
000002f0: 5635 45bd 03af 79bd ed47 a8bd a793 3d3d
00000300: 1c6a 483b 4730 47bd fd19 8fbd 12a8 15be
00000310: 397e 8e3d d2af cbbd ef98 f53d c468 523d
00000320: 71b1 8c3d 6907 18be 1fef e6bc f341 163e
00000330: 6b9b 11be a791 babd fbbb 403d 5677 cc3d
00000340: 77b0 33be cbbe 0dbe 4612 2ebe a67b 51be
00000350: 95c2 33be 4d92 24be 92a4 84be 0c72 f1bd
00000360: 3300 473e a44c 0fbd 27d3 bf3c c17a 1cbe
00000370: 5b2a c7bd e702 e63c 1254 48be a9b5 07be
00000380: bc6b 063e 4669 85bd 2af4 1b3e daf8 92bd
00000390: 519e 27be f30a debd 7231 96bd 0d58 b5bd
000003a0: c15c d7bd 182f 6abd aa77 a5bd c4ff 053e
000003b0: 788e 0dbd e006 9fbd 3690 b1bd f248 113e
000003c0: 2f1b 24be a4c4 d2ba a1c2 80bd d49e c63d
000003d0: f0dd 553d 43e7 4dbe d5df 423d 432b 0f3d
000003e0: 33ba 39bc b0c4 d3bd d741 b1bd a90c 35be
000003f0: e58e 1a3e 4c0a 8ebe 7a01 15be 43d0 d93d
-0.15470238 -0.048196252 0.125879 0.19101349 -0.07080062 -0.10470262 0.089489095 -0.093561895
0.14000867 0.11671317 -0.058201328 -0.1302803 -0.10492102 0.078391775 0.15157342 -0.10428915
0.04267807 -0.1234504 0.22190702 -0.013647388 -0.09790207 -0.116745904 0.007903942 0.05421774
0.24283296 0.17093147 -0.12527992 0.113469005 -0.08837744 -0.14973523 -0.05249941 -0.062954456
0.0029887236 -0.05468153 0.07484026 0.1020044 -0.11752508 0.13202539 -0.076841645 0.06106116
-0.103698984 0.13736968 0.14482278 0.14247803 0.09287431 -0.11714497 -0.09651558 0.060951907
0.1033261 0.13815102 -0.11698453 0.01465105 0.071706146 0.02451553 -0.038361203 -0.15424444
-0.08787853 0.24349387 -0.03926973 -0.07671407 -0.22807378 -0.09718958 0.024329528 0.14403251
-0.09998658 0.093947574 -0.15997621 0.06062011 -0.15219276 -0.082449794 -0.07986932 0.08888965
0.18548302 -0.12817408 0.21264109 -0.018022934 0.039182317 -0.26188305 0.05908861 0.1658483
-0.15852427 -0.16488588 -0.0009176575 -0.055886254 -0.031866424 -0.13441098 0.10971939 -0.05844549
0.13389014 0.014589067 -0.18385963 -0.022961222 -0.18522112 -0.0101909535 -0.18719803 0.030234981
-0.084064916 -0.22184043 -0.0708451 0.12153122 -0.070396334 -0.053446304 0.12797539 -0.08461596
0.0077016344 0.07788964 0.08434243 -0.20763555 -0.25650665 0.060337625 -0.024749152 -0.055845957
-0.07909943 0.043651525 0.102241054 0.07264832 -0.04851834 -0.14433356 -0.13489828 -0.03684116
0.2322417 0.0072370903 -0.014998379 -0.07343822 0.1558838 0.019399127 0.011713054 -0.072800025
-0.040524144 -0.024717728 -0.030260105 0.057959702 -0.10927719 -0.05503804 0.371704 0.11268889
-0.029808704 -0.021852506 0.18636437 0.03230583 -0.10974186 -0.11370384 0.17352799 -0.044533964
-0.13911843 -0.18849623 0.15273203 -0.1181844 -0.06282136 0.13106379 0.020707278 0.24048921
-0.006637165 0.09026078 -0.117364116 0.040005147 0.07464431 -0.1765291 0.18508062 0.101205885
-0.089118116 -0.0012357789 -0.15780246 -0.066926315 0.06768261 -0.032278094 -0.05409174 -0.037522376
0.11228175 -0.007845553 -0.18212348 -0.0048246044 0.085253224 -0.047980938 -0.076339245 -0.21667114
0.10108365 0.14204532 -0.010457936 0.024936344 -0.24878918 -0.24273956 0.07295187 0.161875
0.030474786 -0.10352276 0.15389225 0.10859141 -0.04814657 -0.06095792 -0.08216844 0.04628339
0.0030580824 -0.048630025 -0.06987379 -0.14614895 0.06957669 -0.099456444 0.119920604 0.051369444
0.06869782 -0.14846577 -0.028190194 0.14673595 -0.14219444 -0.09109812 0.047054272 0.09983699
-0.17547785 -0.13842313 -0.16999158 -0.20457324 -0.17554696 -0.16071434 -0.25906807 -0.11789331
0.1943367 -0.0349852 0.023416115 -0.15281202 -0.097248755 0.028077556 -0.1956332 -0.13252892
0.13127035 -0.0651422 0.1522986 -0.07176371 -0.16368987 -0.10841932 -0.0733365 -0.08854685
-0.10515738 -0.05717382 -0.08079465 0.13085848 -0.034559697 -0.07764983 -0.08670084 0.14187983
-0.16025995 -0.0016080332 -0.062871225 0.09698263 0.05221361 -0.2010775 0.047576744 0.034953367
-0.011335897 -0.103402495 -0.08655136 -0.1768061 0.15093572 -0.2774223 -0.14551345 0.10635426

gcn_layers.1.node_feat.U.bias f4 [30]
00000000: 96ae 2d3e bd8a 333e beed 003d 2cdd c7bd
00000010: d025 273e 27d0 b53c 2624 223e 1127 9abd
00000020: 81a7 193e 4de4 21be 5da7 05be d503 2dbd
00000030: 33bd 923d cbd4 aebd 2a52 163e dc53 1dbe
00000040: 3448 39be 8f0d 1a3e e153 20be 22db 053e
00000050: 0b49 e6bd 3e5e a03d a999 89bd 848d 8d3d
00000060: 5d09 c3bd 234a 133e 48c8 c03d 2cd1 2cbe
00000070: 4583 153e 745a dabd
0.1696113 0.17533393 0.03147673 -0.09758982 0.16323018 0.022193981 0.15834102 -0.075269826
0.15005304 -0.15809746 -0.13052125 -0.042239983 0.07164993 -0.08536681 0.1467978 -0.15364021
-0.1809395 0.15044235 -0.15656997 0.13071874 -0.112444006 0.07830475 -0.067187615 0.069117576
-0.0952327 0.1438375 0.094132006 -0.16876668 0.14600857 -0.10661784

gcn_layers.1.node_feat.V.weight f4 [30, 30]
00000000: 4e0a c83d 679a d73d a9fb 513d 3276 7ebe
00000010: 5fcb d1bd c18d 1a3e a987 42be 127b 06bd
00000020: 6c87 a0bd 0fe1 323e e82b 213d 866e 613e
00000030: 47a9 853d 2395 ff3d d098 94bd 4a34 6c3e
00000040: 56b8 c13d fa2e be3d 2bba 563d abae 31be
00000050: c358 21be 1e4f f53d 66bb fbbc 38d1 853e
00000060: d8c2 e2bd 0fcc 91ba ccf0 dc3d 2135 b63d
00000070: 0eae 9fbd bc06 5dbd 8d27 85be a497 a93d
00000080: 4a18 21bc 1bdf 24bd 8ee7 a5bd b87b 2bbe
00000090: ae27 aa3d b2b0 333e b15c e6bd 6071 70bd
000000a0: 3340 1f3e 4bb0 933b 455a a9bd 3422 fb3c
000000b0: d802 af3c 1f84 65bd 5696 22bd 0599 063e
000000c0: 7c4e 39be 5c16 b3bd 06a9 013d 3474 ce3d
000000d0: df0c 56be 5a7a 5e3d 3dbb 22bd b84e 1ebd
000000e0: e484 a93d 23fb dcbd 92e5 afbd 606f 62bd
000000f0: d860 53bb 87b6 ca3d 319c ccbd b65b a4bd
00000100: 0f53 503d 5281 153d be5b ff3d a65a 99bd
00000110: e1e3 44bd c3b7 aabd 3b57 af3c cb39 973a
00000120: 1394 f0bd 9a4f c33d 2c33 1d3c 5d61 74bd
00000130: 0cfc f73d 0af5 1e3e fe94 f9bd fc50 c4be
00000140: 5766 493c 99dd 773d d23d 153d c1a6 053e
00000150: 3feb c33d 84b8 bd3d edc3 9e3d aaf5 c7bc
00000160: d125 03be 818b aabe 529b d6bd 82c3 e33d
00000170: 86b0 8cbd 53c5 09be 30b1 cebd 3f10 893d
00000180: 66f3 613d 2539 273d 0714 f53d 8de3 cabd
00000190: c96c 5ebd ec96 00be 3eb0 133e 013b c33d
000001a0: 28db 773d d1f2 4c3d e581 003e 78c8 20bc
000001b0: fa47 c53d a607 b2bd 96a2 15be b2af d5bd
000001c0: df48 42be e631 ba3d 8e46 403c 1f06 793c
000001d0: 7ac2 d0bd 71e7 29be b7f4 aabd 3d4d 123e
000001e0: b04d a73d 167f 303c 414a fa3d 717b 383d
000001f0: ec09 a4bd 58c2 023e 0160 2a3d c3c2 a5bd
00000200: 916c 52bd 11dd b5bd f36e 883b 3d5d 623d
00000210: 70e5 bb3d 61fd 8e3e a677 b33e f904 7dbd
00000220: 7980 063e 2429 6bbd c874 4b3d 9948 a2bc
00000230: 7edd 38bb b435 1c3e 3fc7 d4bd 3b63 e3bd
00000240: 9e35 6a3d 4f3a cf3d 4094 4abd cba7 e7bd
00000250: 0f32 62bd 87b0 1d3e c3e4 45bd 7e90 723c
00000260: ca95 aebd b359 3f3c c57d d1bd 11c1 083e
00000270: 3d47 aa3d 91b0 7dbe 6a5c 473e 3e12 60be
00000280: 07a7 d0bd af3c 603e b2a7 bfbe a7bd 94bd
00000290: 1fdc d93e 3db5 2b3e dfc2 96bd c941 57bd
000002a0: 3045 fabd ff30 2e3e dcdd 38be e8ee 0dbe
000002b0: 08f0 b5bd 92e6 72be e3c0 063e 8c29 a53d
000002c0: 02e7 623e 4ca5 58be 4455 4c3d 3497 8dbe
000002d0: d9bb 86be 9d99 b13c b386 2ebe ac1e 81bd
000002e0: 8b10 413d 0811 ff3c dcb9 b03c 082a 0d3e
000002f0: ee18 df3d 2739 f5bd 3019 133e 2f07 d13d
00000300: 6f9c fcbd 4477 87be 19a1 efbc 1aa5 be3c
00000310: 762b 8e3d 075e cf3c 69ed 5dbd bd34 c5bc
00000320: b27d b13b 9cb1 55be 4266 3dbd 6695 b2bd
00000330: ec32 d8bd 0ac3 263e 8192 9dbc b3f8 983c
00000340: 5e7f f6bd bc48 00be 9d05 203e a760 f13c
00000350: d54c de3d f7ed b93d fcc5 1c3e 1301 96bd
00000360: 1139 493d 550a 883c cbfa 1e3e 7ee7 ecbd
00000370: af7f 15bd d9df e03d f6a3 a03d e5c5 693d
00000380: 0a35 bcbd 665b 17be bca3 b0bc 217c 80ba
00000390: 6f44 ca3d 7f2c 20bc 5839 673d 8d62 bdbd
000003a0: 19d5 63bc f46e 113e bda5 b53d f49f 143e
000003b0: d6fa 8dbd 0ac2 67bc 5a0a 023d e159 4cbe
000003c0: cbbc 2d3e a6d5 163e 4cb9 513e 66e5 45be
000003d0: fb9e fb3b 4b59 f03c e806 90bd d46a 9dbd
000003e0: 77f4 423c 75c6 c93d 4cc9 0c3d e57a 223e
000003f0: d202 1d3e c3d8 1cbd 2dc8 0c3e 8a37 bcbd
0.097675905 0.10527497 0.051265392 -0.24849775 -0.10243868 0.15093137 -0.18997063 -0.032832213
-0.0783833 0.17468666 0.039348513 0.22014818 0.06526428 0.124796174 -0.07255709 0.23066822
0.094589874 0.09286304 0.052423637 -0.17351787 -0.15756516 0.11977981 -0.030729007 0.26136184
-0.1107232 -0.0011123436 0.10788116 0.08896852 -0.0779687 -0.0539615 -0.26006737 0.08280876
-0.009832451 -0.040251832 -0.08100806 -0.16746414 0.083083495 0.17547873 -0.11248148 -0.058701873
0.15551834 0.0045070997 -0.08269171 0.030655958 0.02136366 -0.056034204 -0.039694153 0.1314431
-0.18096346 -0.08744499 0.031655334 0.10080758 -0.20903347 0.054315902 -0.039729346 -0.03864929
0.082773 -0.10790088 -0.08588709 -0.055281997 -0.0032253768 0.098980956 -0.09990729 -0.08025305
0.05086046 0.036500283 0.1246867 -0.07487993 -0.048068885 -0.08335831 0.0214039 0.0011537609
-0.11746993 0.09536667 0.00959472 -0.059663165 0.12108621 0.15523162 -0.12186621 -0.38343036
0.012292466 0.060514066 0.03643591 0.13051893 0.09566354 0.09263709 0.077522136 -0.024409134
-0.12807395 -0.33309558 -0.10478844 0.111212745 -0.06869607 -0.1345418 -0.100923896 0.06692552
0.055163763 0.04082598 0.119667105 -0.09906683 -0.054302964 -0.12557572 0.144227 0.095327385
0.060511738 0.050036255 0.12549551 -0.0098134205 0.09632869 -0.08692865 -0.14612803 -0.10433902
-0.1897311 0.090915486 0.011735572 0.015199213 -0.101933435 -0.16592194 -0.08347457 0.14287277
0.081691146 0.010772487 0.12221194 0.045039598 -0.08009705 0.12769449 0.041595463 -0.080937885
-0.05137307 -0.08880056 0.004163617 0.0552647 0.09174621 0.27927688 0.35052222 -0.06177232
0.13134946 -0.05741228 0.04967192 -0.019810008 -0.0028208192 0.15254861 -0.10389566 -0.11102911
0.05718004 0.10118543 -0.04945779 -0.11311301 -0.05522352 0.15399371 -0.048313867 0.014804957
-0.08524664 0.011679101 -0.10229067 0.13354899 0.08314369 -0.24774386 0.19468847 -0.21881959
-0.10188108 0.21898149 -0.3743263 -0.07262736 0.42550752 0.16768356 -0.073613875 -0.052552972
-0.12220228 0.17010878 -0.18053383 -0.13860667 -0.08883673 -0.23720768 0.13159518 0.08064565
0.22158435 -0.21156806 0.049886003 -0.2765442 -0.2631519 0.021679694 -0.17043571 -0.06304678
0.047134917 0.03113605 0.021573 0.13785565 0.10893427 -0.119737916 0.14365077 0.10206448
-0.12334525 -0.2645818 -0.029251622 0.023272086 0.06941883 0.02531339 -0.05418149 -0.024073
0.0054165954 -0.20868534 -0.0462401 -0.08719902 -0.105565876 0.16285339 -0.019234898 0.018673277
-0.12036012 -0.12527746 0.15627141 0.029465033 0.10854498 0.09078591 0.153099 -0.07324424
0.04912669 0.01660649 0.15525357 -0.11567591 -0.03649872 0.109801956 0.07843773 0.057073493
-0.09189804 -0.1478096 -0.02156245 -0.0009802618 0.09876334 -0.009776234 0.05645117 -0.09247313
-0.013905787 0.14202482 0.08869503 0.14514142 -0.06932609 -0.014145384 0.031748153 -0.19956161
0.1696655 0.14729938 0.20480841 -0.1932579 0.007678864 0.029339453 -0.07032567 -0.076863915
0.011899105 0.09852306 0.03437166 0.15867193 0.15333107 -0.038292658 0.13748236 -0.09190281

gcn_layers.1.node_feat.V.bias f4 [30]
00000000: abce 0cbd ddaa a8bc 047f 2f3c 839e d9bc
00000010: f699 0dbe e615 0b3e ea8d bd3c 9ba7 843d
00000020: f734 4f3d d7d4 243e 18ec a1bd 7323 08bd
00000030: ce64 b9bd ed0e 77bc 878b 1d3e 917e f7bd
00000040: 88f5 b8bc dfd1 4b3d 842e 123e 6938 223e
00000050: 22b6 f53d e095 fd3d a4d3 abbd 30f5 b33d
00000060: 6b6a bbbd 12ae 10be 0baa ee3d 61fe 04bc
00000070: 7697 26be 7c84 233d
-0.03437678 -0.020589286 0.010711435 -0.026564842 -0.13828263 0.13582572 0.023138959 0.06477281
0.05058762 0.16096817 -0.079063594 -0.033236932 -0.0905243 -0.015079242 0.15385257 -0.120846875
-0.022578016 0.049760696 0.14275557 0.15841831 0.1199763 0.12382102 -0.083899766 0.08787
-0.09151157 -0.14128903 0.11653527 -0.008117289 -0.16268715 0.03992127

gcn_layers.1.node_norm.batch_norm.weight f4 [30]
00000000: 0e5c 7e3f e360 8f3f f456 853f deb7 853f
00000010: df61 873f b009 813f 9955 7f3f 181a 903f
00000020: 6047 823f 99ff 6f3f 8606 763f a775 683f
00000030: 71ab 833f 1f30 873f 1247 853f 6eb9 763f
00000040: 1488 7d3f 66ad 923f cafc 813f eea7 943f
00000050: ea4f 833f 674f 873f 9e9b 7c3f 061d 843f
00000060: 1f10 813f 8225 843f b697 8c3f 04f0 723f
00000070: 64ee 843f b623 623f
0.99359214 1.1201442 1.0417161 1.0446737 1.0576743 1.0081081 0.99739987 1.1257963
1.0178032 0.93749386 0.96103704 0.90804523 1.0286695 1.056156 1.0412314 0.96376693
0.99035764 1.1459167 1.015527 1.1613748 1.0258763 1.0571107 0.98674953 1.0321357
1.0083045 1.0323946 1.0983799 0.94897485 1.0385251 0.8833574

gcn_layers.1.node_norm.batch_norm.bias f4 [30]
00000000: ee08 bcbc dca5 163d aa02 763b c08d c6bc
00000010: 4722 d93c 6379 3bbc 365d 02be 2af7 c0bd
00000020: d55e 9cbd c852 943c 9793 33bc b98b 7abd
00000030: 9ef4 41bc 5290 dfbd 8ce7 643d 930b 6e3d
00000040: 15e7 7f3d 3725 2ebd fa66 1e3d c851 ed3e
00000050: fcec 833c 297e aabd d7c6 40bd 6b36 5d3d
00000060: 1674 003d 7a5c f2bd 000f 983e 9e5c 66bd
00000070: e712 40be 25dd 223f
-0.022953477 0.03677927 0.003753821 -0.024237514 0.026505603 -0.011442515 -0.1273087 -0.09422143
-0.07635275 0.01810588 -0.010960481 -0.061168406 -0.011838106 -0.10916199 0.055884883 0.058116507
0.062476236 -0.04251596 0.038672425 0.46351457 0.016104214 -0.083248444 -0.04706463 0.054006975
0.03136071 -0.11834045 0.29698944 -0.05624067 -0.1875721 0.6361869
