models/model_20_65.pt (torch, 171378 bytes, 69 tensors)

node_embedding.weight f4 [40, 3]
-0.7762926 -0.04452023 0.40838626 -0.47324044 -0.5016429 0.264241 0.37594342 0.33066005
-0.107629485 0.013139373 -0.32054344 -0.23353961 -0.1347072 -0.6565411 0.05367095 -0.43795586
-0.10336012 -0.3507026 0.43343666 0.14287543 -0.08391803 0.47576842 0.44344577 0.07152334
0.9073166 0.44264227 -0.099947706 0.74795717 -0.41465387 0.3751943 0.31517452 -0.7677526
0.27104023 -0.14684713 0.41653255 -0.031099454 0.38319206 -0.5740134 0.33120263 -1.0407507
0.64527327 -0.004654293 0.6027176 -0.31725407 -0.31538516 -0.49634564 -0.6119337 0.23329204
-0.37645757 -0.18576752 0.29576662 0.5907787 0.10605264 -0.013701007 -0.8204975 -0.26779664
0.06533104 0.5716906 0.8461706 0.07129414 -0.7184367 0.6561954 -0.36378756 0.46948498
0.6409325 0.2439746 -0.42929947 -0.052001163 -0.2747106 -0.36914417 0.19307093 0.23663393
-0.30325398 -0.5338007 0.16373463 -0.6322748 0.008485418 -0.4331461 0.38520432 -0.5593128
-0.19915287 -0.47855967 0.64523673 0.3431734 -0.7967108 0.06926123 -0.1765306 0.08024224
0.318695 -0.104427174 0.32136324 -0.576012 -0.10955466 0.4454856 0.6288027 0.13577995
-0.42857125 -0.2469541 0.14474921 0.23777334 -0.34318936 0.4237069 -0.24139954 -0.26151434
-0.09117462 -0.27508074 -0.9134233 0.48764786 0.064294815 0.46063378 0.37260133 0.46722615
0.73532695 -0.18276542 -0.047547977 0.976513 0.07281348 -0.0033498858 -0.084781945 -0.36921382
00000000: 1dbb 46bf d85a 36bd 0118 d13e 924c f2be
00000010: ab6b 00bf 994a 873e a87b c03e 464c a93e
00000020: d96c dcbd 8646 573c 451e a4be 0225 6fbe
00000030: aff0 09be 1413 28bf 12d6 5b3d c03b e0be
00000040: 78ae d3bd 4b8f b3be 69eb dd3e f04d 123e
00000050: 37dd abbd eb97 f33e 530b e33e d47a 923d
00000060: e745 683f 02a2 e23e 62b1 ccbd 1f7a 3f3f
00000070: 834d d4be 7819 c03e 8e5e a13e 6f8b 44bf
00000080: c9c5 8a3e 185f 16be c143 d53e 48c4 febc
00000090: c031 c43e 8bf2 12bf 6493 a93e 5237 85bf
000000a0: a130 253f 0a83 98bb b34b 1a3f 206f a2be
000000b0: 2a7a a1be 0421 febe b0a7 1cbf 1ce4 6e3e
000000c0: 0cbf c0be d739 3ebe b96e 973e 463d 173f
000000d0: 2032 d93d 307a 60bc 200c 52bf a41c 89be
000000e0: 48cc 853d 515a 123f a39e 583f a902 923d
000000f0: 78eb 37bf 6cfc 273f 5d42 babe 5660 f03e
00000100: 2714 243f 7ad4 793e 24cd dbbe 2cff 54bd
00000110: dea6 8cbe 7700 bdbe 63b4 453e 2a50 723e
00000120: 1b44 9bbe 2aa7 08bf 0daa 273e c3dc 21bf
00000130: 6c06 0b3c 53c5 ddbe 8039 c53e 202f 0fbf
00000140: bbee 4bbe c605 f5be 3c2e 253f 6db4 af3e
00000150: 3df5 4bbf d5d8 8d3d 70c4 34be 0b56 a43d
00000160: fe2b a33e eadd d5bd b989 a43e 8675 13bf
00000170: 325e e0bd b016 e43e 37f9 203f e609 0b3e
00000180: b16d dbbe 89e1 7cbe 2339 143e db7a 733e
00000190: 84b6 afbe 1cf0 d83e 7131 77be 35e5 85be
000001a0: c2b9 babd 62d7 8cbe 1cd6 69bf fbac f93e
000001b0: 00ad 833d 31d8 eb3e 9ac5 be3e 4438 ef3e
000001c0: 633e 3c3f dc26 3bbe abc1 42bd c2fc 793f
000001d0: 3c1f 953d c289 5bbb 28a2 adbd 9809 bdbe

distance_embedding.weight f4 [20, 1]
-0.5373372 1.2116007 -1.1406051 1.1508515 0.7065552 -0.87606144 0.81711125 0.6265591
0.6262364 -0.54755354 0.81367797 -1.1466883 -0.6139694 0.36115697 0.84186125 -0.93374515
-1.1018258 -0.8814044 1.1946269 -0.73194027
00000000: ee8e 09bf bb15 9b3f 59ff 91bf 1a4f 933f
00000010: cde0 343f 9045 60bf 342e 513f 2d66 203f
00000020: 0751 203f 782c 0cbf 334d 503f afc6 92bf
00000030: 192d 1dbf 91e9 b83e 3884 573f ec09 6fbf
00000040: a108 8dbf b8a3 61bf 89e9 983f 7060 3bbf

edge_type_embedding.weight f4 [3, 20]
0.2604639 1.1088749 0.50389165 0.13724297 1.851521 0.9079856 -0.9940504 0.45992085
-0.18406269 0.20042571 0.3592508 0.57000023 -1.5703319 1.8305576 0.55799073 1.5769223
-1.786726 1.0909753 -0.09420932 1.1311262 -0.27918255 -1.3070129 1.6519966 -0.94698673
0.7420405 1.6742572 0.87513435 -0.6839992 0.86194026 0.69527274 0.35638803 1.0061816
-2.4098275 -0.23367654 -0.0049634003 1.3724155 -0.54914415 -1.3961457 -0.04843736 -0.4579664
-0.10836894 -0.41121522 -1.4851359 -0.92812943 -0.3728278 0.58308816 -1.4245024 -0.9382355
-0.9227592 2.1685424 0.11276299 -0.99088484 -0.7741952 -0.33788246 -0.92001903 1.8565848
0.57038814 0.0052196337 1.1391015 0.55540246
00000000: 865b 853e 9def 8d3f 0bff 003f 6c89 0c3e
00000010: a4fe ec3f bf71 683f 167a 7ebf bf7a eb3e
00000020: ee7a 3cbe 663c 4d3e b9ef b73e 89eb 113f
00000030: a300 c9bf b64f ea3f 7bd8 0e3f 97d8 c93f
00000040: 70b3 e4bf 14a5 8b3f d1f0 c0bd bec8 903f
00000050: 04f1 8ebe 334c a7bf a074 d33f b96d 72bf
00000060: 5ef6 3d3f 0f4e d63f ce08 603f 921a 2fbf
00000070: 1ea8 5c3f 65fd 313f 7e78 b63e 8fca 803f
00000080: 9d3a 1ac0 e748 6fbe 05a4 a2bb 50ab af3f
00000090: b694 0cbf e7b4 b2bf 4166 46bd 927a eabe
000000a0: 89f0 ddbd cd8a d2be ef18 bebf e499 6dbf
000000b0: 49e3 bebe 4445 153f 1856 b6bf 3430 70bf
000000c0: f239 6cbf 66c9 0a40 48f0 e63d a1aa 7dbf
000000d0: a831 46bf eefe acbe 5e86 6bbf 92a4 ed3f
000000e0: f504 123f 7609 ab3b 14ce 913f db2e 0e3f

gcn_layers.0.node_feat.U.weight f4 [40, 40]
-0.16438875 0.15005913 0.059634097 0.17849523 0.12838237 0.09455144 -0.11086553 -0.2670274
0.011444872 -0.02311156 -0.1522895 0.11557551 -0.04197733 0.07569992 -0.044742264 0.0646694
-0.15450941 0.009443911 0.18946335 -0.16668044 -0.008119218 -0.08853079 0.13455848 0.12913704
0.0553873 0.10304284 0.060701136 -0.17696777 0.0911479 -0.06692342 0.18834199 -0.024240503
-0.033844423 -0.15968913 0.13400276 -0.050518353 0.027561568 -0.06117608 0.015340221 0.115105405
-0.00010135054 -0.07114014 -0.039651528 0.1358991 0.20902489 0.12805961 -0.15165065 -0.18557176
-0.027538305 0.17719564 -0.071348205 0.046142757 0.021093009 -0.1853387 0.14220816 0.20914328
-0.11581224 0.018861342 -0.043595493 -0.3600425 0.028990952 -0.0661401 -0.036013965 0.02110165
-0.080674365 0.12072395 0.16041575 0.074676484 -0.097700916 -0.2164998 0.043427203 -0.027795086
0.14849527 -0.044111893 0.1915339 0.06590154 -0.17243388 -0.12202155 -0.26545888 0.12564923
0.19071664 0.18546903 -0.17141862 0.0036682284 0.082012 0.02927129 -0.07067292 0.033027112
-0.20266107 0.117801085 -0.11742042 -0.06891029 0.08605169 0.034095123 -0.26985428 0.11106356
-0.0010483507 -0.22593561 0.18679231 -0.02469307 0.091025084 -0.060458757 -0.11038665 0.018995898
0.21218362 0.1173122 0.023541521 0.011772836 0.1736585 -0.07907426 -0.17381798 -0.030796703
0.09402093 0.12244212 -0.021519784 0.022962961 0.19841664 -0.08645603 0.08084975 -0.05894847
-0.11957621 -0.0043145786 0.04373133 -0.115285225 0.013311757 0.05527259 0.12620924 -0.063257515
0.08080057 0.017536912 -0.18178144 0.092280574 -0.17575721 0.1938656 -0.14886403 -0.073218204
0.01063011 -0.153131 -0.08108111 -0.08579453 0.23103376 0.080269806 0.13441005 -0.11296041
0.060452353 0.07118135 0.122487016 0.03168975 0.12506166 0.10932426 -0.17274909 -0.1344756
-0.09195193 -0.086928755 -0.06453294 -0.18924882 -0.009143604 0.13729483 -0.11137912 0.12041127
-0.06637478 0.08762136 0.010846548 -0.08824312 0.2237699 0.06346813 0.10772813 0.113101825
0.009839897 0.1694174 0.054127995 -0.2059502 0.26892725 0.043330688 -0.119043596 0.12577312
0.13937691 -0.05260451 -0.07154914 0.02831565 -0.17630537 -0.041049816 0.056884065 0.13612857
0.03126158 -0.14855917 0.11777236 -0.14722098 -0.074410945 -0.02410264 0.20623355 0.057486266
-0.024735719 0.201513 0.15847233 0.12134299 0.032538686 0.101792865 -0.20927833 -0.07055583
0.0023451173 0.12667428 -0.049615137 -0.095155396 0.16101603 -0.056626283 0.059463445 0.04023606
0.12732032 0.15813628 0.15766919 -0.035453413 0.07922169 -0.33241844 -0.0075330036 -0.031081984
0.09689839 0.09126277 0.11224253 -0.16590627 0.04844442 -0.003553687 0.011565513 -0.06983466
0.021671508 -0.021129834 0.0898335 -0.09550619 -0.14153618 -0.009879681 0.20538971 -0.129334
-0.09242052 -0.08255744 0.104715966 0.02634744 -0.17265324 -0.08356924 -0.17579703 0.06785792
-0.030933991 -0.048333723 -0.16482863 -0.0190257 0.055171855 -0.12996395 -0.14096147 0.01410815
-0.20754352 -0.07728869 0.11971969 -0.28571454 0.11345628 -0.20545241 -0.06580035 -0.01575
00000000: 8655 28be 1aa9 193e e242 743d 74c7 363e
00000010: ab76 033e 2fa4 c13d 780d e3bd d1b7 88be
00000020: 4683 3b3c 7454 bdbc c7f1 1bbe dab2 ec3d
00000030: 6cf0 2bbd 8f08 9b3d aa43 37bd 6471 843d
00000040: b737 1ebe a2ba 1a3c ae02 423e 47ae 2abe
00000050: 7806 05bc a14f b5bd b3c9 093e 803c 043e
00000060: cbdd 623d 2008 d33d c1a1 783d 0a37 35be
00000070: c0ab ba3d 250f 89bd b9dc 403e 0594 c6bc
00000080: 73a0 0abd 8c85 23be 0538 093e 55ec 4ebd
00000090: ccc8 e13c c593 7abd 8d55 7b3c 62bc eb3d
000000a0: 288c d4b8 ecb1 91bd a469 22bd 2229 0b3e
000000b0: 9f0a 563e 0f22 033e 4f4a 1bbe 8606 3ebe
000000c0: 0398 e1bc c672 353e 021f 92bd 3000 3d3d
000000d0: 3fcb ac3c 6ec9 3dbe 049f 113e a829 563e
000000e0: f82e edbd 1a83 9a3c 3091 32bd 7e57 b8be
000000f0: 6f7e ed3c 7674 87bd 6183 13bd 5edd ac3c
00000100: 9a38 a5bd 1e3e f73d 0744 243e fcef 983d
00000110: 6b17 c8bd 20b2 5dbe b9e0 313d 85b2 e3bc
00000120: 250f 183e acae 34bd 7621 443e 63f7 863d
00000130: 8292 30be 6fe6 f9bd 3aea 87be 31aa 003e
00000140: 394b 433e 98eb 3d3e 5d88 2fbe a966 703b
00000150: e8f5 a73d 58ca ef3c f7bc 90bd 7047 073d
00000160: 6286 4fbe b241 f13d 1e7a f0bd d720 8dbd
00000170: de3b b03d 54a7 0b3d 572a 8abe 4b75 e33d
00000180: d068 89ba aa5b 67be 7c46 3f3e 1f49 cabc
00000190: 5c6b ba3d 9aa3 77bd 6512 e2bd 499d 9b3c
000001a0: aa46 593e 6141 f03d 26da c03c dae2 403c
000001b0: 89d3 313e b0f1 a1bd 57fd 31be 5e49 fcbc
000001c0: 0c8e c03d efc2 fa3d 424a b0bc d21c bc3c
000001d0: bb2d 4b3e dc0f b1bd 8e94 a53d f373 71bd
000001e0: 5fe4 f4bd 4f61 8dbb a01f 333d a91a ecbd
000001f0: 8e19 5a3c 8365 623d ff3c 013e 288d 81bd
00000200: c57a a53d 92a9 8f3c ea24 3abe 99fd bc3d
00000210: b3f9 33be b484 463e d06f 18be 6df3 95bd
00000220: ea29 2e3c 5fce 1cbe da0d a6bd 0bb5 afbd
00000230: 1d94 6c3e 7f64 a43d caa2 093e ca57 e7bd
00000240: e39c 773d 87c7 913d 79da fa3d 1ccd 013d
00000250: 2a10 003e 66e5 df3d 23e5 30be f9b3 09be
00000260: 4b51 bcbd b407 b2bd d929 84bd 71ca 41be
00000270: 0ecf 15bc 0497 0c3e bc1a e4bd 2f9a f63d
00000280: 80ef 87bd d472 b33d b8b5 313c cfb8 b4bd
00000290: f023 653e 94fb 813d 91a0 dc3d eea1 e73d
000002a0: 8537 213c c17b 2d3e 51b5 5d3d 9ce4 52be
000002b0: d5b0 893e 857b 313d 21cd f3bd abca 003e
000002c0: d2b8 0e3e d477 57bd 5b88 92bd 39f6 e73c
000002d0: 6589 34be da23 28bd 44ff 683d 4a65 0b3e
000002e0: 240c 003d e51f 18be a332 f13d 19c1 16be
000002f0: c464 98bd e672 c5bc e32e 533e b876 6b3d
00000300: 90a2 cabc 6d59 4e3e 9246 223e ac82 f83d
00000310: 4947 053d c778 d03d 0f4d 56be 937f 90bd
00000320: 8ab0 193b e7b6 013e 3e39 4bbd d5e0 c2bd
00000330: 63e1 243e f6f0 67bd f18f 733d 91ce 243d
00000340: 4260 023e 7aee 213e 0874 213e 9937 11bd
00000350: fb3e a23d c032 aabe 6ad7 f6bb a59f febc
00000360: aa72 c63d fae7 ba3d 69df e53d 55e3 29be
00000370: a86d 463d f9e4 68bb 477d 3d3c 7905 8fbd
00000380: 7288 b13c 7918 adbc a0fa b73d c098 c3bd
00000390: dcee 10be 63de 21bc ae51 523e 2270 04be
000003a0: f846 bdbd e013 a9bd 5375 d63d 96d6 d73c
000003b0: 03cc 30be 5a26 abbd 2304 34be 18f9 8a3d
000003c0: 4869 fdbc 95f9 45bd d6c8 28be c9db 9bbc
000003d0: e2fb 613d 4515 05be 3458 10be df25 673c
000003e0: 4a86 54be 8849 9ebd 992f f53d 2d49 92be
000003f0: c45b e83d 1e62 52be 55c2 86bd 2506 81bc

gcn_layers.0.node_feat.U.bias f4 [40]
0.15856244 -0.068520285 0.14752193 0.0821876 0.043254882 0.07807274 0.048478857 -0.050405554
0.0955628 0.06586532 -0.07827646 0.10892104 0.14128037 -0.0038259586 0.03301986 -0.073111236
-0.11248906 0.007407501 0.096057124 -0.07811213 -0.18300791 -0.069718204 -0.14550778 0.12144793
-0.037790343 0.14296903 0.09982931 -0.15536463 -0.08563489 -0.056890294 -0.11014378 0.13759471
0.0051943534 0.12893015 0.105446845 -0.03816793 -0.14564635 0.004813203 -0.08342879 -0.007982622
00000000: 315e 223e 5d54 8cbd fd0f 173e f951 a83d
00000010: 082c 313d 9ae4 9f3d c491 463d 0e76 4ebd
00000020: 6eb6 c33d 66e4 863d 694f a0bd ff11 df3d
00000030: cdab 103e efbc 7abb d53f 073d 58bb 95bd
00000040: aa60 e6bd 9fba f23b 99b9 c43d 41f9 9fbd
00000050: 6d66 3bbe 6bc8 8ebd feff 14be b1b9 f83d
00000060: 0cca 1abd 7966 123e 4f73 cc3d e817 1fbe
00000070: 5861 afbd cc05 69bd 1093 e1bd a1e5 0c3e
00000080: 6535 aa3b 4406 043e 84f4 d73d fa55 1cbd
00000090: 5124 15be 13b8 9d3b b7dc aabd 8bc9 02bc

gcn_layers.0.node_feat.V.weight f4 [40, 40]
-0.06663028 -0.10258625 0.050914798 -0.1710994 -0.074795805 0.09585192 0.14881168 0.08966208
0.011890751 0.15304206 0.1076092 0.021871129 0.090192005 -0.1279321 0.08992128 -0.05723266
-0.08529314 0.23295784 -0.06925815 0.01734326 -0.047122244 -0.049962696 -0.008560453 0.017221928
-0.11583453 0.017687617 0.15327446 -0.06057821 0.06647156 0.040026914 -0.033252224 0.030119527
-0.023898091 -0.086090386 -0.06413185 0.16882683 0.163857 -0.1635854 0.07447025 -0.03394653
0.057122704 -0.07485415 0.051019955 0.044140387 -0.12652 0.12277714 0.034920953 0.11121554
0.20202632 -0.11681587 0.015321764 0.1843089 -0.07963845 0.06578336 -0.09285812 -0.053699918
0.010686594 0.24460888 0.023114435 0.2250722 -0.043872997 0.105059005 0.10251937 0.03172445
0.038201313 -0.15148763 -0.1512265 0.093048796 0.055067018 0.022300739 -0.07449397 0.0020880587
-0.09295865 0.007926801 0.077061884 -0.16847798 0.015272639 0.1639813 0.17208692 0.11468826
-0.10816368 0.026540343 0.16696551 0.13498336 -0.0981116 0.09655591 -0.12449452 -0.011055493
0.05126616 -0.10049907 -0.18370609 0.120624445 0.0041613667 0.011359151 -0.1001445 -0.0146362195
-0.020215495 -0.15253831 0.06247562 -0.0356698 -0.09741847 0.11408139 0.1568363 0.053301025
-0.092021964 0.009479243 -0.15293923 0.14649534 -0.012409821 -0.034307823 -0.09820039 0.03564945
0.0027846596 -0.110141896 -0.022190373 0.038672775 0.11456547 0.015132301 0.2142123 -0.044752866
0.18456988 0.13777989 -0.12133134 -0.08203004 -0.12746991 0.01528494 -0.13708067 -0.009801326
-0.116397105 -0.011551492 0.01999687 0.18319964 -0.098622605 0.21708386 -0.036748186 0.061152615
0.017399613 -0.19636591 0.22375913 0.039014317 -0.035534956 0.09987143 0.09552773 -0.053945735
0.08401661 -0.05131772 -0.19602421 0.0009170722 0.19762522 -0.15618923 -0.16566207 -0.015458826
0.090079434 -0.12183179 -0.0066330084 0.039680798 0.060115628 0.09690846 -0.03738168 -0.02158445
-0.17952752 -0.031558458 0.09219766 0.13442573 0.07698468 -0.038855493 0.093661 -0.038961105
-0.024484122 -0.044450704 0.107219 -0.091747954 -0.09942155 -0.012460322 -0.03290565 0.16471934
-0.097136006 -0.19430691 0.14805442 -0.021783857 0.083363965 -0.20508595 0.14214994 0.05059024
-0.12808982 -0.09155696 0.13943428 -0.14043665 0.009792905 -0.11626264 0.01992348 -0.13226962
0.09431574 -0.11080754 -0.03803916 -0.009455416 -0.20433715 0.05354309 0.01371485 -0.015748069
0.06682586 0.13752797 -0.08949639 0.09872424 0.035543147 0.050546188 -0.08936438 0.209386
0.1321092 -0.0573472 0.10439948 0.23774391 -0.045765597 0.17506436 -0.04111991 -0.13492966
0.11097472 -0.1599538 0.066516966 0.10019607 0.10253176 0.076582015 -0.059715055 0.00011430156
-0.015059111 0.10114239 -0.12176325 0.12753673 0.12836656 0.07557231 -0.15985812 0.031641804
0.06243472 -0.017842082 -0.08692605 -0.15248255 0.08894656 0.15524857 0.26714814 0.08279136
-0.06313624 0.10319894 -0.10507747 0.02274781 0.054081637 0.077669784 0.066379465 0.0455673
-0.014652339 0.11350968 0.06557002 -0.052531682 0.08000147 -0.21188031 0.061712675 -0.08147165
00000000: 7575 88bd bd18 d2bd 098c 503d ae34 2fbe
00000010: 8b2e 99bd 034e c43d 1762 183e c1a0 b73d
00000020: 6dd1 423c 0fb7 1c3e 3662 dc3d 152b b33c
00000030: 96b6 b83d a200 03be a628 b83d cb6c 6abd
00000040: 2bae aebd 808c 6e3e 38d7 8dbd 7413 8e3c
00000050: 4103 41bd afa5 4cbd 2441 0cbc 0015 8d3c
00000060: a73a edbd 9fe5 903c fbf3 1c3e db20 78bd
00000070: 3e22 883d 43f3 233d 7c33 08bd 3abd f63c
00000080: eec5 c3bc 2850 b0bd 8f57 83bd f1e0 2c3e
00000090: 21ca 273e ee82 27be dc83 983d 840b 0bbd
000000a0: 7ff9 693d 224d 99bd 4dfa 503d 8dcc 343d
000000b0: 758e 01be 9572 fb3d 4609 0f3d f9c4 e33d
000000c0: fddf 4e3e 293d efbd 2308 7b3c 79bb 3c3e
000000d0: 7c19 a3bd 6db9 863d 662c bebd 72f4 5bbd
000000e0: d316 2f3c c07a 7a3e 7c5a bd3c 5479 663e
000000f0: 2cb4 33bd 2d29 d73d adf5 d13d 7ff1 013d
00000100: fb78 1c3d 931f 1bbe 1fdb 1abe 5e90 be3d
00000110: f48d 613d 0ab0 b63c 4b90 98bd d0d7 083b
00000120: 1b61 bebd 6adf 013c 9fd2 9d3d 7e85 2cbe
00000130: 173a 7a3c b7ea 273e 8e37 303e aee1 ea3d
00000140: eb84 ddbd 226b d93c 02f9 2a3e 1439 0a3e
00000150: bcee c8bd 1bbf c53d fcf6 febd 1922 35bc
00000160: 77fc 513d 75d2 cdbd 731d 3cbe f309 f73d
00000170: 135c 883b bc1b 3a3c 8f18 cdbd c1cc 6fbc
00000180: f79a a5bc 0133 1cbe 70e6 7f3d 7f1a 12bd
00000190: 5683 c7bd 81a3 e93d b299 203e 2d52 5a3d
000001a0: 0376 bcbd d44e 1b3c 1a9c 1cbe e002 163e
000001b0: 9052 4bbc 5c86 0cbd 491d c9bd 2805 123d
000001c0: d67e 363b 1392 e1bd 96c8 b5bc 5867 1e3d
000001d0: 4da1 ea3d 78ed 773c 785a 5b3e c84e 37bd
000001e0: e3ff 3c3e 2c16 0d3e 917c f8bd 5eff a7bd
000001f0: 7987 02be af6d 7a3c e05e 0cbe be95 20bc
00000200: 9b61 eebd 7842 3dbc 7ad0 a33c b098 3b3e
00000210: a6fa c9bd 3b4b 5e3e 4485 16bd 2a7b 7a3d
00000220: a289 8e3c 2514 49be 1d21 653e 7acd 1f3d
00000230: 1a8d 11bd 6489 cc3d 0ba4 c33d 34f6 5cbd
00000240: e710 ac3d 8832 52bd 92ba 48be ac67 703a
00000250: 445e 4a3e 12f0 1fbe 51a3 29be 0447 7dbc
00000260: 917b b83d f282 f9bd b559 d9bb 5588 223d
00000270: ce3b 763d f177 c63d 881d 19bd dfd1 b0bc
00000280: 10d6 37be 7143 01bd 20d2 bc3d e6a6 093e
00000290: 25aa 9d3d f026 1fbd 57d1 bf3d ae95 1fbd
000002a0: ed92 c8bc f111 36bd a395 db3d 5ae6 bbbd
000002b0: 879d cbbd 6126 4cbc 13c8 06bd 30ac 283e
000002c0: 3eef c6bd 64f8 46be 949b 173e 0f74 b2bc
000002d0: baba aa3d 0d02 52be c18f 113e b637 4f3d
000002e0: fa29 03be 3782 bbbd dcc7 0e3e a0ce 0fbe
000002f0: 6c72 203c 1b1b eebd 9136 a33c b071 07be
00000300: 9c28 c13d 10ef e2bd f3ce 1bbd e4ea 1abc
00000310: c23d 51be 0050 5b3d 40b4 603c 1802 81bc
00000320: ffdb 883d 22d4 0c3e e249 b7bd ef2f ca3d
00000330: b195 113d 8509 4f3d ac04 b7bd 4969 563e
00000340: a247 073e e6e4 6abd 65cf d53d 2473 733e
00000350: b574 3bbd 1244 333e 5a6d 28bd 002b 0abe
00000360: b746 e33d eeca 23be 0c3a 883d 9933 cd3d
00000370: 2cfc d13d 08d7 9c3d c697 74bd 2fb5 ef38
00000380: 7dba 76bc be23 cf3d 035f f9bd fd98 023e
00000390: 8672 033e a8c5 9a3d d9b1 23be d69a 013d
000003a0: 8dbb 7f3d 8f29 92bc 4906 b2bd 6324 1cbe
000003b0: 9d29 b63d 7bf9 1e3e a4c7 883e 848e a93d
000003c0: 934d 81bd f759 d33d db32 d7bd 9e59 ba3c
000003d0: b584 5d3d 5611 9f3d f5f1 873d c7a4 3a3d
000003e0: 5d10 70bc c377 e83d 9349 863d 762b 57bd
000003f0: d0d7 a33d 27f7 58be 6ec6 7c3d 9cda a6bd

gcn_layers.0.node_feat.V.bias f4 [40]
0.03564062 -0.12700689 0.11550209 0.016635284 0.0698237 0.002858652 0.116914734 -0.114988096
-0.03316348 -0.0118638575 -0.08123415 0.14946838 -0.10242064 -0.10982933 -0.033088252 -0.0014892073
0.14932923 -0.122126125 -0.12413524 -0.12028887 -0.19344307 0.080797665 -0.004323956 -0.043431044
-0.11523237 -0.10655555 -0.14564845 -0.062139712 -0.14978482 -0.0129176695 -0.020843534 0.047726095
0.13138042 -0.079378396 -0.11219103 0.12974769 0.035815928 0.042545818 0.052408453 -0.018111836
00000000: e6fb 113d 180e 02be 5c8c ec3d b846 883c
00000010: baff 8e3d 3958 3b3b fe70 ef3d e17e ebbd
00000020: 6ed6 07bd a060 42bc 175e a6bd 3d0e 193e
00000030: eac1 d1bd 33ee e0bd 8c87 07bd 8131 c3ba
00000040: c3e9 183e 431d fabd 9e3a febd 035a f6bd
00000050: f115 46be 3f79 a53d f9af 8dbb c0e4 31bd
00000060: f3fe ebbd cc39 dabd de24 15be 3686 7ebd
00000070: 3161 19be a2a4 53bc 0fc0 aabc 707c 433d
00000080: 9788 063e 2491 a2bd 69c4 e5bd 94dc 043e
00000090: b9b3 123d 8644 2e3d 3faa 563d 465f 94bc

gcn_layers.0.node_norm.batch_norm.weight f4 [40]
1.0947742 1.0593936 0.9614288 0.86976826 0.89590746 1.1094118 0.8942546 0.8284668
0.7958427 1.0652931 1.070859 0.85116786 1.0215554 0.941909 0.8210889 0.9065994
0.9950164 0.90576285 0.90448433 0.9381994 1.1539791 1.3960972 0.92763186 0.72957855
0.9864354 0.91945684 0.97997165 1.2134223 1.1197014 0.9484792 0.8911817 0.92753565
0.85368365 0.7635738 0.8887981 0.8553363 1.0781517 0.9039027 0.9093245 1.1171048
00000000: 9021 8c3f 369a 873f 3320 763f 22a9 5e3f
00000010: 315a 653f 3501 8e3f dfed 643f 6616 543f
00000020: 59bc 4b3f 865b 883f e811 893f 23e6 593f
00000030: 54c2 823f f320 713f e232 523f e616 683f
00000040: 65b9 7e3f 13e0 673f 498c 673f d62d 703f
00000050: 96b5 933f 50b3 b23f 4879 6d3f a9c5 3a3f
00000060: 0887 7c3f 8661 6b3f 6cdf 7a3f 6c51 9b3f
00000070: 6052 8f3f 88cf 723f 7c24 643f fa72 6d3f
00000080: 038b 5a3f 9379 433f 4688 633f 52f7 5a3f
00000090: e000 8a3f 2b66 673f 7ec9 683f 4afd 8e3f

gcn_layers.0.node_norm.batch_norm.bias f4 [40]
-0.10443463 0.053043265 0.19148311 -0.38033432 -0.037214786 0.49907205 0.08057318 -0.09365258
0.16931911 0.27926537 1.0145632 0.06796415 0.06287006 0.02101589 -0.25989452 -0.0075406875
0.05079624 -0.275455 -0.04514933 -0.015553691 0.6232201 -0.08592341 -0.09246694 -0.0014703975
-0.0018402166 -0.22854947 0.26261607 0.06376066 -0.0043108547 0.04909749 0.2781585 -0.034768134
-0.0019966995 -0.18594612 -0.2170222 -0.025751112 0.13000384 -0.24454662 0.0062019518 0.18093497
00000000: d3e1 d5bd e543 593d 2614 443e 2ebb c2be
00000010: 886e 18bd 5f86 ff3e 8d03 a53d edcc bfbd
00000020: fd61 2d3e dffb 8e3e 35dd 813f ca30 8b3d
00000030: 05c2 803d 8429 ac3c e510 85be df17 f7bb
00000040: b80f 503d 7008 8dbe 81ee 38bd e9d4 7ebc
00000050: 5a8b 1f3f 9df8 afbd 4f5f bdbd 5aba c0ba
00000060: 6c33 f1ba df08 6abe 9d75 863e f394 823d
00000070: 1242 8dbb 731a 493d ca6a 8e3e 0869 0ebd
00000080: 0fdb 02bb a968 3ebe 113b 5ebe fff3 d2bc
00000090: ba1f 053e 6e6a 7abe be39 cb3b 0447 393e

gcn_layers.0.edge_feat.U.weight f4 [40, 40]
0.22277941 -0.05555254 0.080780864 -0.060806546 -0.04151342 0.08443752 -0.014921317 -0.13824478
-0.011079941 0.04484784 -0.1209662 0.14937326 0.13020313 -0.15295742 -0.11100734 0.098358735
0.20671704 0.07467177 -0.041786093 0.23777254 0.17365362 0.22643802 -0.15028355 -0.040357042
0.14879763 -0.031256825 -0.011172468 0.06898406 -0.2277704 -0.1077138 0.1292618 -0.1319914
-0.04450003 0.20498514 0.12163387 0.22462758 -0.1558081 0.16620171 -0.0976981 -0.027320083
-0.11063112 -0.029252648 0.16286385 0.01897456 -0.018300474 -0.113126084 0.029633673 0.064964645
-0.07057905 0.103794314 -0.12717888 0.039749652 0.11143888 0.015011032 -0.1651421 0.1670473
-0.014795431 -0.03618087 0.08021984 0.08052209 0.09861343 -0.10902486 -0.019921854 -0.025857078
-0.11353516 -0.06930911 0.019106664 -0.11580073 0.122976914 0.2896887 -0.1682168 -0.1462008
-0.11399615 -0.1267231 0.031409577 0.08413669 0.14068289 0.08588967 0.09987608 0.035247345
0.09084434 -0.16281031 0.12903842 -0.15570009 -0.006891952 0.06282929 -0.17596783 0.0675437
-0.1324155 -0.03838319 0.06538373 -0.11514417 -0.043578133 -0.088150136 -0.048331697 -0.005131082
-0.110186934 -0.10508523 0.109632954 0.06415952 0.06026311 0.15324362 -0.013393065 -0.13894694
-0.05679601 0.0528983 -0.0066497987 -0.010617104 -0.14361224 0.059234954 0.07168976 0.08130589
-0.032132834 -0.14269826 -0.08426584 0.11593051 0.07470872 0.10561904 0.10285444 -0.047830205
0.0010753253 0.1673987 -0.1400277 0.04557334 0.24196659 -0.029904062 0.1844543 0.23901014
0.2266275 -0.13424703 0.117901266 -0.21197912 -0.031084426 0.2269391 0.0020122307 -0.1596297
-0.23984708 -0.22095768 0.20001952 0.0055489778 -0.04011332 -0.06003131 0.013890051 -0.13452473
-0.1959912 -0.09046911 -0.019386541 -0.07034806 0.09718714 0.23663187 -0.12207458 0.09280111
0.022977877 -0.18171076 -0.1659075 0.046476595 0.09755615 0.072266325 0.014192147 -0.17713343
-0.11674838 0.22447911 0.058138754 -0.0022454783 0.23727898 -0.025948139 0.045349907 0.1013724
0.13119608 -0.10958784 -0.047375396 -0.17646797 -0.11711135 0.10341119 -0.05521459 -0.20201834
-0.15157403 -0.09150469 -0.023223272 -0.024849145 0.10976272 -0.16026323 -0.1387489 0.012787185
0.0047974074 -0.13478443 -0.042289957 -0.061779607 0.14447793 -0.07396538 0.08913362 -0.04509245
-0.03757041 -0.0032560118 -0.09434283 -0.13708231 -0.054283824 0.014644863 0.0938883 -0.01187311
0.7312199 -0.67135245 0.6740621 -0.76879 -0.66508305 0.65597737 -0.65617704 -0.55765975
-0.8582188 0.8340844 -0.5160348 0.7350135 0.73474056 -0.6044264 -0.74118847 0.62704337
0.69613063 0.58031434 -0.6484076 0.6496187 0.11383808 0.0526622 0.2696563 0.021129001
0.041786056 0.04062627 0.19966984 0.24743253 0.18771178 -0.5491249 0.110300064 0.2827903
-0.022776434 -0.01084442 0.28931904 -0.23842944 -0.10883329 0.0025029997 -0.7755722 -0.07691512
-0.229179 -0.0055370494 -0.07759421 -0.05014307 0.22889432 -0.21394795 -0.050081182 0.14527616
0.1333876 0.007281422 0.20460106 -0.11753079 0.04728806 -0.02984549 -0.077731155 0.06591019
00000000: 4920 643e 0f8b 63bd 7070 a53d 4910 79bd
00000010: fa09 2abd 94ed ac3d 8a78 74bc 0a90 0dbe
00000020: a488 35bc 5eb2 373d 21bd f7bd 4ef5 183e
00000030: f853 053e dfa0 1cbe d157 e3bd 4e70 c93d
00000040: a2ad 533e 83ed 983d e527 2bbd a57a 733e
00000050: 41d2 313e 5edf 673e eee3 19be 6d4d 25bd
00000060: 685e 183e 2807 00bd ba0c 37bc 8447 8d3d
00000070: a53c 69be 0e99 dcbd 355d 043e c128 07be
00000080: aa45 36bd a0e7 513e 2e1b f93d c604 663e
00000090: 298c 1fbe c830 2a3e f115 c8bd 5ece dfbc
000000a0: 9292 e2bd 40a3 efbc c8c5 263e 8970 9b3c
000000b0: e0ea 95bc a6ae e7bd 51c2 f23c 2f0c 853d
000000c0: c08b 90bd 1d92 d43d 2e3b 02be 88d0 223d
000000d0: 113a e43d d5f0 753c 031b 29be 730e 2b3e
000000e0: 8968 72bc 6432 14bd 4d4a a43d c4e8 a43d
000000f0: d7f5 c93d 6d48 dfbd 2833 a3bc 39d2 d3bc
00000100: 1f85 e8bd eff1 8dbd 9485 9c3c ef28 edbd
00000110: 52db fb3d 1452 943e 0641 2cbe aab5 15be
00000120: d076 e9bd b3c3 01be 54a7 003d db4f ac3d
00000130: 2d0f 103e ece6 af3d d58b cc3d 855f 103d
00000140: 990c ba3d bfb7 26be a622 043e d86f 1fbe
00000150: e2d5 e1bb a5ac 803d e930 34be 5a54 8a3d
00000160: ee97 07be b137 1dbd e8e7 853d b5d0 ebbd
00000170: fc7e 32bd 0f88 b4bd 75f7 45bd a322 a8bb
00000180: b0a9 e1bd ed36 d7bd 3e87 e03d 1166 833d
00000190: 73d6 763d e5eb 1c3e 966e 5bbc 1b48 0ebe
000001a0: efa2 68bd e3ab 583d 8ee6 d9bb 5df3 2dbc
000001b0: 160f 13be 5aa0 723d 15d2 923d b483 a63d
000001c0: b89d 03bd 7e1f 12be 9293 acbd fa6c ed3d
000001d0: e300 993d cc4e d83d 59a5 d23d 9be9 43bd
000001e0: eef1 8c3a 916a 2b3e 6c63 0fbe 1cab 3a3d
000001f0: 17c6 773e 5df9 f4bc 97e1 3c3e 13bf 743e
00000200: 0a11 683e 0e78 09be 3876 f13d 0e11 59be
00000210: c4a4 febc b962 683e a1df 033b f875 23be
00000220: 799a 75be bb42 62be ebd1 4c3e 33d4 b53b
00000230: dd4d 24bd 64e3 75bd 1993 633c dac0 09be
00000240: ebb1 48be de47 b9bd 86d0 9ebc a512 90bd
00000250: 0d0a c73d a04f 723e 3d02 fabd 820e be3d
00000260: 1a3c bc3c 6312 3abe a8e3 29be 3e5e 3e3d
00000270: 85cb c73d 5e00 943d 2e86 683c 7762 35be
00000280: c619 efbd dadd 653e e722 6e3d e028 13bb
00000290: 43f9 723e 3191 d4bc d3c0 393d 559c cf3d
000002a0: 4458 063e 976f e0bd b40c 42bd 05b4 34be
000002b0: 13d8 efbd 3fc9 d33d b228 62bd e5dd 4ebe
000002c0: 3936 1bbe d066 bbbd bb3e bebc 6f90 cbbc
000002d0: 47cb e03d 0b1c 24be 3114 0ebe 5781 513c
000002e0: 9233 9d3b ee04 0abe 3c38 2dbd 9d0c 7dbd
000002f0: 06f2 133e 297b 97bd b08b b63d dcb2 38bd
00000300: 6ee3 19bd d062 55bb d036 c1bd 4e5f 0cbe
00000310: b758 5ebd 02f1 6f3c 8248 c03d 6f87 42bc
00000320: 3a31 3b3f c1dd 2bbf 558f 2c3f 6ccf 44bf
00000330: e242 2abf 22ee 273f 38fb 27bf cac2 0ebf
00000340: 3ab4 5bbf 8e86 553f db1a 04bf d829 3c3f
00000350: f517 3c3f b0bb 1abf 87be 3dbf ea85 203f
00000360: 9e35 323f 7b8f 143f 0afe 25bf 694d 263f
00000370: f023 e93d 52b4 573d 6410 8a3e ba16 ad3c
00000380: db27 2b3d bb67 263d 4076 4c3e f45e 7d3e
00000390: 8437 403e 7393 0cbf 00e5 e13d e4c9 903e
000003a0: a595 babc cbac 31bc a021 943e d926 74be
000003b0: fde3 debd 5e09 243b e68b 46bf ad85 9dbd
000003c0: e6ad 6abe 2370 b5bb b7e9 9ebd d262 4dbd
000003d0: 4663 6a3e 2c15 5bbe ed21 4dbd 46c3 143e
000003e0: c296 083e ff98 ee3b f182 513e fcb3 f0bd
000003f0: 20b1 413d 877e f4bc 8331 9fbd ecfb 863d

gcn_layers.0.edge_feat.U.bias f4 [40]
0.077530004 0.3671256 -0.010818066 0.31123054 0.13124567 -0.8329594 -0.18851398 0.028009878
-0.07679502 0.3170872 -0.8404765 0.004890439 -0.0021907706 0.16903102 -0.1718643 -0.0762339
-0.017638987 -0.1548605 0.42941967 0.25837317 -0.56354994 0.16602086 0.06789414 0.30872166
0.29947698 -0.06761167 -0.123388365 0.2780362 0.22634049 0.3171354 -0.024729617 0.13030344
0.3866376 0.20616937 0.024425747 -0.08551515 0.15402013 -0.4674611 0.06750783 -0.2200906
00000000: 0dc8 9e3d e3f7 bb3e 423e 31bc 9c59 9f3e
00000010: 4465 063e d43c 55bf cf09 41be f974 e53c
00000020: b546 9dbd 4159 a23e 7829 57bf fa3f a03b
00000030: 0893 0fbb 7816 2d3e 32fd 2fbe 8520 9cbd
00000040: a37f 90bc c093 1ebe e5dc db3e 7d49 843e
00000050: cf44 10bf 5f01 2a3e 150c 8b3d c410 9e3e
00000060: 0c55 993e fd77 8abd 0ab3 fcbd c35a 8e3e
00000070: cdc5 673e 925f a23e c495 cabc 446e 053e
00000080: 5df5 c53e 101e 533e 8118 c83c 9122 afbd
00000090: 74b7 1d3e 1057 efbe 8c41 8a3d 6e5f 61be

gcn_layers.0.edge_feat.V.weight f4 [40, 40]
0.1322707 -0.12748684 -0.09533438 -0.1288364 -0.00082733633 0.077797905 -0.14560884 0.005320797
-0.06524006 0.087937884 0.14302601 0.08877531 -0.08993039 -0.17161867 0.04401121 -0.01342975
0.032895382 -0.16213669 0.098572016 0.016668515 0.14395696 -0.13729909 0.15798105 -0.08998895
0.14791383 -0.13308363 0.043367274 -0.11796033 -0.033981394 -0.11814906 0.06628402 0.12349238
0.06927244 -0.022666082 -0.04161946 -0.08762214 -0.04455217 0.0042451364 -0.13133797 -0.013157471
0.040734462 0.061039366 -0.038492776 -0.08546949 0.027452935 -0.11693269 -0.019387068 0.09320815
0.019134477 0.030660028 -0.13500525 -0.14769323 -0.12138101 -0.0742887 0.12031519 0.060334284
-0.028737959 -0.033943 0.08544137 -0.018912453 -0.07846685 -0.06546173 0.017035613 0.050941333
-0.15386036 -0.0923597 0.1542992 -0.079739735 0.08645169 0.11076195 0.1341028 0.018406736
-0.013879145 0.0018771368 0.13932672 -0.024839053 -0.07369122 0.023668466 -0.028051872 0.009912688
0.015340983 0.019327076 -0.20118095 -0.040497202 0.22534041 0.0371677 -0.21325982 -0.25275022
-0.19443507 0.12988046 0.117616616 0.0033483 -0.06102897 -0.014707852 0.04640563 -0.06814932
0.026381051 -0.07905469 0.2675903 -0.04850327 0.011545284 -0.027428776 0.14629413 0.12159219
0.1552423 0.11761624 0.02255284 -0.110892005 0.18351822 -0.038252637 -0.1293725 -0.21028525
0.03440058 -0.13986444 0.003855389 0.10893623 0.111526035 -0.17824118 -0.15616502 0.08988132
-0.04499229 0.09000546 0.1316243 0.06554805 0.13432424 0.1050313 0.006216558 -0.04986833
-0.08656375 -0.007903502 0.075325884 0.053712204 -0.040863432 -0.010947459 -0.13567051 -0.14899276
0.017192334 -0.086330846 -0.07836768 -0.09973845 -0.084814705 -0.020751804 -0.09371148 0.07144823
0.044290293 -0.1466867 -0.07688981 -0.048369292 -0.12508412 -0.024153557 0.045190975 -0.060991324
0.11980622 -0.07095014 -0.09718889 -0.11817127 -0.04344665 0.016706891 0.13627739 0.08914899
0.058288705 -0.17307118 -0.11741911 -0.016357362 0.16786209 0.089818746 0.12106326 0.09478981
0.053600527 -0.10000058 0.10922427 0.13181195 0.083113834 0.12940958 0.01563425 0.030182235
-0.094546854 0.12084544 0.07586118 -0.15398115 -0.028757125 -0.19309247 0.18588945 -0.18106557
0.03796956 0.18622287 0.20807987 -0.084622025 0.109778546 0.09418192 -0.04984399 -0.031611487
-0.04321023 0.044059705 0.16610233 -0.19334392 -0.1510657 0.04399257 -0.1776363 0.21803108
0.11301518 0.11957116 0.08596619 0.079843014 0.077254295 0.14322479 -0.16681865 -0.035944313
0.03782307 0.021138186 -0.06392162 -0.27578175 -0.0059631136 -0.2663845 -0.10942662 0.09951104
-0.028659703 -0.11948318 -0.13149706 -0.12824874 -0.074067935 -0.013510571 -0.074810594 -0.17113261
-0.009231179 0.14086063 0.032449275 -0.18591513 0.041453905 0.10288275 0.16363741 0.0055543766
0.031464368 0.11803254 -0.09837195 0.12968731 -0.0813968 -0.15004297 -0.03035716 0.06440772
0.11016568 0.108211175 -0.040359825 -0.1511502 0.040494226 0.12093749 -0.026819132 0.010049764
-0.10088329 0.010741149 -0.03480324 -0.15175079 -0.09875932 0.02766412 -0.11033077 0.06824569
00000000: f871 073e e98b 02be ac3e c3bd b0ed 03be
00000010: 9ae1 58ba 8254 9f3d 7c1a 15be 155a ae3b
00000020: 959c 85bd c718 b43d 6975 123e d4cf b53d
00000030: 6d2d b8bd cebc 2fbe 1945 343d 7408 5cbc
00000040: 4fbd 063d 2907 26be 20e0 c93d 698c 883c
00000050: 7469 133e 2298 0cbe c9c5 213e 204c b8bd
00000060: b976 173e 1347 08be e2a1 313d 2f95 f1bd
00000070: 1330 0bbd 22f8 f1bd ebbf 873d 93e9 fc3d
00000080: b6de 8d3d 38ae b9bc 2b79 2abd 3d73 b3bd
00000090: 567c 36bd c91a 8b3b 767d 06be 6f92 57bc
000000a0: 2ed9 263d 6a04 7a3d 9aaa 1dbd a10a afbd
000000b0: fae4 e03c 687a efbd a1d1 9ebc eae3 be3d
000000c0: e8bf 9c3c bd2a fb3c d13e 0abe e53c 17be
000000d0: 9b96 f8bd ad24 98bd cf67 f63d 1521 773d
000000e0: de6b ebbc d107 0bbd e3fb ae3d 4aee 9abc
000000f0: 3ab3 a0bd cd10 86bd 458e 8b3c dca7 503d
00000100: 928d 1dbe 1527 bdbd 9c00 1e3e 964e a3bd
00000110: 950d b13d 29d7 e23d 3f52 093e b9c9 963c
00000120: 5a65 63bc 420a f63a aaab 0e3e 457b cbbc
00000130: 6ceb 96bd 5fe4 c13c 0acd e5bc d468 223c
00000140: bf58 7b3c d153 9e3c 6102 4ebe 65e0 25bd
00000150: a3bf 663e 283d 183d c860 5abe 7a68 81be
00000160: fd19 47be 62ff 043e fbe0 f03d 276f 5b3b
00000170: 83f9 79bd 34f9 70bc d413 3e3d df91 8bbd
00000180: 131d d83c 6de7 a1bd 9901 893e 5dab 46bd
00000190: 6e28 3d3c 50b2 e0bc 21ce 153e 5305 f93d
000001a0: d6f7 1e3e c9e0 f03d bcc0 b83c 591b e3bd
000001b0: 33ec 3b3e ccae 1cbd 3a7a 04be 0455 57be
000001c0: 9fe7 0c3d a038 0fbe b2aa 7c3b f519 df3d
000001d0: c367 e43d db84 36be b9e9 1fbe b313 b83d
000001e0: d649 38bd c854 b83d 85c8 063e 0e3e 863d
000001f0: 4b8c 093e a61a d73d 45b4 cb3b bc42 4cbd
00000200: 5648 b1bd b17d 01bc 7544 9a3d 5401 5c3d
00000210: 6a60 27bd f95c 33bc 36ed 0abe 8f91 18be
00000220: f0d6 8c3c 3ace b0bd 3c7f a0bd ac43 ccbd
00000230: 55b3 adbd b0ff a9bc ceeb bfbd 7353 923d
00000240: bd69 353d 0a35 16be 6878 9dbd e11e 46bd
00000250: 0d16 00be aedd c5bc 2c1a 393d 0ad2 79bd
00000260: f75c f53d 4f4e 91bd f80a c7bd c703 f2bd
00000270: 1df5 31bd e4dc 883c 4d8c 0b3e bf93 b63d
00000280: 23c0 6e3d 9239 31be 6e79 f0bd e0ff 85bc
00000290: 0ae4 2b3e e4f2 b73d 04f0 f73d 2921 c23d
000002a0: 3a8c 5b3d 1bcd ccbd f9b0 df3d b6f9 063e
000002b0: 9637 aa3d f283 043e 6613 803c bc40 f73c
000002c0: c8a1 c1bd d07d f73d 1b5d 9b3d 3cad 1dbe
000002d0: 1094 ebbc 08ba 45be ce59 3e3e 4169 39be
000002e0: f885 1b3d 35b1 3e3e e412 553e 504e adbd
000002f0: 93d3 e03d 73e2 c03d 3629 4cbd 0c7b 01bd
00000300: 36fd 30bd f377 343d bb16 2a3e f3fb 45be
00000310: f8b0 1abe 8e31 343d 4ae6 35be 8a43 5f3e
00000320: 8174 e73d b9e1 f43d 0b0f b03d bc84 a33d
00000330: 8037 9e3d 85a9 123e 82d2 2abe 583a 13bd
00000340: 5dec 1a3d fd29 ad3c 57e9 82bd 4433 8dbe
00000350: 3966 c3bb 8d63 88be 101b e0bd 72cc cb3d
00000360: c1c7 eabc 99b3 f4bd 2aa7 06be a353 03be
00000370: eeb0 97bd 715b 5dbc 4c36 99bd 633d 2fbe
00000380: 5f3e 17bc c53d 103e 88e9 043d 8960 3ebe
00000390: 92cb 293d 31b4 d23d 9190 273e 7d01 b63b
000003a0: c8e0 003d 0bbb f13d 3c77 c9bd c0cc 043e
000003b0: 5eb3 a6bd dda4 19be 94af f8bc 32e8 833d
000003c0: 8b9e e13d d29d dd3d 5850 25bd 1ec7 1abe
000003d0: 46dd 253d 13ae f73d ccb3 dbbc c4a7 243c
000003e0: e69b cebd a5fb 2f3c d88d 0ebd 8f64 1bbe
000003f0: 5442 cabd dd9f e23c 19f5 e1bd 65c4 8b3d

gcn_layers.0.edge_feat.V.bias f4 [40]
0.09820176 0.2323131 -0.2844397 0.46959975 0.276051 -0.9575607 -0.17979842 0.0548418
-0.20618571 0.22608122 -0.8280573 -0.037580468 -0.09102576 0.21756601 -0.077487476 0.19019756
0.10105602 -0.06294928 0.15514402 0.12383814 -0.7369114 -0.038135376 0.08085325 0.41768315
0.11611495 -0.06100169 0.11321924 0.23470044 0.24643172 0.2267594 0.17632371 0.20495646
0.28426537 0.22497821 0.07518018 -0.060641028 0.3504626 -0.4716435 0.33334216 0.021860229
00000000: 011e c93d 7ce3 6d3e 15a2 91be 616f f03e
00000010: 8f56 8d3e b322 75bf 141d 38be cca1 603d
00000020: 5922 53be d681 673e 90fb 53bf faed 19bd
00000030: b76b babd a0c9 5e3e c1b1 9ebd 26c3 423e
00000040: 75f6 ce3d 8deb 80bd 13de 1e3e da9e fd3d
00000050: 3aa6 3cbf d733 1cbd 6496 a53d 91da d53e
00000060: adcd ed3d e8dc 79bd 7ddf e73d 5055 703e
00000070: 9958 7c3e 9e33 683e 348e 343e 1be0 513e
00000080: 3b8b 913e b060 663e 11f8 993d ba62 78bd
00000090: d56f b33e 427b f1be d3ab aa3e 3914 b33c

gcn_layers.0.edge_norm.batch_norm.weight f4 [40]
0.8846623 0.7874911 1.0644193 1.0914248 1.0030276 0.9960162 0.96946883 0.97664154
0.9350673 0.9707925 0.9675503 0.96813935 0.82778484 0.9894951 0.93938 0.9429736
0.92152613 1.1157489 1.0605402 0.9557113 0.9982909 0.95799786 0.9901358 0.9766879
1.153159 0.90710866 1.0537971 0.9985369 0.91680115 1.0529 1.0169367 0.98184943
0.91367126 0.9534461 0.9666698 1.1716828 0.95284504 0.89283854 0.95584154 1.10149
00000000: 3a79 623f 0499 493f e43e 883f cfb3 8b3f
00000010: 3563 803f ebfa 7e3f 1c2f 783f 2e05 7a3f
00000020: 9260 6f3f db85 783f 60b1 773f fbd7 773f
00000030: b5e9 533f 8d4f 7d3f 357b 703f b866 713f
00000040: 23e9 6b3f dcd0 8e3f c8bf 873f 7fa9 743f
00000050: fe8f 7f3f 593f 753f 8a79 7d3f 3808 7a3f
00000060: b79a 933f 4638 683f d3e2 863f 1da0 7f3f
00000070: 7bb3 6a3f 6dc5 863f fb2a 823f 7c5a 7b3f
00000080: 5ce6 693f 0b15 743f ac77 773f b4f9 953f
00000090: a7ed 733f 1191 643f 08b2 743f a0fd 8c3f

gcn_layers.0.edge_norm.batch_norm.bias f4 [40]
-0.049822588 -0.055935353 -0.12768815 0.093950175 -0.027484568 -0.2899168 0.030693283 -0.039211728
-0.04641384 -0.009153893 -0.09154169 0.011660845 0.026502505 -0.051306102 -0.03830062 -0.027905986
-0.10067931 -0.24996848 -0.11248789 -0.11777455 -0.0515026 -0.10825248 0.043275762 0.025106361
0.05118258 -0.13852295 0.026397195 0.005058331 -0.081397764 0.04625615 -0.02804724 -0.011763447
-0.027491646 -0.05301135 -0.03114746 -0.21512331 -0.08128344 -0.10299445 -0.020305581 0.08057651
00000000: c512 4cbd 781c 65bd afc0 02be f368 c03d
00000010: 5127 e1bc fa6f 94be 7b70 fb3c 7a9c 20bd
00000020: 701c 3ebd 36fa 15bc 367a bbbd 210d 3f3c
00000030: c81b d93c 5926 52bd 1ce1 1cbd 189b e4bc
00000040: f430 cebd bdf7 7fbe 0d60 e6bd c933 f1bd
00000050: 64f4 52bd 7ab3 ddbd ed41 313d dbab cd3c
00000060: d3a4 513d f6d8 0dbe ee3e d83c 5bc0 a53b
00000070: dfb3 a6bd 1777 3d3d 53c3 e5bc 79bb 40bc
00000080: 2936 e1bc 6e22 59bd f528 ffbc 4949 5cbe
00000090: ef77 a6bd c1ee d2bd e457 a6bc 4c05 a53d

gcn_layers.1.node_feat.U.weight f4 [40, 40]
-0.046072014 0.015861452 0.070810884 0.10115169 -0.08846293 0.0010966156 0.13175644 -0.0744826
0.06675878 0.2762785 0.22460079 0.09594062 0.06758042 -0.29675683 -0.036316533 -0.12399194
-0.049234305 0.06607073 -0.21058303 0.080048636 -0.26839226 0.041420296 -0.07081872 -0.008491243
-0.029345311 0.008288886 -0.0020340022 0.05238866 -0.025162293 -0.08480809 0.0541184 0.047274064
-0.045583986 -0.118196055 -0.1231037 0.018396413 0.03839296 0.122326456 -0.08094811 0.14360514
0.10920471 -0.17345475 -0.21416236 -0.16985157 -0.07152143 -0.11984345 0.07403301 -0.018632205
-0.12623583 0.049705554 -0.0036351043 -0.21432242 -0.10426869 -0.029085273 -0.020561174 0.03174845
0.0456298 -0.13825373 0.13820034 -0.14189415 -0.036024723 0.07201104 -0.29029804 -0.064192586
-0.13952044 -0.1523174 -0.114537045 0.0074506653 -0.022416668 -0.016967855 -0.123027526 -0.07023178
0.016214587 0.016714383 -0.34849322 -0.06598166 -0.09988544 -0.060562182 0.02218316 -0.2677801
-0.06647381 -0.13000332 -0.18246077 -0.021345628 0.1339169 0.08909154 0.06886692 -0.049597923
-0.037876096 -0.19177929 -0.046120785 -0.08416665 0.009583435 0.06981788 -0.1656513 -0.10630145
-0.08720613 -0.03798186 -0.076531015 0.032423496 0.06503974 -0.12492834 -0.003541737 0.055209577
-0.070044644 0.011584346 0.098511815 -0.04219745 -0.0033598999 0.044697072 -0.042434096 -0.13292797
0.14449409 -0.076818004 -0.026136838 -0.059252355 -0.1755182 -0.15877622 0.010244585 0.12613337
-0.04423342 0.19944642 -0.030652195 -0.036400348 -0.0016212915 0.1536517 0.06938083 0.07536525
0.20490769 0.007476896 -0.2694113 0.18994509 -0.05170813 0.12829241 0.019983336 0.13962752
0.20564948 -0.037714384 -0.03691266 0.055764243 -0.028547145 -0.1830518 0.15788005 0.09413673
0.12762323 0.12559141 0.1694099 0.046483766 -0.069643244 -0.06512933 0.113002576 -0.09193517
0.14185165 -0.018513786 0.16891943 -0.043627243 -0.059259415 0.032873344 -0.16775253 -0.08342593
-0.010124924 -0.17445862 -0.02907118 0.03210322 0.043270797 0.06768824 -0.23418972 0.14192328
-0.2099246 -0.087195106 0.1626536 0.11906789 0.05579021 -0.020600608 0.0917749 0.10061687
0.0061840154 0.028701242 -0.14751366 -0.018298522 -0.219892 0.14166674 -0.0683464 -0.11749242
-0.13605548 -0.13559431 -0.036178548 0.1327777 0.01971956 0.029250978 -0.03603204 0.052918192
0.12771012 -0.0754494 -0.044080377 0.02879513 0.014567533 0.1434668 -0.08039666 -0.16464318
-0.28056142 0.057149604 0.12516508 0.14302894 0.01111496 0.0055367784 0.18485257 -0.03835392
0.010664709 0.044379678 0.11126221 -0.036501277 0.10626544 -0.08178869 0.03705011 -0.115626775
0.08493626 -0.110781424 -0.013392176 -0.07356551 0.016895507 -0.054088816 -0.17858194 -0.19374993
-0.036787312 0.017393433 -0.05260389 0.020661874 -0.114112504 -0.06051686 0.057940714 -0.09805238
-0.033139147 -0.11440892 -0.05910807 0.06548749 0.102489606 0.13035563 -0.09678321 0.103359446
-0.060007755 -0.03394472 -0.12234814 -0.012422595 0.06479496 -0.15779117 -0.29957688 0.16996582
0.023934612 -0.14909999 -0.29514828 -0.13049512 0.08671564 -0.15807071 0.06476097 -0.0396374
00000000: 02b6 3cbd e0ef 813c 4c05 913d 9e28 cf3d
00000010: 0d2c b5bd 50bc 8f3a 29eb 063e 558a 98bd
00000020: d4b8 883d 6074 8d3e c0fd 653e 847c c43d
00000030: 9a67 8a3d 83f0 97be a5c0 14bd 7cef fdbd
00000040: e9a9 49bd 1750 873d 14a3 57be 8af0 a33d
00000050: b66a 89be 54a8 293d 6809 91bd db1e 0bbc
00000060: 9465 f0bc 1cce 073c e54c 05bb 7e95 563d
00000070: 2721 cebc ddaf adbd 41ab 5d3d 73a2 413d
00000080: 46b6 3abd c610 f2bd cb1d fcbd 13b4 963c
00000090: f041 1d3d 4b86 fa3d 1fc8 a5bd 3a0d 133e
000000a0: b8a6 df3d 1f9e 31be 614d 5bbe 92ed 2dbe
000000b0: d479 92bd 7c70 f5bd 9e9e 973d 91a2 98bc
000000c0: f743 01be 0d98 4b3d ee3a 6ebb 5677 5bbe
000000d0: d38a d5bd 3d44 eebc e86f a8bc aa0a 023d
000000e0: 50e6 3a3d 6392 0dbe 6484 0d3e b34c 11be
000000f0: a98e 13bd 867a 933d f2a1 94be 6777 83bd
00000100: 72de 0ebe 18f9 1bbe 6692 eabd b624 f43b
00000110: 29a3 b7bc 2c00 8bbc dbf5 fbbd aed5 8fbd
00000120: 74d4 843c 9aec 883c b46d b2be 6421 87bd
00000130: bd90 ccbd 0d10 78bd 75b9 b53c 791a 89be
00000140: 6c23 88bd 971f 05be ffd6 3abe 07dd aebc
00000150: 8321 093e a075 b63d 1a0a 8d3d 3127 4bbd
00000160: f723 1bbd ca61 44be 26e9 3cbd 915f acbd
00000170: d703 1d3c adfc 8e3d 7fa0 29be 93b4 d9bd
00000180: 2199 b2bd de92 1bbd 4bbc 9cbd 80ce 043d
00000190: 8e33 853d 6eda ffbd 7d1c 68bb 7023 623d
000001a0: 9173 8fbd 45cc 3d3c 90c0 c93d 3cd7 2cbd
000001b0: c431 5cbb 4714 373d 60cf 2dbd 451e 08be
000001c0: 42f6 133e c252 9dbd ec1c d6bc 99b2 72bd
000001d0: 0bbb 33be 3c96 22be e7d8 273c 1b29 013e
000001e0: 1a2e 35bd af3b 4c3e 501a fbbc 8818 15bd
000001f0: 8481 d4ba df56 1d3e 8917 8e3d 1959 9a3d
00000200: 52d3 513e c000 f53b 47f0 89be f780 423e
00000210: e7cb 53bd 165f 033e 18b4 a33c 84fa 0e3e
00000220: c795 523e 667a 1abd bb31 17bd 0c69 643d
00000230: b4db e9bc ee71 3bbe 4fab 213e c2ca c03d
00000240: aaaf 023e 099b 003e ca79 2d3e c365 3e3d
00000250: 1ea1 8ebd 8762 85bd e56d e73d 8248 bcbd
00000260: 8f41 113e 39aa 97bc 37f9 2c3e 7bb2 32bd
00000270: 00ba 72bd 33a6 063d 52c7 2bbe 37db aabd
00000280: 02e3 25bc 48a5 32be af26 eebc aa7e 033d
00000290: b83c 313d 22a0 8a3d 6ecf 6fbe 5654 113e
000002a0: 79f6 56be 5993 b2bd aa8e 263e ded9 f33d
000002b0: 4684 643d 9bc2 a8bc 7bf4 bb3d 3810 ce3d
000002c0: 48a3 ca3b de1e eb3c d20d 17be c8e6 95bc
000002d0: 5e2b 61be 1611 113e 33f9 8bbd de9f f0bd
000002e0: 2152 0bbe 3cd9 0abe f52f 14bd e1f6 073e
000002f0: ea8a a13c bf9f ef3c 5596 13bd bfc0 583d
00000300: 71c6 023e 3785 9abd a08d 34bd c4e3 eb3c
00000310: a9ac 6e3c f6e8 123e 01a7 a4bd 3998 28be
00000320: bfa5 8fbe b415 6a3d 462b 003e 2e76 123e
00000330: 851b 363c dd6d b53b fe49 3d3e 0019 1dbd
00000340: 08bb 2e3c 77c7 353d 71dd e33d 5d82 15bd
00000350: b2a1 d93d d480 a7bd dbc1 173d bbcd ecbd
00000360: 10f3 ad3d 5fe1 e2bd db6a 5bbc 84a9 96bd
00000370: 7268 8a3c 3c8c 5dbd 2fde 36be 6266 46be
00000380: 4bae 16bd ac7c 8e3c 2d77 57bd 1743 a93c
00000390: d1b3 e9bd 87e0 77bd 3e53 6d3d b0cf c8bd
000003a0: eabc 07bd 394f eabd 4e1b 72bd 4e1e 863d
000003b0: 12e6 d13d f27b 053e 4736 c6bd 1eae d33d
000003c0: b1ca 75bd 9e09 0bbd a991 fabd 2488 4bbc
000003d0: 38b3 843d 0294 21be 2462 99be 850b 2e3e
000003e0: 8512 c43c abad 18be ad1d 97be 83a0 05be
000003f0: f897 b13d 4add 21be 66a1 843d d45a 22bd

gcn_layers.1.node_feat.U.bias f4 [40]
0.14383431 -0.08721909 0.0983205 0.040078793 0.115230516 0.08976806 0.078594744 -0.13658498
0.04786098 0.14553657 -0.066631444 0.07361043 0.10976932 -0.14955977 0.11031415 0.13190345
0.009606689 0.122327104 -0.02340292 0.061600354 0.13366815 0.11889246 0.02739805 0.021135122
-0.14410642 0.08129772 -0.081871256 0.053743914 -0.12344382 -0.11586425 -0.15422338 -0.013014928
-0.11296074 0.005978441 0.07241274 -0.12716363 0.010013515 -0.043217875 0.11079952 0.0132314395
00000000: 4d49 133e ec9f b2bd 425c c93d a929 243d
00000010: fafd eb3d 51d8 b73d 48f6 a03d efdc 0bbe
00000020: e009 443d 8a07 153e 1176 88bd 11c1 963d
00000030: bdce e03d 3226 19be 63ec e13d b311 073e
00000040: 6065 1d3c a286 fa3d 7bb7 bfbc a750 7c3d
00000050: 4ee0 083e e47d f33d e071 e03c 9023 ad3c
00000060: a290 13be 6b7f a63d 1eac a7bd 9422 5c3d
00000070: 1dd0 fcbd 3c4a edbd bcec 1dbe 913c 55bc
00000080: f657 e7bd cce6 c33b 214d 943d 2f37 02be
00000090: ba0f 243c 3a05 31bd dcea e23d aec8 583c
