models/model_20_dropout.pt (torch, 149864 bytes, 196 tensors)

node_coord_embedding.weight f4 [16, 3]
-0.7557489 0.9938398 -0.24344634 -0.24004394 -0.3171883 0.27104217 -1.019002 0.29445505
0.1437511 -0.9414627 0.9684446 -0.23867075 0.34323442 -0.32484847 0.21579461 0.5672642
-0.31873384 -0.36237928 -0.10498984 -0.40782595 -0.28898227 0.43851948 -0.38397026 -0.35934362
0.90027213 -1.0503501 0.021397674 0.7971692 1.2250706 0.336325 0.17332855 -1.150424
-0.008192526 -0.91646624 -1.1054621 0.30453584 1.1793921 -1.5044016 -0.03731485 -1.5335027
-1.0120646 -0.0049291 -0.26671842 1.6399472 -0.08924725 -0.7768378 0.7776072 0.20565994
00000000: c378 41bf 496c 7e3f ff49 79be 14ce 75be
00000010: 8166 a2be 0ac6 8a3e a86e 82bf d0c2 963e
00000020: 7d33 133e b303 71bf fceb 773f 1b66 74be
00000030: 6cbc af3e 8a52 a6be 43f9 5c3e 3a38 113f
00000040: 1531 a3be c789 b9be ea04 d7bd 90ce d0be
00000050: 7cf5 93be a085 e03e c097 c4be e3fb b7be
00000060: 3c78 663f df71 86bf 2d4a af3c 4813 4c3f
00000070: 1dcf 9c3f ca32 ac3e 0a7d 313e 1841 93bf
00000080: f239 06bc 889d 6abf c87f 8dbf 1fec 9b3e
00000090: 52f6 963f 3b90 c0bf 75d7 18bd d149 c4bf
000000a0: 558b 81bf 4a84 a1bb 518f 88be cae9 d13f
000000b0: 43c7 b6bd d8de 46bf 4411 473f 8598 523e

distance_embedding.weight f4 [8, 1]
-2.2922885 1.8505911 -0.7196535 -1.562373 -2.9923787 -2.109942 1.3149834 2.3064337
00000000: dbb4 12c0 2be0 ec3f 363b 38bf d7fb c7bf
00000010: 2283 3fc0 4a09 07c0 6051 a83f 9c9c 1340

edge_type_embedding.weight f4 [3, 8]
-0.34718424 -1.4396904 1.1210994 -1.1160685 0.38384622 0.1829744 1.0343442 0.22168326
-0.70787597 -1.2308413 -0.34184954 -0.5191938 1.4926614 0.024378307 -0.004093255 -0.42105034
3.825981 2.8894424 1.7977399 -0.8277222 -0.05732047 -1.5083334 -0.5210848 -2.2941995
00000000: 22c2 b1be c647 b8bf 2f80 8f3f 55db 8ebf
00000010: 7e87 c43e a45d 3b3e 6465 843f f000 633e
00000020: 5c37 35bf 358c 9dbf e706 afbe e3e9 04bf
00000030: 870f bf3f 04b5 c73c b620 86bb e993 d7be
00000040: dfdc 7440 a0ec 3840 571c e63f 9ae5 53bf
00000050: dfc8 6abd 1211 c1bf d065 05bf 2ad4 12c0

gcn_layers.0.node_feat.U.weight f4 [16, 16]
-0.14171688 0.17941749 0.11340546 -0.16913861 0.20672722 -0.24878317 0.06933786 -0.022712888
-0.057528567 0.2016103 -0.046429854 -0.2893195 0.057413068 -0.3314572 0.24147901 0.017857762
0.20491034 -0.4819046 -0.020728428 0.07383871 -0.070609085 0.20137511 0.011012447 0.4450997
-0.23410624 -0.4038947 0.14502944 -0.0010440992 0.080047034 -0.106677994 0.2306411 -0.15853657
0.105403125 0.15750577 -0.101093814 0.134442 -0.04010796 -0.053038146 0.0689259 0.14950281
0.009630915 0.13217916 0.1008481 0.15969412 -0.12662244 0.7192425 -0.15184382 -0.06752998
0.2865061 -0.07905693 0.29885015 0.16337739 -0.12162064 -0.15436691 -0.004927811 0.08420061
-0.1752769 0.15325834 -0.15729834 -0.15824868 -0.09077835 0.2995508 -0.095520735 0.37454292
0.045816224 -0.031415515 -0.09749302 -0.051333964 0.15798295 0.29895994 -0.07909541 -0.19309855
0.3028578 -0.12138179 0.4085223 0.3688977 0.13046518 0.2858371 -0.080184236 -0.3164364
0.16962563 -0.21696799 -0.2113381 -0.014446724 -0.31277555 0.40497047 0.25535938 0.23708855
-0.0567245 -0.33029845 0.011457359 -0.3402988 -0.116387375 0.09683325 0.07657301 0.06901899
0.05259638 0.101668276 0.034969125 0.008777541 0.06512481 -0.21164747 -0.16806798 0.17104448
0.06052507 -0.0183675 0.020672616 0.38449574 -0.009512929 0.43259156 -0.14619455 0.18881127
-0.13509755 -0.23174626 0.060143877 -0.27801722 0.20884497 -0.16079836 0.15812573 0.015105617
0.09257618 -0.05442504 -0.33834073 -0.23988062 -0.17962663 -0.5126081 -0.055970263 -0.124221854
0.03641608 -0.0763726 -0.26805156 -0.25538197 0.08658325 0.18688971 -0.18657926 -0.21600193
0.3923075 -0.1393013 0.23246211 -0.018480338 -0.028229173 -0.30195326 -0.19029905 -0.19141528
-0.027685735 -0.10844847 -0.10536121 0.08104472 -0.11335666 -0.12023231 -0.14237542 -0.07061248
-0.030742075 0.17262626 0.25828677 -0.23712946 -0.028965112 -0.48884067 0.1688756 -0.025792737
0.29840398 -0.18326792 -0.112789735 -0.10575277 -0.35341436 0.08563022 0.11995365 0.45281124
0.14582315 -0.046359867 0.15322754 -0.2999784 0.012650901 0.0657291 -0.032949783 0.042585343
-0.08861802 -0.058214832 -0.17236939 -0.052019853 0.20913132 0.171336 -0.017884217 -0.03341701
-0.046721894 0.1982765 -0.054038823 -0.026205925 -0.0758822 -0.306423 0.08183715 -0.24044558
0.02867782 -0.121050745 -0.093366705 -0.33944643 0.2562288 0.20310187 -0.14878483 -0.04510792
0.29914027 0.20911418 0.2304242 0.009580065 0.26535368 0.07391047 -0.42418054 0.05439162
0.116379686 0.14598994 -0.16898538 0.06307036 -0.24342261 -0.0032907054 -0.12822641 0.17875455
-0.20281307 0.15408775 0.2672511 0.25135058 0.1158317 0.37239859 0.120085604 -0.03093066
-0.08853778 -0.2339738 0.2512588 0.16631974 -0.20977058 -0.16176638 -0.16903442 -0.021601057
-0.4996757 -0.14067061 -0.3250119 -0.12179757 -0.34032267 -0.10590478 0.059052724 0.27464315
0.21013348 0.074753165 -0.014107184 0.081664085 -0.21952394 -0.014547885 -0.10652972 -0.2069698
-0.36769402 0.19521573 -0.28692183 -0.12750761 -0.20036402 0.023329305 0.19043323 -0.08250566
00000000: 3b1e 11be 38b9 373e 1f41 e83d ac32 2dbe
00000010: 4db0 533e 04c1 7ebe 0201 8e3d 6110 babc
00000020: 13a3 6bbd ee72 4e3e 3b2d 3ebd af21 94be
00000030: f729 6b3d c2b4 a9be 4646 773e 714a 923c
00000040: 04d4 513e 33bc f6be aace a9bc c038 973d
00000050: 7f9b 90bd 4735 4e3e 8d6d 343c 1ce4 e33e
00000060: 8cb9 6fbe 49cb cebe 9982 143e 28da 88ba
00000070: b3ef a33d fe79 dabd 2e2d 6c3e 6957 22be
00000080: 98dd d73d 3149 213e 460a cfbd 2aab 093e
00000090: 3f48 24bd 873e 59bd 0629 8d3d 4417 193e
000000a0: fcca 1d3c f959 073e 7389 ce3d db86 233e
000000b0: 50a9 01be 4720 383f f27c 1bbe 284d 8abd
000000c0: edb0 923e 9ae8 a1bd e302 993e 674c 273e
000000d0: 3e14 f9bd 5c12 1ebe 7a79 a1bb 5f71 ac3d
000000e0: ca7b 33be c1ef 1c3e d112 21be f10b 22be
000000f0: 00ea b9bd b95e 993e 60a0 c3bd 17c4 bf3e
00000100: cba9 3b3d 8ead 00bd 6caa c7bd 9043 52bd
00000110: 48c6 213e 4711 993e c6fc a1bd a0bb 45be
00000120: 2d10 9b3e 0497 f8bd d629 d13e 29e0 bc3e
00000130: aa98 053e 3e59 923e a237 a4bd f403 a2be
00000140: 57b2 2d3e db2c 5ebe 0469 58be f4b1 6cbc
00000150: 1e24 a0be 4a58 cf3e 77be 823e 57c7 723e
00000160: f357 68bd e11c a9be a6b7 3b3c a53b aebe
00000170: 815c eebd 8350 c63d 4fd2 9c3d d459 8d3d
00000180: 4d6f 573d 7537 d03d c93b 0f3d adcf 0f3c
00000190: 2860 853d 1dba 58be 031a 2cbe 4926 2f3e
000001a0: 23e9 773d 7077 96bc 9e59 a93c a0dc c43e
000001b0: 1edc 1bbc a47c dd3e 06b4 15be be57 413e
000001c0: 0357 0abe e44e 6dbe 6d59 763d 4658 8ebe
000001d0: 75db 553e 53a8 24be b6eb 213e 8d7d 773c
000001e0: 9598 bd3d caec 5ebd ff3a adbe 44a3 75be
000001f0: 0bf0 37be 493a 03bf 1341 65bd 0768 febd
00000200: 0729 153d 3d69 9cbd 0e3e 89be 6dc1 82be
00000210: 8f52 b13d 0460 3f3e a20e 3fbe 9c2f 5dbe
00000220: 87dc c83e 00a5 0ebe 8c0a 6e3e 1464 97bc
00000230: de40 e7bc 9e99 9abe c1dd 42be 5e02 44be
00000240: 32cd e2bc 3b1a debd 9ec7 d7bd c6fa a53d
00000250: 8927 e8bd 5b3c f6bd ddca 11be 479d 90bd
00000260: ced6 fbbc f0c4 303e 2a3e 843e 11d2 72be
00000270: 3e48 edbc 5349 fabe baed 2c3e 4a4b d3bc
00000280: 68c8 983e 96aa 3bbe 4efe e6bd e994 d8bd
00000290: baf2 b4be e65e af3d 42aa f53d e0d6 e73e
000002a0: aa52 153e d8e3 3dbd aee7 1c3e c596 99be
000002b0: ba45 4f3c fa9c 863d 5af6 06bd f86d 2e3d
000002c0: 5d7d b5bd ad72 6ebd 9a81 30be c512 55bd
000002d0: 8526 563e b472 2f3e ec81 92bc 46e0 08bd
000002e0: 755f 3fbd ff08 4b3e d057 5dbd cfad d6bc
000002f0: 2068 9bbd 7ae3 9cbe 3c9a a73d 5e37 76be
00000300: bfed ea3c 74e9 f7bd 0b37 bfbd eccb adbe
00000310: 6c30 833e f0f9 4f3e 0d5b 18be 15c3 38bd
00000320: ea28 993e 0722 563e 52f4 6b3e b4f5 1c3c
00000330: 70dc 873e 5f5e 973d 312e d9be bfc9 5e3d
00000340: 7958 ee3d 637e 153e 810a 2dbe 082b 813d
00000350: c743 79be e0a8 57bb c94d 03be 6f0b 373e
00000360: 3bae 4fbe 2ec9 1d3e 23d5 883e 06b1 803e
00000370: 2c39 ed3d 07ab be3e 71ef f53d 4c62 fdbc
00000380: 4c53 b5bd d496 6fbe fea4 803e b94f 2a3e
00000390: 19ce 56be 16a6 25be 5c17 2dbe b3f4 b0bc
000003a0: 7ed5 ffbe f50b 10be f667 a6be 0171 f9bd
000003b0: c63e aebe 9be4 d8bd 45e1 713d 079e 8c3e
000003c0: 3b2d 573e 3018 993d d121 67bc 803f a73d
000003d0: e2ca 60be 415a 6ebc 412c dabd e4ef 53be
000003e0: 6442 bcbe a2e6 473e 6be7 92be 5b91 02be
000003f0: 3a2c 4dbe 191d bf3c ee00 433e baf8 a8bd

gcn_layers.0.node_feat.U.bias f4 [16]
-0.13305327 -0.16376796 -0.12299662 0.036167756 -0.24004227 -0.07807933 -0.07271501 0.083131805
-0.010833178 0.18225506 0.19008769 -0.0510042 -0.17054114 -0.0122071365 0.14095013 -0.18314445
00000000: 1e3f 08be cab2 27be a7e5 fbbd a424 143d
00000010: a4cd 75be 0ee8 9fbd 9beb 94bd 0241 aa3d
00000020: a47d 31bc 12a1 3a3e 59a6 423e c8e9 50bd
00000030: 56a2 2ebe 7100 48bc 3b55 103e 388a 3bbe

gcn_layers.0.node_feat.V.weight f4 [16, 16]
0.21316731 0.056639396 0.09852684 -0.026740234 -0.18892191 -0.0848987 -0.18263975 0.043615688
-0.09212508 -0.28001326 0.029708102 0.22573695 0.30734786 0.18098879 -0.20839372 0.29089254
-0.0005321168 -0.0054449793 0.13039345 0.17167005 0.04935754 -0.21330585 -0.12433666 0.18404432
0.023509715 0.024782471 0.011220913 0.10468337 -0.1871508 -0.17256235 -0.05408863 -0.18424563
-0.21022509 -0.24586335 -0.23969056 -0.042162944 0.11738231 -0.17448947 -0.002019669 -0.0341026
-0.16510749 0.12914915 -0.16574106 -0.22027552 0.13777652 -0.41345182 0.12896435 -0.09555344
-0.4378124 -0.09299286 -0.25113714 0.0135104405 0.2275363 -0.12207479 0.17515196 -0.098758265
0.49096146 -0.18520918 0.21326274 -0.16737843 0.14032875 -0.24115051 0.0023055365 -0.03364472
0.050212767 -0.14370187 0.0021495835 -0.18149 -0.018270696 0.07249009 -0.1428345 0.0061740084
-0.39627963 0.08404823 -0.26109698 -0.1550262 -0.5671425 -0.22392038 0.16982251 0.086916834
-0.12595479 0.16837539 0.06252015 0.22439979 0.071008034 -0.1582011 -0.041968063 0.13666973
0.103503115 -0.012866592 -0.021257099 0.018376885 0.09613544 -0.012464683 0.004148521 -0.13023056
-0.03457565 -0.05192249 -0.067447245 -0.20104289 0.16484557 0.18900606 -0.07271683 0.14282437
0.0035303882 0.2791713 -0.18741407 -0.30524528 -0.006536277 -0.4079872 0.09350257 0.09450768
0.14871706 -0.17155896 -0.151472 0.08452532 -0.059541307 -0.10183842 0.015121004 -0.2116519
-0.094071604 -0.22807612 0.050913963 0.22154403 0.1509091 0.7384075 -0.045455195 0.053533636
0.20648886 -0.06491163 0.28083482 0.13684024 -0.0075737066 0.10003617 -0.118607 0.07457569
-0.51449496 -0.07971308 -0.40893078 0.22004807 -0.57436097 0.19552036 0.09253998 0.24138528
0.08728277 0.27085346 0.0054869843 0.18859163 -0.16645691 -0.08397592 0.13651802 -0.09711614
0.25734022 -0.23483218 0.37244892 0.062241435 0.15598467 0.82989097 -0.29754058 0.30500755
0.006405828 -0.17572004 0.15568686 0.13717069 0.12574615 -0.093566366 -0.007999354 -0.081826046
0.06030583 -0.07473885 0.1225393 -0.07618056 -0.008355538 0.21210362 0.13201308 0.03890816
0.23985453 -0.19585952 0.15442275 0.015138319 0.19543026 0.16962488 -0.12114459 -0.11333405
-0.12168656 -0.1303044 0.10455415 0.22181825 0.19287017 0.4701222 0.09413523 0.18013924
0.21056984 -0.3222712 -0.06240717 0.12439136 -0.17419116 0.08640051 -0.0107887685 -0.07445734
-0.5172121 -0.074701734 0.17379817 -0.35402957 -0.35081717 0.3071556 0.054833587 0.040043738
-0.13570511 0.09732918 -0.09904358 -0.37083894 0.023325825 -0.372556 -0.42003295 -0.41251582
-0.05611184 0.28225422 -0.13694973 -0.10307493 0.106148615 -0.220147 -0.1254829 0.17205282
-0.22508223 -0.060163856 0.022431506 -0.1522217 0.29761305 -0.111894116 0.03761857 -0.043246415
0.5729693 -0.18862513 0.22416729 -0.13341108 0.24542077 0.0015591362 -0.19076607 -0.49806422
-0.24304827 0.25307944 -0.35760075 -0.16333692 -0.047477234 0.28166842 0.0013025788 -0.050604906
0.2623589 -0.21188073 0.34585238 0.19331755 0.14350593 0.072337165 -0.016789567 -0.04800369
00000000: 8848 5a3e b6fe 673d 71c8 c93d 560e dbbc
00000010: bf74 41be 5fdf adbd ea05 3bbe 5da6 323d
00000020: 13ac bcbd e65d 8fbe 685e f33c 9627 673e
00000030: b35c 9d3e 2055 393e 2a65 55be deef 943e
00000040: c17d 0bba cc6b b2bb dc85 053e 46ca 2f3e
00000050: 222b 4a3d d96c 5abe 38a4 febd 1d76 3c3e
00000060: 7297 c03c 9c04 cb3c ecd7 373c 3c64 d63d
00000070: 76a4 3fbe 2fb4 30be 0a8c 5dbd e3aa 3cbe
00000080: 3f45 57be 9ac3 7bbe 7171 75be 0db3 2cbd
00000090: 2366 f03d 5ead 32be 6c5c 04bb 2baf 0bbd
000000a0: f011 29be ad3f 043e 06b8 29be e88f 61be
000000b0: 4a15 0d3e f5af d3be 3b0f 043e 86b1 c3bd
000000c0: f228 e0be 0a73 bebd 0c95 80be e55a 5d3c
000000d0: 47ff 683e 5902 fabd 095b 333e c641 cabd
000000e0: 4d5f fb3e 7aa7 3dbe 8c61 5a3e 4065 2bbe
000000f0: 57b2 0f3e 29f0 76be 7c18 173b 0ccf 09bd
00000100: e7ab 4d3d 9526 13be 07e0 0c3b 84d8 39be
00000110: 6dac 95bc af75 943d 3543 12be 564f ca3b
00000120: 2ae5 cabe 7a21 ac3d 81ae 85be 30bf 1ebe
00000130: 4030 11bf 624b 65be f4e5 2d3e 7401 b23d
00000140: 4bfa 00be 996a 2c3e 900a 803d 0fc9 653e
00000150: a96c 913d 78ff 21be b4e6 2bbd 26f3 0b3e
00000160: 71f9 d33d 66ce 52bc 5e23 aebc 1f8b 963c
00000170: a8e2 c43d ab38 4cbc 51f0 873b 295b 05be
00000180: 329f 0dbd adac 54bd c821 8abd 30de 4dbe
00000190: 47cd 283e ce8a 413e 90ec 94bd 8d40 123e
000001a0: 165e 673b 8aef 8e3e 79e9 3fbe 1c49 9cbe
000001b0: 442e d6bb b3e3 d0be 477e bf3d 3e8d c13d
000001c0: 4949 183e 27ad 2fbe 7a1b 1bbe 9c1b ad3d
000001d0: 96e1 73bd a990 d0bd 16be 773c 47bb 58be
000001e0: 9da8 c0bd c98c 69be 298b 503d 70dc 623e
000001f0: ea87 1a3e 4608 3d3f 3a2f 3abd 1646 5b3d
00000200: d171 533e 63f0 84bd 95c9 8f3e d91f 0c3e
00000210: db2c f8bb c3df cc3d 3ae8 f2bd 24bb 983d
00000220: f1b5 03bf 9c40 a3bd 605f d1be 4854 613e
00000230: 5209 13bf 7d36 483e 9a85 bd3d b42d 773e
00000240: 4fc1 b23d 4ead 8a3e 29cc b33b 2a1e 413e
00000250: ae73 2abe 91fb abbd 61cb 0b3e d4e4 c6bd
00000260: 19c2 833e d977 70be a0b1 be3e e0f0 7e3d
00000270: 72ba 1f3e bc73 543f 3d57 98be f329 9c3e
00000280: fbe7 d13b f4ef 33be 606c 1f3e 7976 0c3e
00000290: 99c3 003e b99f bfbd b90f 03bc 6a94 a7bd
000002a0: 3f03 773d af10 99bd e2f5 fa3d 8e04 9cbd
000002b0: abe5 08bc b131 593e 702e 073e 2a5e 1f3d
000002c0: 6d9c 753e 668f 48be ff20 1e3e b606 783c
000002d0: df1e 483e 25b2 2d3e a81a f8bd af1b e8bd
000002e0: ce36 f9bd 846e 05be 7c20 d63d 5324 633e
000002f0: c27f 453e dbb3 f03e f9c9 c03d 6c76 383e
00000300: 9f9f 573e bb00 a5be a99e 7fbd e6c0 fe3d
00000310: 2b5f 32be c0f2 b03d 60c3 30bc 177d 98bd
00000320: 0368 04bf 39fd 98bd 26f8 313e 5d43 b5be
00000330: 4f9e b3be 8043 9d3e 2f99 603d e704 243d
00000340: 48f6 0abe 8554 c73d 5cd7 cabd 9ade bdbe
00000350: cd15 bf3c a9bf bebe 8f0e d7be 4635 d3be
00000360: 87d5 65bd a083 903e 8d3c 0cbe f318 d3bd
00000370: 7264 d93d 376e 61be 977e 00be 9d2e 303e
00000380: f57b 66be 606e 76bd 47c2 b73c 01e0 1bbe
00000390: bd60 983e be28 e5bd ee15 1a3d 2723 31bd
000003a0: 1eae 123f f226 41be 1c8c 653e ea9c 08be
000003b0: 954f 7b3e ee5b cc3a 2e58 43be 4602 ffbe
000003c0: a5e1 78be a193 813e 7217 b7be cb41 27be
000003d0: 7d77 42bd d836 903e 4bbb aa3a 1747 4fbd
000003e0: e853 863e 43f7 58be 9013 b13e 09f5 453e
000003f0: 38f3 123e 8225 943d 468a 89bc 849f 44bd

gcn_layers.0.node_feat.V.bias f4 [16]
-0.2357046 -0.123701386 -0.07498351 0.20801486 0.0010082293 -0.14138721 0.22533485 -0.083794706
0.011961869 -0.10002809 0.006319653 0.17061037 -0.004496327 -0.19129358 0.0790447 0.06474628
00000000: 8c5c 71be 2757 fdbd f490 99bd d901 553e
00000010: 9026 843a cfc7 10be 2ebe 663e 8f9c abbd
00000020: b7fb 433c 87db ccbd 1715 cf3b 7cb4 2e3e
00000030: ed55 93bb 77e2 43be 30e2 a13d b399 843d

gcn_layers.0.node_norm.batch_norm.weight f4 [16]
1.1288917 0.91413397 0.79077023 0.9487846 0.6513801 0.77437335 0.70139414 0.6834258
0.6235404 0.23646344 0.6528411 0.74556476 0.11245331 0.28286722 0.73405606 1.0344551
00000000: 867f 903f af04 6a3f eb6f 4a3f 8ce3 723f
00000010: d9c0 263f 553d 463f 918e 333f fef4 2e3f
00000020: 58a0 1f3f 7923 723e 9820 273f 55dd 3e3f
00000030: ec4d e63d f9d3 903e 19eb 3b3f 0669 843f

gcn_layers.0.node_norm.batch_norm.bias f4 [16]
0.8171644 -1.2884508 0.17475395 0.46771076 -0.5533911 -1.0949222 0.30355015 -0.7541769
-0.71316785 -0.32840914 -0.9330907 0.1266739 -0.2599851 0.2027733 -0.6341971 0.31844676
00000000: b031 513f f5eb a4bf b3f2 323e c977 ef3e
00000010: 0aab 0dbf 6926 8cbf ed6a 9b3e bd11 41bf
00000020: 2b92 36bf 3e25 a8be 08df 6ebf ceb6 013e
00000030: c41c 85be cea3 4f3e be5a 22bf 740b a33e

gcn_layers.0.edge_feat.U.weight f4 [16, 16]
0.48366368 -0.22063948 0.073698364 0.13966164 0.35821438 0.32281077 -0.38557506 -0.101923935
0.00518421 0.12320588 -0.08347594 0.24992615 -0.0343227 -0.096156575 -0.042815354 -0.11271983
-0.2786929 0.08029067 0.30481026 0.026397996 0.05149641 -0.027327744 0.14891234 0.087574326
0.6175738 0.5866922 0.4475709 0.09297075 -0.38961938 -0.41233835 -0.10381101 -0.23613338
0.85094535 -0.903463 0.1850142 0.9948631 0.870936 0.856796 -1.1238523 -0.89684075
-0.5514891 -0.6556825 -0.21981484 0.17107269 -0.10323994 -0.064232975 -0.23735192 0.35821503
0.8001194 -1.0409681 0.82630336 0.96914697 1.1732851 0.8089043 -1.193508 -1.1005222
-0.43503627 -0.5742631 -0.18202025 0.22312686 0.26553804 0.3169024 0.13698457 0.39457294
0.3692889 -0.190231 -0.20674583 0.37929326 0.21889783 0.17449985 -0.2728044 -0.120781496
-0.5958986 -0.23790342 -0.6803309 0.43758819 0.33888865 0.084580414 -0.05205328 -0.06270536
0.5584076 -0.6149577 -0.051871978 0.5333414 0.16030468 0.3516672 -0.22562206 -0.55251443
-0.07306967 0.051535945 -0.17294513 0.034096036 -8.516188e-05 0.1709791 0.14049038 0.0057767895
-0.33410794 0.20359486 0.01209406 -0.28335005 -0.20265025 -0.16677709 0.17343049 -0.004011003
-0.19831066 -0.0884061 -0.27075857 0.39504066 0.13551648 -0.32726747 -0.06704935 -0.19240029
-0.073815435 -0.07132632 0.53309834 0.24263895 0.34240162 0.2705887 0.100868516 0.10154515
0.33151326 0.9681685 -0.13908209 0.15424164 0.04205952 -0.73205507 -0.26862615 -0.49824062
0.025603434 -0.07676694 0.03859911 0.004239183 0.072308175 0.09881559 0.25433472 0.122823246
0.49615097 0.92314494 0.24197479 -0.18122609 0.045999456 -0.35928246 -0.11681695 -0.43470505
-0.32752222 0.2684225 -0.08938075 -0.30179757 -0.13172705 -0.28290552 0.50287056 0.19749926
0.3498554 0.39305317 0.054532886 -0.28051805 0.078021154 -0.36967647 0.06998843 -0.27575672
0.4906734 -0.18513086 -0.04495832 0.52384526 0.17943937 0.25896642 -0.3060794 -0.25691202
-0.046512675 0.15451449 -0.10069912 -0.25257283 -0.17152981 0.18627013 0.2663348 0.028302498
0.7217832 -0.9423674 0.53618014 1.0645397 0.96633106 0.66438216 -0.98092884 -0.8825238
-0.61048406 -0.58367306 -0.18828742 -0.0033946682 0.28284255 -0.04854416 0.060311615 0.19118474
0.4061079 -0.82863414 0.21815757 0.513455 0.35293788 0.80176103 -0.7932698 -0.77596414
0.32822266 0.37747666 0.18578976 -0.12283462 -0.0871247 0.07317875 0.16460338 0.35628286
0.67133534 -0.7691239 0.872942 0.60934657 0.5022487 0.49764824 -0.8733597 -0.77487236
0.08496734 0.0066945916 -0.27793476 -0.2829306 -0.13345337 0.44891816 0.04094994 0.25061762
-0.4112888 0.35037968 -0.29218554 -0.4583296 -0.12477282 -0.42028338 0.49389422 0.14903015
0.12147723 -0.10678485 0.33617654 -0.3297903 -0.17887221 0.40063557 0.36494434 0.24982454
0.8847498 -0.9511032 0.69953215 0.87439185 1.1499778 1.0476449 -0.9216167 -1.318111
-0.067138396 -0.8118112 -0.17110263 0.2386126 -0.051563594 -0.060463496 -0.15857334 0.40121594
00000000: c4a2 f73e 51ef 61be 2bef 963d 7603 0f3e
00000010: e067 b73e 7447 a53e 186a c5be 7fbd d0bd
00000020: 4ee0 a93b 5d53 fc3d 6ff5 aabd a4ec 7f3e
00000030: f695 0cbd bded c4bd 275f 2fbd a7d9 e6bd
00000040: d6b0 8ebe 6f6f a43d 1710 9c3e 9c40 d83c
00000050: e6ed 523d 6fde dfbc 7a7c 183e 2b5a b33d
00000060: 5119 1e3f 7631 163f 0328 e53e 7367 be3d
00000070: 317c c7be 031e d3be de9a d4bd f3cc 71be
00000080: 8ed7 593f 5a49 67bf 5d74 3d3e 59af 7e3f
00000090: a9f5 5e3f fc56 5b3f 64da 8fbf 5b97 65bf
000000a0: 642e 0dbf cfda 27bf 2417 61be ae2d 2f3e
000000b0: 766f d3bd 948c 83bd 620c 73be f667 b73e
000000c0: a0d4 4c3f 713e 85bf 9e88 533f 041a 783f
000000d0: 352e 963f 5a14 4f3f dfc4 98bf e9dd 8cbf
000000e0: 13bd debe e802 13bf 8463 3abe 5e7b 643e
000000f0: 9af4 873e 0841 a23e af45 0c3e 7705 ca3e
00000100: 6f13 bd3e eacb 42be 2eb5 53be ba32 c23e
00000110: c126 603e 17b0 323e 05ad 8bbe 4a5c f7bd
00000120: d08c 18bf f49c 73be 2a2a 2ebf 8f0b e03e
00000130: d082 ad3e 7f38 ad3d d235 55bd ab6b 80bd
00000140: cdf3 0e3f de6d 1dbf b677 54bd 1089 083f
00000150: e926 243e b90d b43e 7809 67be 9671 0dbf
00000160: 8da5 95bd 5b17 533d 8718 31be 49a8 0b3d
00000170: f098 b2b8 2515 2f3e b6dc 0f3e 394b bd3b
00000180: 3210 abbe 2c7b 503e 2a26 463c 4213 91be
00000190: 8c83 4fbe 9dc7 2abe c397 313e bb6e 83bb
000001a0: f311 4bbe 420e b5bd dea0 8abe c542 ca3e
000001b0: d5c4 0a3e 9a8f a7be 2b51 89bd 9504 45be
000001c0: 8c2c 97bd 8913 92bd 2279 083f 5876 783e
000001d0: 444f af3e 9a8a 8a3e 2794 ce3d e7f6 cf3d
000001e0: 1bbc a93e e4d9 773f 896b 0ebe 85f1 1d3e
000001f0: 9a46 2c3d f667 3bbf 5e89 89be 6519 ffbe
00000200: 4bbe d13c fc37 9dbd 1a1a 1e3d d8e8 8a3b
00000210: 4f16 943d d45f ca3d 2938 823e c18a fb3d
00000220: 8007 fe3e 3a53 6c3f 3dc8 773e 5593 39be
00000230: ed69 3c3d dff3 b7be ba3d efbd a991 debe
00000240: feb0 a7be ad6e 893e 410d b7bd 3685 9abe
00000250: 75e3 06be fed8 90be 20bc 003f 3f3d 4a3e
00000260: 3f20 b33e 443e c93e e05d 5f3d 10a0 8fbe
00000270: 8ec9 9f3d 3c46 bdbe 1856 8f3d fc2f 8dbe
00000280: 8b39 fb3e f292 3dbe 3726 38bd b91a 063f
00000290: f4be 373e 3f97 843e 70b6 9cbe f989 83be
000002a0: 1384 3ebd 0c39 1e3e 573b cebd 3a51 81be
000002b0: 83a5 2fbe 99bd 3e3e 095d 883e a4da e73c
000002c0: c9c6 383f fd3e 71bf 1a43 093f d642 883f
000002d0: 7961 773f f314 2a3f 271e 7bbf 14ed 61bf
000002e0: af48 1cbf 996b 15bf 6bce 40be 1579 5ebb
000002f0: bdd0 903e 3ed6 46bd 5009 773d efc5 433e
00000300: 60ed cf3e 5e21 54bf b364 5f3e c971 033f
00000310: 46b4 b43e 3640 4d3f bb13 4bbf 96a5 46bf
00000320: cd0c a83e 9f44 c13e ac3f 3e3e b890 fbbd
00000330: 6f6e b2bd bede 953d ca8d 283e b56a b63e
00000340: a2dc 2b3f 4ee5 44bf 2079 5f3f 23fe 1b3f
00000350: 5f93 003f c0cb fe3e 8094 5fbf 095e 46bf
00000360: 5b03 ae3d 4e5e db3b 774d 8ebe 48dc 90be
00000370: 00a8 08be 9ad8 e53e 20bb 273d f450 803e
00000380: 7294 d2be f764 b33e 5899 95be 2daa eabe
00000390: e488 ffbd 622f d7be b4df fc3e 5c9b 183e
000003a0: 0ec9 f83d 04b2 dabd 551f ac3e 46da a8be
000003b0: 472a 37be 1b20 cd3e fcd9 ba3e 01d2 7f3e
000003c0: f77e 623f 807b 73bf 8a14 333f 25d8 5f3f
000003d0: 7932 933f 3a19 863f 12ef 6bbf dcb7 a8bf
000003e0: db7f 89bd dcd2 4fbf 8735 2fbe dd56 743e
000003f0: 5934 53bd 92a8 77bd 0d61 22be 2d6c cd3e

gcn_layers.0.edge_feat.U.bias f4 [16]
0.3311049 0.5166888 -2.027301 -1.3306899 -0.20218982 1.064974 1.7598534 0.3122038
2.584373 1.6666579 -0.304586 -1.6053443 -0.74606264 -2.0883048 2.227437 -1.845816
00000000: 9586 a93e b845 043f 4dbf 01c0 0c54 aabf
00000010: d90a 4fbe 1151 883f e042 e13f 2dd9 9f3e
00000020: 5e66 2540 0c55 d53f b2f2 9bbe ec7b cdbf
00000030: f6fd 3ebf c9a6 05c0 548e 0e40 b343 ecbf

gcn_layers.0.edge_feat.V.weight f4 [16, 16]
-0.12681009 0.015418437 0.05674206 0.075616606 0.14847517 0.1965029 0.14410573 -0.15138665
-0.1299352 0.1857202 0.18547598 -0.08356234 -0.1843596 -0.100905664 0.1178 -0.17649652
-0.10261618 -0.23378395 0.10246501 0.11306991 0.12178053 -0.13273183 -0.19461308 0.030935027
0.22323526 -0.17835037 -0.031164056 -0.07323437 0.059057653 -0.017383473 0.060549334 0.038294815
0.2190571 0.02627248 -0.07731408 0.11257548 -0.23393157 -0.14962113 0.09665842 -0.09962131
-0.15253752 0.062304176 0.25463024 0.12506363 0.1724335 0.1653516 0.0031675654 -0.09173609
0.06576214 0.0012717408 0.026247662 -0.19599666 0.18383744 -0.08656765 0.08858014 0.16022316
0.22063461 -0.07415047 0.022366168 0.009909441 0.11236655 -0.37543452 0.21795914 0.007382454
0.058707416 -0.042769216 0.10520333 0.081644304 0.074899666 0.08082212 -0.20042758 -0.20441298
0.23604335 0.040904142 -0.038283594 -0.15229392 -0.018337917 0.21832564 0.033949483 -0.31579763
0.07652177 0.19141833 0.19651645 0.15952541 0.03667239 -0.11045187 0.08700866 0.122959346
0.15870404 0.019127542 0.09255834 -0.1382259 0.0048482036 -0.12852468 -0.10810676 0.044255666
-0.21362235 0.15295835 -0.11220837 0.20316245 -0.08479085 0.23320292 0.056873392 -0.036987375
0.3251508 -0.06745805 -0.027850451 0.1813968 -0.11887433 -0.103424445 0.16214426 0.14996353
-0.08373957 0.018737791 -0.029232716 -0.17739911 -0.01524243 -0.1299302 0.11994907 -0.008599185
0.15567917 0.029606018 -0.2749704 -0.26980713 -0.14690776 -0.13334802 0.066927634 0.050366648
-0.12299276 0.05087323 -0.053629983 0.022605427 0.15285358 -0.12341543 0.15199469 -0.018018933
-0.03837052 -0.0916228 -0.069136605 -0.101690926 -0.08373721 0.23303448 -0.051883414 -0.08402034
-0.06410188 0.16018204 0.090079926 0.1200958 0.19116278 0.15026885 0.019612137 -0.10858276
-0.23548536 -0.064536296 0.1375223 0.13577306 0.090417795 -0.22430502 0.15049544 -0.09199384
0.16850775 0.064381145 -0.1431662 0.078009635 0.1495954 -0.09167087 0.05685907 0.28507808
0.022692012 0.027891943 0.12081772 -0.08110888 0.06152991 0.19792795 0.24943438 -0.007269443
0.113947056 -0.19079144 -0.054252278 0.15533908 0.2644245 -0.006056115 -0.09953057 -0.05236681
0.020883486 0.051973492 -0.210322 0.027382726 0.061444983 -0.07949234 0.23257418 -0.01351432
-0.04527328 -0.14287347 0.20975178 0.021938704 -0.18002988 -0.013016426 -0.17428899 0.12498748
-0.13805683 -0.009102127 -0.21915562 0.08590082 0.16818939 -0.019024834 -0.13097289 -0.1365575
0.528324 -0.52152735 -0.4810674 0.31091905 -0.5778349 0.51952547 0.26211548 0.18273969
-0.23261128 -0.5228859 0.08485438 -0.44007337 0.18344033 -0.38503924 0.4227795 -0.6053187
0.1426779 0.28724447 -0.1291434 0.13973431 -0.12740277 -0.05092539 -0.105364986 0.009489624
0.17756319 -0.09131573 0.015557075 -0.109619655 -0.15807685 -0.039141495 -0.20804428 -0.009523341
0.29174712 0.23480883 0.049507707 -0.023916107 -0.00802702 -0.11097586 0.03997469 0.04714774
-0.49609572 -0.101103805 -0.4473614 -0.104008235 -0.45787606 -0.2044796 -0.049348187 -0.04295889
00000000: 81da 01be 9d9d 7c3c 5d6a 683d e1dc 9a3d
00000010: e009 183e 0e38 493e 7490 133e 1a05 1bbe
00000020: bc0d 05be 702d 3e3e 6aed 3d3e bb22 abbd
00000030: c3c8 3cbe a1a7 cebd 2041 f13d 81bb 34be
00000040: 6f28 d2bd 0f65 6fbe 2dd9 d13d 3291 e73d
00000050: 1268 f93d daea 07be a748 47be 746b fd3c
00000060: c997 643e 7ba1 36be c34b ffbc e7fb 95bd
00000070: 70e6 713d c967 8ebc 9402 783d 06db 1c3d
00000080: 8150 603e 6239 d73c d856 9ebd f98d e63d
00000090: c28b 6fbe 4836 19be daf4 c53d 4206 ccbd
000000a0: cc32 1cbe aa32 7f3d e55e 823e ae10 003e
000000b0: 6892 303e ee51 293e ee96 4f3b 22e0 bbbd
000000c0: 4dae 863d 8ab0 a63a 5605 d73c 59b3 48be
000000d0: e23f 3c3e 614a b1bd 8169 b53d 8a11 243e
000000e0: 0aee 613e 34dc 97bd 4139 b73c 355b 223c
000000f0: 6f20 e63d f438 c0be ae30 5f3e 83e8 f13b
00000100: 3077 703d c62e 2fbd d874 d73d 2135 a73d
00000110: ff64 993d 1186 a53d e33c 4dbe a351 51be
00000120: 59b5 713e 1a8b 273d 42cf 1cbd f0f2 1bbe
00000130: 6639 96bc c290 5f3e 9d0e 0b3d 3ab0 a1be
00000140: 72b7 9c3d 2b03 443e 9c3b 493e a15a 233e
00000150: ca35 163d 9734 e2bd 9931 b23d 1cd2 fb3d
00000160: 5083 223e 5db1 9c3c 3a8f bd3d 178b 0dbe
00000170: aedd 9e3b f99b 03be 1467 ddbd 6e45 353d
00000180: d1bf 5abe 1da1 1c3e 80cd e5bd d109 503e
00000190: d3a6 adbd bfcc 6e3e 13f4 683d 1380 17bd
000001a0: 2a7a a63e 7227 8abd a126 e4bc 15c0 393e
000001b0: 6274 f3bd 32d0 d3bd 2509 263e 0a90 193e
000001c0: a77f abbd ff7f 993c 7379 efbc 1da8 35be
000001d0: 63bb 79bc 6c0c 05be dca7 f53d 99e3 0cbc
000001e0: 5c6a 1f3e 5288 f23c ecc8 8cbe 2924 8abe
000001f0: fd6e 16be 628c 08be 5b11 893d 424d 4e3d
00000200: a1e3 fbbd 7360 503d 1dab 5bbd 042f b93c
00000210: a685 1c3e 3bc1 fcbd 7fa4 1b3e 719c 93bc
00000220: 682a 1dbd bca4 bbbd 7e97 8dbd 5543 d0bd
00000230: 6a7e abbd 97a0 6e3e b483 54bd db12 acbd
00000240: d947 83bd c306 243e d37b b83d c9f4 f53d
00000250: 2dc0 433e 14e0 193e a2a9 a03c a360 debd
00000260: 1323 71be 9b2b 84bd a5d2 0c3e 1808 0b3e
00000270: f72c b93d 37b0 65be 7a1b 1a3e 4467 bcbd
00000280: 4c8d 2c3e 43da 833d 299a 12be 84c3 9f3d
00000290: 892f 193e f0bd bbbd 0ee5 683d c1f5 913e
000002a0: 99e4 b93c a57d e43c 486f f73d 6a1c a6bd
000002b0: c906 7c3d a0ad 4a3e ba6b 7f3e 8234 eebb
000002c0: 135d e93d d55e 43be a337 5ebd 3511 1f3e
000002d0: a662 873e 6072 c6bb afd6 cbbd 957e 56bd
000002e0: d813 ab3c 28e2 543d a65e 57be bd51 e03c
000002f0: bcad 7b3d e1cc a2bd ed27 6e3e 2b6b 5dbc
00000300: 7a70 39bd 6c4d 12be 2cc9 563e ccb8 b33c
00000310: c159 38be d942 55bc d078 32be 70f9 ff3d
00000320: c55e 0dbe 1621 15bc 556a 60be c5ec af3d
00000330: d739 2c3e f8d9 9bbc c21d 06be bbd5 0bbe
00000340: 3e40 073f d182 05bf 774e f6be c830 9f3e
00000350: fdec 13bf 9fff 043f 0034 863e 1d20 3b3e
00000360: a731 6ebe dadb 05bf 22c8 ad3d 4c51 e1be
00000370: c8d7 3b3e dd23 c5be 8e76 d83e 2bf6 1abf
00000380: 281a 123e b511 933e 2b3e 04be 8316 0f3e
00000390: df75 02be 2497 50bd 99c9 d7bd 5e7a 1b3c
000003a0: 20d3 353e be03 bbbd 1ae3 7e3c 4580 e0bd
000003b0: e6de 21be d552 20bd 8f09 55be ca07 1cbc
000003c0: e15f 953e ba71 703e 98c8 4a3d b6eb c3bc
000003d0: c383 03bc 5047 e3bd 80bc 233d fd1d 413d
000003e0: 4200 febe 830f cfbd 8e0c e5be 4502 d5bd
000003f0: bb6e eabe 1a63 51be 5321 4abd a9f5 2fbd

gcn_layers.0.edge_feat.V.bias f4 [16]
0.37683097 0.5903271 -1.6926267 -1.4765506 -0.05668029 0.91867524 1.4743208 0.1702245
2.8758223 1.7024767 -0.471979 -1.5420872 -0.42247963 -2.0823555 2.3930595 -2.2034502
00000000: fdef c03e ad1f 173f fea7 d8bf 9cff bcbf
00000010: 9729 68bd 4d2e 6b3f 8bb6 bc3f 554f 2e3e
00000020: 790d 3840 c2ea d93f 3ba7 f1be 1d63 c5bf
00000030: 404f d8be 5045 05c0 e327 1940 5405 0dc0

gcn_layers.0.edge_norm.batch_norm.weight f4 [16]
0.19237436 0.73714364 0.9033132 0.5550695 0.36025494 0.6328005 0.8876914 0.4880867
1.1122075 0.91708726 0.6929282 0.3285396 0.43487832 0.30785128 1.2679428 0.54710525
00000000: c9fd 443e 72b5 3c3f 893f 673f 0919 0e3f
00000010: 5673 b83e 37ff 213f be3f 633f 80e6 f93e
00000020: d15c 8e3f 3bc6 6a3f be63 313f 5836 a83e
00000030: 5fa8 de3e af9e 9d3e f34b a23f 170f 0c3f

gcn_layers.0.edge_norm.batch_norm.bias f4 [16]
-0.2793249 0.16604674 -0.94620866 -0.7707505 -0.79327685 -0.989122 -0.34414116 -0.44715786
0.0062716166 -0.28411028 -1.0324839 -0.47285217 -0.36351433 -0.5412219 0.32871887 -0.6669815
00000000: ac03 8fbe 2808 2a3e bb3a 72bf e84f 45bf
00000010: 3114 4bbf 1937 7dbf 4533 b0be e0f1 e4be
00000020: 2282 cd3b e776 91be 6f28 84bf ae19 f2be
00000030: 8d1e babe 858d 0abf d74d a83e 4dbf 2abf

gcn_layers.1.node_feat.U.weight f4 [16, 16]
-0.3550444 -0.29161695 -0.10510143 -0.041509308 0.11017336 -0.30475208 -0.1323326 -0.053655595
-0.08367055 -0.20609924 -0.21631518 0.11948185 -0.41583455 0.016298184 0.10916344 -0.022051712
0.2863192 0.19129401 -0.010226401 -0.0039954986 -0.09196674 0.42956057 0.27977362 -0.106515
-0.15740483 0.17648633 0.64890844 0.009415613 -0.21112032 -0.1629468 -0.05302131 0.0027796044
-0.034015924 -0.32609385 0.3562956 0.00058249437 -0.21163885 -0.13465479 -0.03278222 -0.12595835
0.21537325 0.09025732 0.117448986 -0.110456415 0.13839379 -0.050138175 0.20399185 -0.017510444
0.013129957 -0.044579186 0.0811896 -0.38389525 -0.33543524 0.11835771 0.018004397 -0.20500322
-0.13441618 -0.24778852 -0.042973455 -0.008886839 -0.032297578 -0.15730104 0.07905739 0.20257004
-0.009588097 0.13807417 -0.07488718 -0.03286158 -0.13468704 0.0491903 0.6660306 -0.116604514
-0.5755538 -0.107756466 0.33352262 0.07000786 -0.09629649 -0.06662409 -0.177206 0.016520774
-0.0057754377 0.19284213 -0.12322158 -0.06546708 -0.043370795 -0.09590497 -0.014692277 0.102576405
-1.002025 0.12578431 0.12510933 -0.21702647 -0.38394853 -0.04211801 -0.07928007 -0.07014063
0.5202402 -0.149185 0.01703431 -0.024924608 -0.26292124 0.046517044 0.6445148 -0.13902386
0.03913401 0.016831178 -0.10987431 0.052212067 0.24179317 -0.20425694 -0.22881761 0.072782695
0.55255055 -0.026893387 -0.05772728 -0.0028715387 -0.20220327 0.09118139 0.7492695 0.009116898
0.008761926 0.1022668 0.046240337 0.011601304 -0.080925256 -0.26062956 0.028294047 -0.0020315242
0.30907348 0.32600772 -0.0986412 0.16487627 0.11498161 0.20130605 0.21491516 -0.00923329
-0.12180769 0.015133883 0.3993024 0.050740335 -0.18624073 -0.17465983 0.039693613 -0.07249637
0.007992498 0.040784262 -0.4720169 0.13150227 0.06325752 -0.19853611 -0.019276638 0.18392892
0.40086186 -0.06289382 0.07937119 0.021049706 0.43210608 -0.13189475 -0.37195033 0.21332501
-0.010344181 0.07488806 -0.14833078 0.006453507 0.20216076 0.18239562 0.00496751 -0.21773715
-0.2627204 -0.3836325 0.0493573 0.21894127 -0.056253657 0.032135822 -0.052924987 0.01274379
0.010573192 -0.21920513 0.027544037 -0.3440942 0.43142563 0.028530352 0.020604577 -0.07825519
0.041490357 -0.11728419 -0.42776468 -0.12400956 -0.18102387 0.05892031 -0.032811694 -0.33642605
0.00736457 -0.12540449 -0.073437266 -0.26877314 0.09219894 -0.07994772 0.04441231 -0.089232646
-0.04454058 -0.03612309 -0.39753935 -0.14223729 -0.024021937 0.120553985 -0.16968691 -0.2502125
0.021778999 -0.09095864 -0.11555132 0.10242167 0.019718446 -0.022345282 -0.060765315 0.12616925
0.1781273 0.10666823 0.12759937 -0.104357384 -0.2929026 0.18398786 -0.62784547 -0.012812026
0.010450289 -0.12918182 -0.018180113 0.0036880437 -0.16043831 -0.031368762 -0.013549027 -0.023666477
-0.53778744 0.030880317 -0.47870055 0.0005571736 -0.23180377 -0.049181677 -0.3664926 0.022267098
0.00032743093 -0.3981772 -0.015798494 -0.006888681 -0.111317284 -0.2669597 0.010612885 -0.020845817
-0.16875559 0.14308734 -0.6710515 0.012804035 -0.38068962 0.03319609 0.05563424 -0.14393742
00000000: 61c8 b5be d14e 95be 6b3f d7bd aa05 2abd
00000010: 92a2 e13d 7708 9cbe 3282 07be f8c5 5bbd
00000020: 775b abbd ae0b 53be ba81 5dbe e6b2 f43d
00000030: 44e8 d4be c583 853c 1591 df3d cba5 b4bc
00000040: 6e98 923e 94e2 433e a28c 27bc acec 82bb
00000050: 0f59 bcbd 5def db3e 7d3e 8f3e 8924 dabd
00000060: bb2e 21be d5b8 343e dd1e 263f f143 1a3c
00000070: ed2f 58be 87db 26be e02c 59bd 062a 363b
00000080: 4854 0bbd c6f5 a6be 606c b63e 89b2 183a
00000090: dbb7 58be f2e2 09be a646 06bd 3afb 00be
000000a0: ce8a 5c3e d4d8 b83d 1889 f03d f936 e2bd
000000b0: 1ab7 0d3e b05d 4dbd 3de3 503e 1072 8fbc
000000c0: 081f 573c aa98 36bd bc46 a63d eb8d c4be
000000d0: 2bbe abbe 8765 f23d f57d 933c 5dec 51be
000000e0: 65a4 09be 46bc 7dbe ef04 30bd 1b9a 11bc
000000f0: 774a 04bd 8613 21be d7e8 a13d 856e 4f3e
00000100: 6517 1dbc 5163 0d3e 735e 99bd dd99 06bd
00000110: 66eb 09be c57b 493d fb80 2a3f 59ce eebd
00000120: 7e57 13bf 6caf dcbd 7ac3 aa3e 4860 8f3d
00000130: 1837 c5bd 3672 88bd 7d75 35be 9356 873c
00000140: e23f bdbb 6878 453e 995b fcbd 9b13 86bd
00000150: 93a5 31bd d369 c4bd e0b7 70bc 9413 d23d
00000160: 5b42 80bf 9acd 003e a91c 003e 303c 5ebe
00000170: e794 c4be ef83 2cbd 975d a2bd e4a5 8fbd
00000180: 762e 053f f4c3 18be 8a8b 8b3c b12e ccbc
00000190: 9d9d 86be a888 3e3d ecfe 243f 455c 0ebe
000001a0: fc4a 203d 8ae1 893c c805 e1bd 52dc 553d
000001b0: a198 773e bb28 51be 2a4f 6abe 180f 953d
000001c0: f473 0d3f 854f dcbc 7173 6cbd 6d30 3cbb
000001d0: 600e 4fbe 4fbd ba3d 20d0 3f3f 0b5f 153c
000001e0: 2e8e 0f3c 4271 d13d 8266 3d3d 6513 3e3c
000001f0: 24bc a5bd 3d71 85be ebc8 e73c 5223 05bb
00000200: e13e 9e3e 7cea a63e 6604 cabd 53d5 283e
00000210: 7a7b eb3d 2c23 4e3e b812 5c3e 3a47 17bc
00000220: 4f76 f9bd 1bf4 773c 5d71 cc3e 19d5 4f3d
00000230: e4b5 3ebe 07da 32be c595 223d fa78 94bd
00000240: f7f2 023c 660d 273d 33ac f1be 88a8 063e
00000250: 298d 813d 0d4d 4bbe 0aea 9dbc dd57 3c3e
00000260: c43d cd3e 7ace 80bd 5d8d a23d 6f70 ac3c
00000270: 023d dd3e 6b0f 07be 4670 bebe df71 5a3e
00000280: a47a 29bc e95e 993d 06e4 17be f177 d33b
00000290: 3b03 4f3e ebc5 3a3e 7ec6 a23b 7df6 5ebe
000002a0: 4a83 86be 7b6b c4be e12a 4a3d 2432 603e
000002b0: 3c6a 66bd daa0 033d dfc7 58bd 54cb 503c
000002c0: 2e3b 2d3c 4f77 60be 08a4 e13c 1d2d b0be
000002d0: d2e3 dc3e 7cb8 e93c eeca a83c 4244 a0bd
000002e0: cbf1 293d b232 f0bd f903 dbbe b9f8 fdbd
000002f0: 525e 39be 6c56 713d 8e65 06bd 0940 acbe
00000300: 7e52 f13b 096a 00be 4766 96bd a29c 89be
00000310: ccd2 bc3d a1bb a3bd afe9 353d 9bbf b6bd
00000320: 2f70 36bd cef5 13bd 478a cbbe a7a6 11be
00000330: a7c9 c4bc 02e5 f63d 68c2 2dbe da1b 80be
00000340: df69 b23c 8648 babd 2ca6 ecbd 74c2 d13d
00000350: 9488 a13c 740d b7bc 0de5 78bd 8332 013e
00000360: 0167 363e df74 da3d 69a9 023e 53b9 d5bd
00000370: 54f7 95be 5067 3c3e 7bba 20bf 88e9 51bc
00000380: b037 2b3c 3d48 04be 76ee 94bc 1bb3 713b
00000390: f149 24be 887c 00bd bdfc 5dbc 33e0 c1bc
000003a0: 70ac 09bf b8f8 fc3c 3d18 f5be 4a0f 123a
000003b0: f85d 6dbe ba72 49bd eba4 bbbe 7d69 b63c
000003c0: 09ab ab39 e2dd cbbe d86b 81bc 72ba e1bb
000003d0: 51fa e3bd f1ae 88be aae1 2d3c d9c4 aabc
000003e0: 44ce 2cbe 7d85 123e 08ca 2bbf 04c8 513c
000003f0: c0e9 c2be a0f8 073d bbe0 633d 5564 13be

gcn_layers.1.node_feat.U.bias f4 [16]
0.08712644 -0.18310523 -0.13887806 0.006555392 0.045331746 -0.11319098 0.02471149 -0.16412303
-0.1663397 -0.041759625 -0.12194857 0.043822978 -0.12315406 -0.24261573 0.04695862 0.22574177
00000000: 596f b23d f07f 3bbe 0d36 0ebe 9dce d63b
00000010: c8ad 393d acd0 e7bd c06f ca3c de0f 28be
00000020: f454 2abe 240c 2bbd 2cc0 f9bd b97f 333d
00000030: 3238 fcbd 4270 78be af57 403d da28 673e

gcn_layers.1.node_feat.V.weight f4 [16, 16]
-0.048129577 0.12037463 -0.12661965 0.011606547 0.1514527 -0.30122098 -0.08910034 0.24143033
0.15560903 -0.1256848 0.019663546 -0.16561492 0.16333568 -0.052453667 -0.19695877 0.01926399
-0.019447286 -0.22071962 0.005553151 -0.027031865 0.028907796 -0.17425135 -0.027735298 0.20648131
-0.03319053 0.16744956 -0.15931445 -0.0072203455 0.12746036 0.17319354 0.013662212 0.012368622
0.03830354 0.26105297 -1.143618 -0.2254984 -0.14448841 -0.08370495 -0.053839467 0.14868209
-0.04779965 0.10133878 -0.293788 0.035774797 -0.32416138 0.13008675 -0.35366014 0.07577532
-0.0079976935 0.137598 -0.05135624 -0.040411774 0.20686471 0.093368195 0.0093982015 0.16103607
-0.20537011 0.06125242 -0.3905007 0.015830413 0.0030655148 0.118164115 -0.010709863 -0.0049254745
0.0052265264 -0.07874626 -0.006401105 -0.058037087 -0.26647353 -0.26522836 -0.11941699 0.32181397
0.7376981 0.28623655 0.1370169 -0.03609424 -0.10489997 -0.14837718 0.33352524 -0.037025943
-0.006688696 0.00092601887 -0.036426377 -0.11598777 -0.02985745 -0.021530433 -0.006397749 -0.035741564
0.26104972 -0.034553893 0.50368506 0.0024559624 0.16217819 0.0036103348 -0.32573304 -0.25944188
0.0012151769 -0.14532161 0.0377065 -0.020660149 -0.02164409 -0.07008502 -0.01817328 0.13230352
0.20415743 0.0993643 -0.05767607 0.07551904 0.111207895 0.16511156 0.11353348 0.0042221537
0.03980108 0.049385414 0.10459371 0.014010473 -0.049330518 0.0981012 -0.06989558 -0.24339415
0.066732526 -0.052689224 -0.086866625 0.024608674 0.3401891 0.049891397 -0.26296252 -0.018714666
-0.08203205 0.32764927 0.103584185 -0.17688674 -0.19721851 0.45713478 0.05840622 -0.018997014
0.07834579 0.12646244 0.41833872 -0.059360024 -0.2808044 -0.05070391 -0.021750202 0.078269474
0.029270014 -0.068818666 0.05038093 0.0034184048 -0.14602141 -0.1427408 -0.037749194 0.06693933
0.011567974 0.13788603 0.26902696 -0.24046984 -0.011846151 -0.101493746 -0.10229144 0.033806615
-0.00045136717 0.07614438 0.0679469 -0.03347618 0.32918474 0.04532016 0.015712844 0.12286041
0.6337699 0.15251324 0.026510393 -0.32612896 -0.49265435 0.027908474 0.26424494 -0.010950192
0.007886999 0.05819441 -0.030582054 -0.017183943 0.044397205 -0.17969778 0.048533533 0.13318245
-0.45568177 -0.072515786 -0.43180898 -0.09584588 -0.29997054 0.048030633 -0.27866104 0.0146113755
0.007084865 -0.41412836 -0.04351867 0.07852109 -0.015405659 -0.15299869 0.12929322 0.37389556
-0.53924257 0.090236455 -0.1769298 0.08880649 -0.39120767 -0.30124858 0.098310344 0.20131263
0.02086739 0.14128265 0.021704087 0.050225895 -0.3780124 0.01203572 0.18567689 -0.044130687
-0.22475812 -0.28519255 0.25121012 0.006889157 -0.53825194 -0.5959328 -0.19718328 -0.032729056
-0.05016686 0.25988305 -0.08591801 -0.050190587 -0.028479517 0.12880874 0.001647903 0.012547311
-0.45754734 0.0990956 0.25256345 -0.22085154 0.36836728 -0.05684393 -0.6069673 0.0075185127
-0.010528941 0.32846558 0.008748557 -0.06522889 -0.03369313 -0.16713263 -0.005235002 0.16231047
0.29175848 -0.19636595 0.3750187 -0.026686579 0.4847368 0.023966812 -0.047202192 -0.07114949
00000000: 8523 45bd f986 f63d 95a8 01be 6329 3e3c
00000010: 6b16 1b3e a339 9abe 3d7a b6bd 8339 773e
00000020: f957 1f3e 84b3 00be 7215 a13c f596 29be
00000030: 7841 273e a8d9 56bd 8faf 49be 84cf 9d3c
00000040: ea4f 9fbc 5304 62be 35f7 b53b ee71 ddbc
00000050: 0bd0 ec3c f26e 32be 2335 e3bc d66f 533e
00000060: cbf2 07bd e677 2b3e 5423 23be a698 ecbb
00000070: f884 023e a659 313e 78d7 5f3c c3a5 4a3c
00000080: 2ce4 1c3d bca8 853e 1362 92bf 0de9 66be
00000090: c5f4 13be 806d abbd c686 5cbd 1e40 183e
000000a0: 91c9 43bd b58a cf3d 616b 96be 9888 123d
000000b0: 7bf8 a5be 7635 053e f112 b5be 1730 9b3d
000000c0: c208 03bc 7de6 0c3e ec5a 52bd d186 25bd
000000d0: 58d4 533e d337 bf3d eafa 193c a4e6 243e
000000e0: 8b4c 52be d1e3 7a3d b5ef c7be c8ae 813c
000000f0: cee6 483b 0700 f23d 6c78 2fbc e065 a1bb
00000100: 4843 ab3b b845 a1bd 5cc0 d1bb 4cb8 6dbd
00000110: 386f 88be 03cc 87be e590 f4bd cdc4 a43e
00000120: c8d9 3c3f 998d 923e 294e 0c3e 8ed7 13bd
00000130: ccd5 d6bd 30f0 17be d2c3 aa3e 84a8 17bd
00000140: d92c dbbb 13c0 723a d333 15bd ff8a edbd
00000150: 9c97 f4bc 9760 b0bc 35a4 d1bb bf65 12bd
00000160: 4fa8 853e 6288 0dbd 81f1 003f 36f4 203b
00000170: 0a12 263e 5e9b 6c3b 7bc6 a6be 91d5 84be
00000180: 9246 9f3a 30cf 14be 2272 1a3d 793f a9bc
00000190: f24e b1bc bc88 8fbd 21e0 94bc 937a 073e
000001a0: a50e 513e 837f cb3d be3d 6cbd baa9 9a3d
000001b0: f7c0 e33d 0113 293e 3e84 e83d fe59 8a3b
000001c0: 7506 233d 5c48 4a3d 3a35 d63d 2f8c 653c
000001d0: cc0e 4abd 48e9 c83d 6a25 8fbd 513c 79be
000001e0: 10ab 883d a8d0 57bd 21e7 b1bd 2198 c93c
000001f0: 442d ae3e ec5a 4c3d 06a3 86be 804f 99bc
00000200: 6b00 a8bd a5c1 a73e f223 d43d cc21 35be
00000210: a6f3 49be 920d ea3e 5c3b 6f3d a09f 9bbc
00000220: c273 a03d 5f7f 013e 7e30 d63e 7f23 73bd
00000230: 98c5 8fbe e7ae 4fbd 7b2d b2bc bf4b a03d
00000240: abc7 ef3c cdf0 8cbd 3c5c 4e3d 5107 603b
00000250: a386 15be a52a 12be e69e 1abd 7d17 893d
00000260: 9a87 3d3c ff31 0d3e e7bd 893e ba3d 76be
00000270: 5c16 42bc f4db cfbd 2d7e d1bd ce78 0a3d
00000280: 7aa5 ecb9 96f1 9b3d bf27 8b3d 521e 09bd
00000290: e78a a83e a2a1 393d 39b8 803c 3d9e fb3d
000002a0: bf3e 223f 6e2c 1c3e 532c d93c 60fa a6be
000002b0: 313d fcbe 50a0 e43c 1d4b 873e 6f68 33bc
000002c0: 7938 013c 435d 6e3d 3787 fabc 57c5 8cbc
000002d0: d8d9 353d b202 38be 19cb 463d fb60 083e
000002e0: 1f4f e9be 2883 94bd 1116 ddbe d84a c4bd
000002f0: bd95 99be c5bb 443d a9ac 8ebe 8d64 6f3c
00000300: 2828 e83b a208 d4be a240 32bd aacf a03d
00000310: 0468 7cbc b0ab 1cbe 7165 043e 3d6f bf3e
00000320: cd0b 0abf e4cd b83d 162d 35be 2de0 b53d
00000330: 5f4c c8be 413d 9abe ef56 c93d e624 4e3e
00000340: 17f2 aa3c 66ac 103e c5cc b13c abb9 4d3d
00000350: d78a c1be 7831 453c 1522 3e3e 61c2 34bd
00000360: fe26 66be c204 92be 9d9e 803e 70be e13b
00000370: e1ca 09bf 0d8f 18bf 6aea 49be e70e 06bd
00000380: c47b 4dbd 640f 853e c8f5 afbd a594 4dbd
00000390: e04d e9bc 70e6 033e 73fe d73a 3d93 4d3c
000003a0: a543 eabe a2f2 ca3d ff4f 813e e826 62be
000003b0: a39a bc3e 2ed5 68bd 3562 1bbf db5d f63b
000003c0: 9481 2cbc a42c a83e 1c56 0f3c b996 85bd
000003d0: cf01 0abd d124 2bbe 618a abbb b734 263e
000003e0: 5e61 953e 2814 49be 7302 c03e d09d dabc
000003f0: 6c2f f83e 0c56 c43c 1657 41bd d3b6 91bd

gcn_layers.1.node_feat.V.bias f4 [16]
0.07752428 -0.0046667056 0.09025649 -0.0104300985 -0.24876504 0.069048874 0.073380865 -0.24783361
0.035378646 -0.00040646677 0.0654163 -0.06389986 0.09925127 0.0044251443 0.034499843 -0.08747059
00000000: 0dc5 9e3d 2aeb 98bb 65d8 b83d 01e3 2abc
00000010: 43bc 7ebe 7f69 8d3d b548 963d 18c8 7dbe
00000020: 33e9 103d 0c1b d5b9 fbf8 853d eedd 82bd
00000030: 4044 cb3d cd00 913b b54f 0d3d c823 b3bd

gcn_layers.1.node_norm.batch_norm.weight f4 [16]
0.7707034 1.4528652 0.37785554 0.65561044 1.0502965 1.0994837 1.0346036 1.1308855
1.2549518 0.46995986 0.81604683 0.8338568 0.48006198 0.31592244 0.7484876 0.88607806
00000000: d14c 453f 7df7 b93f 4876 c13e 16d6 273f
00000010: 1e70 863f e2bb 8c3f e46d 843f dbc0 903f
00000020: 43a2 a03f 949e f03e 72e8 503f a477 553f
00000030: afca f53e 96c0 a13e e29c 3f3f 03d6 623f

gcn_layers.1.node_norm.batch_norm.bias f4 [16]
0.1518738 -1.5020342 -0.21803285 -0.31703 -1.0620679 0.004124899 -1.1867654 -1.2925775
-1.2509688 -0.5692352 -0.1337108 -0.4135199 -0.10855831 -0.08002319 -0.6630854 -0.110952884
00000000: ce84 1b3e a842 c0bf 0144 5fbe c251 a2be
00000010: d7f1 87bf 292a 873b eee7 97bf 2e73 a5bf
00000020: bf1f a0bf 66b9 11bf 7ceb 08be e1b8 d3be
00000030: d253 debd 33e3 a3bd f7bf 29bf 443b e3bd

gcn_layers.1.edge_feat.U.weight f4 [16, 16]
0.8018361 -0.027079035 0.069305494 0.19261649 0.2099892 0.039871257 0.013474444 -0.023215506
0.26984495 0.104083605 -0.08847801 -0.1921729 0.10023872 -0.09579763 0.16413169 -0.12341161
-0.26718953 -0.60046536 -0.5047419 -0.08778455 -0.3792996 -0.1559168 -0.06395217 0.15220565
-0.16141234 -0.05925292 -0.004441777 -0.51847905 -0.48714244 -0.026591623 -0.10184029 0.07413226
0.36989188 0.061273 -0.5317923 0.273679 0.7076278 0.29838315 0.001631645 0.03606138
0.026343195 0.08346505 -0.044725645 0.1991408 0.121386744 0.015052809 0.17180522 -0.06803396
-0.23974949 0.0061392062 -0.43007162 -0.06324086 -0.072923124 -0.50050586 0.06490801 -0.1490009
0.049577575 -0.22080918 -0.17332889 -0.3672895 -0.28582373 -0.5944053 -0.07862047 -0.21649182
0.592137 -0.2341874 -0.1259515 0.1859513 0.15743136 0.005568199 0.02384042 -0.3809816
0.032778986 -0.14437428 -0.07338363 -0.113964096 0.14841525 0.08289257 0.1524809 -0.07362421
0.644389 -0.51286054 0.390378 0.82353777 0.6873197 0.89325744 -0.029853074 -0.83856744
-0.72990334 0.25294623 0.335192 0.31723458 0.3976443 0.31476206 0.12768447 0.7026609
-0.33678117 0.03892678 -0.16189419 -0.43179157 -0.3226075 0.033943925 0.14322262 0.30460027
0.063577086 -0.3077715 -0.043781184 0.122920595 0.09765619 -0.2619355 -0.2494255 -0.04329125
0.40529925 0.030568548 -0.07514399 -0.13603736 -0.07637433 -0.13669074 -0.099724986 0.037601396
0.51795423 0.2235925 0.16917847 -0.09354231 -0.13566734 -0.35541287 -0.21812283 -0.43205437
0.025823476 0.31533948 0.03355805 0.1024649 0.13370612 0.007148861 -0.07142828 -0.09208483
0.3161813 0.6175825 0.33102632 0.21861309 0.02735136 0.07470185 -0.20097026 -0.16386612
-0.067141175 0.15877457 0.2777796 -0.05713477 -0.26878157 -0.2338296 0.036209915 0.12437182
0.09828924 -0.0914847 0.22620657 0.107385114 0.09184304 -0.15485899 -0.022972181 0.21953933
0.7257476 -0.5499487 -0.035937633 0.4501537 0.67483133 0.8454598 -0.22049388 -0.7635681
-0.2515658 -0.1764783 -0.3565817 -0.14689519 -0.11938277 0.15848161 0.58706653 -0.007975848
0.37228218 0.06777327 -0.003914699 -0.06775102 0.32389724 -0.38439915 0.0014360562 -0.19974741
0.005451674 0.020491427 -0.07583333 -0.25494754 -0.0024536208 -0.04288473 0.06538945 -0.028286207
0.11225149 0.0656035 0.019138334 0.013190242 0.22517264 0.08116832 0.1411526 -0.13493933
0.008911927 0.0006605268 -0.037819847 -0.15907864 -0.075459704 -0.026269387 0.024442418 0.036901113
-0.6821461 0.033062365 -0.9441425 -0.7214984 -0.3237236 -0.39663863 0.35495588 -0.009033973
-0.32795158 0.07463856 -1.5141943 -0.04277417 -0.5976193 -0.5566867 -0.11064438 -0.6548719
-0.29391363 -0.20345537 -0.5431867 -0.12571019 -0.50708735 -0.36274782 -0.08262411 0.11266002
0.15970491 -0.1957866 0.111485444 -0.7849225 -0.89562243 -0.13047153 -0.5593206 -0.00044696766
0.66069347 -0.62469774 -0.024017742 0.44031578 0.7572535 0.7833518 0.11799979 -1.0155699
-0.34031352 -0.21129517 -0.1431784 -0.05762681 0.24791132 0.42197886 0.13572203 -0.4328293
00000000: 2145 4d3f dad4 ddbc 0af0 8d3d 423d 453e
00000010: 6907 573e 0b50 233d eac3 5c3c 722e bebc
00000020: 1e29 8a3e c929 d53d f533 b5bd f9c8 44be
00000030: f549 cd3d 8c31 c4bd 2312 283e 3abf fcbd
00000040: 11cd 88be 19b8 19bf c436 01bf 63c8 b3bd
00000050: 8f33 c2be a7a8 1fbe 5bf9 82bd ccdb 1b3e
00000060: 4749 25be 31b3 72bd 538c 91bb 0bbb 04bf
00000070: bc6a f9be add6 d9bc a491 d0bd a8d2 973d
00000080: 7862 bd3e 66f9 7a3d 8a23 08bf a71f 8c3e
00000090: 1827 353f adc5 983e ecdc d53a 19b5 133d
000000a0: afcd d73c b9ef aa3d 3d32 37bd 91eb 4b3e
000000b0: 9d99 f83d 0fa0 763c b5ed 2f3e 6455 8bbd
000000c0: e480 75be 652b c93b 5932 dcbe 6d84 81bd
000000d0: b858 95bd 2721 00bf 7eee 843d b193 18be
000000e0: db11 4b3d cd1b 62be 217d 31be 5f0d bcbe
000000f0: 7d57 92be f22a 18bf c503 a1bd 08b0 5dbe
00000100: 4a96 173f d2ce 6fbe 6ef9 00be 056a 3e3e
00000110: b035 213e 7075 b63b fc4c c33c 0510 c3be
00000120: 4243 063d dad6 13be 284a 96bd 0266 e9bd
00000130: 2bfa 173e 94c3 a93d f423 1c3e 4ac8 96bd
00000140: adf6 243f d44a 03bf a0df c73e 5fd3 523f
00000150: 2ff4 2f3f 85ac 643f 6f8e f4bc 5bac 56bf
00000160: f2da 3abf 2b82 813e 499e ab3e 926c a23e
00000170: 0998 cb3e 7e28 a13e b8bf 023e 96e1 333f
00000180: 956e acbe b071 1f3d 97c7 25be c913 ddbe
00000190: cf2c a5be c908 0b3d f3a8 123e 91f4 9b3e
000001a0: b434 823d 3a94 9dbe e653 33bd cbbd fb3d
000001b0: f8ff c73d 691c 86be 6669 7fbe 2a52 31bd
000001c0: 6283 cf3e e46a fa3c 18e5 99bd 614d 0bbe
000001d0: 256a 9cbd a8f8 0bbe 9d3c ccbd ec03 1a3d
000001e0: a698 043f 6ff5 643e 1f3d 2d3e 1c93 bfbd
000001f0: 61ec 0abe adf8 b5be 975b 5fbe 3b36 ddbe
00000200: c18b d33c 2d74 a13e 2a74 093d 1ed9 d13d
00000210: 42ea 083e fe40 ea3b fd48 92bd f996 bcbd
00000220: 84e2 a13e e319 1e3f 487c a93e 1cdc 5f3e
00000230: f60f e03c 49fd 983d 26cb 4dbe 85cc 27be
00000240: 5081 89bd cd95 223e 2139 8e3e 2606 6abd
00000250: bd9d 89be 0771 6fbe d950 143d a7b6 fe3d
00000260: de4b c93d 555c bbbd b2a2 673e baec db3d
00000270: 3418 bc3d 5b93 1ebe 2830 bcbc ebce 603e
00000280: 98ca 393f 70c9 0cbf 5733 13bd 8c7a e63e
00000290: bfc1 2c3f 0e70 583f 26c9 61be 3379 43bf
000002a0: 3ccd 80be bab6 34be e091 b6be b16b 16be
000002b0: f47e f4bd 0149 223e fe49 163f 22ad 02bc
000002c0: c59b be3e b6cc 8a3d e046 80bb 0cc1 8abd
000002d0: dcd5 a53e f7cf c4be 0d3a bc3a 968a 4cbe
000002e0: f5a3 b23b a3dd a73c 814e 9bbd 7c88 82be
000002f0: edcc 20bb e6a7 2fbd e7ea 853d 7ab8 e7bc
00000300: 1ce4 e53d 215b 863d ffc7 9c3c e31b 583c
00000310: a893 663e 933b a63d 4f8a 103e 892d 0abe
00000320: 5503 123c 3427 2d3a fce8 1abd 83e5 22be
00000330: 9e8a 9abd e632 d7bc 773b c83c 9f25 173d
00000340: 20a1 2ebf 676c 073d 53b3 71bf 1fb4 38bf
00000350: 1abf a5be 3814 cbbe c7bc b53e 3b03 14bc
00000360: 45e9 a7be 1adc 983d 1ed1 c1bf f833 2fbd
00000370: 94fd 18bf 0583 0ebf 8599 e2bd afa5 27bf
00000380: d97b 96be 9b56 50be 490e 0bbf 2cba 00be
00000390: 7ad0 01bf 15ba b9be d436 a9bd 4cba e63d
000003a0: af89 233e 487c 48be 7b52 e43d aef0 48bf
000003b0: 8347 65bf 549a 05be a32f 0fbf fc56 eab9
000003c0: 3523 293f 31ec 1fbf dbc0 c4bc 1271 e13e
000003d0: 5edb 413f be89 483f e0a9 f13d 32fe 81bf
000003e0: 933d aebe c35d 58be 5c9d 12be 170a 6cbd
000003f0: 77dc 7d3e 9d0d d83e b7fa 0a3e cd9b ddbe
