models/model.pt (torch, 200889 bytes, 129 tensors)

node_coord_embedding.weight f4 [30, 2]
00000000: b95b 0fbf 62e6 8b3e 9a7d a5be 6907 bd3e
00000010: 8790 8dbe 9629 573d 4b5e 883e 8bf0 0c3e
00000020: 97c4 2dbf 9cc8 dcbc 06b6 0dbf 4791 27bf
00000030: 1787 22bf 4ee8 b43e e795 4f3e 81e9 20bf
00000040: e3df 25bf 9bb9 d23d e9d0 a4bd d339 493e
00000050: 2f95 8b3e 3b39 e3bc c22d 173f e453 3f3e
00000060: 4e8d 24be 3426 37be 01d3 78be b4ca 223f
00000070: ebee 873e f147 d63e 15d1 fd3e 7b4f ccbe
00000080: 38cb dd3e 359d 6cbe 8ea8 ea3d d52d 05bf
00000090: b882 f93e 5634 1d3f 70da dabe 78e1 863e
000000a0: c35f bd3e 40b0 24bd d643 a0be f627 203e
000000b0: d01b 9bbd 44e5 a3be 1d36 143f 176f b0be
000000c0: 12fa e0be ade2 efbd f315 843e a395 343e
000000d0: 6830 623e 9e34 f0be 58c6 afbe 2ecd 813e
000000e0: 785d 2fbf 762c dbbe 7569 2cbf e873 04be
-0.5599933 0.27324206 -0.3232239 0.36919716 -0.27649328 0.052529894 0.2663444 0.13763635
-0.678781 -0.026951127 -0.5535587 -0.6545605 -0.6348738 0.35333484 0.20272027 -0.628563
-0.6479475 0.10289308 -0.08047659 0.19650964 0.27262256 -0.02773725 0.59054196 0.18684345
-0.16069528 -0.17885667 -0.24299242 0.6359055 0.26549467 0.41851762 0.4957358 -0.3990439
0.43319106 -0.23106845 0.114579305 -0.5202306 0.48732543 0.61407983 -0.4274478 0.26343894
0.36987123 -0.040207148 -0.31301755 0.15640244 -0.07573664 -0.32010853 0.5789507 -0.34459755
-0.43940789 -0.11713157 0.25797996 0.17635207 0.22088778 -0.46915144 -0.34331012 0.25351852
-0.68501997 -0.42807359 -0.67348415 -0.1293484

distance_embedding.weight f4 [15, 1]
00000000: 75ba 56bf 42c9 d33e c142 4f3f 007e 54bf
00000010: e53e 37bf 4384 3bbe 73cc 043f 048a 423e
00000020: 868e 87bd d17d 67bf ea68 3ebe 9a07 763e
00000030: 50ae 113f 936e 733f d6d1 80bf
-0.8387826 0.41364485 0.80961233 -0.8300476 -0.71580344 -0.18312173 0.51874465 0.18997961
-0.06618981 -0.90426356 -0.18594709 0.24026337 0.56906605 0.950906 -1.0064037

edge_type_embedding.weight f4 [3, 15]
00000000: 5392 9a3e ac0d 023f 1521 9f3f ccc0 e4bf
00000010: c1b7 d93f 9f7e 143f 91d0 f2bf 51d9 533f
00000020: a1c8 843f 8e9d 9e3e 7f52 383f af54 c2bf
00000030: 7a17 2dbf 80d7 e93f 1666 4dbd 5a54 67bf
00000040: 1360 1dbf 40ca b43f 357c 1e3d 76ee 873d
00000050: 8baf 373e 9d03 93bf ba79 953e 3b1d 4abf
00000060: e5a1 8e3f 4389 4f3f 998d b73b 6410 053f
00000070: e564 3fbf 229e 593f 3f4f 5c3f 776c 033f
00000080: 1257 6c3e b936 003c 88f1 f9be 3e6b 96be
00000090: 66f4 15be d676 9a3f 49e4 3c3f b8bf 02c0
000000a0: ce71 3dbf eb9c 20bf 0fa5 06bf fe1c c03c
000000b0: 005f 6fbf
0.30189762 0.5080211 1.2431971 -1.7871337 1.7009202 0.5800571 -1.89699 0.82753474
1.0373727 0.3097958 0.7200088 -1.5182093 -0.6761395 1.826889 -0.050146185 -0.90363085
-0.6147472 1.4124222 0.03869267 0.0663728 0.17938058 -1.1485478 0.29194432 -0.7895085
1.1143156 0.8106882 0.0056015966 0.51978135 -0.7476333 0.85006917 0.8605842 0.5133738
0.2308009 0.007825547 -0.48817086 -0.29378694 -0.14644012 1.2067516 0.73785836 -2.0429516
-0.7400178 -0.6273944 -0.5259561 0.023451325 -0.93504333

gcn_layers.0.node_feat.U.weight f4 [30, 30]
00000000: 75af a3bd 4ff7 3abd 065e 303e 0726 bb3c
00000010: d3da 423d 3a7c 7fbe 4a27 f93d 5f0f 0a3e
00000020: 4fcc f8bc 1ec9 a93d 6195 1ebe 7750 e63d
00000030: f984 fabc f7c1 3b3e ff2e 5a3e 8fcf 1d3c
00000040: 6e38 01bd 54bd e7bd 8f3e c43d f6a5 eabd
00000050: c7e6 05bd 0f7e 1c3e 7261 34be dd54 953d
00000060: 8ec1 d9bc 0e89 0f3e 5766 f43d 2c0f ecbc
00000070: 6251 22be 2c18 95bc 1eda 863c 1364 fa3d
00000080: e0d6 383d 76dd 5c3d 34ce cebb 5cb6 37bc
00000090: 6015 173e a2c7 403c 9720 29be 83a7 d5bd
000000a0: 68b4 16be 12a3 9d3d 441a b73d 91b9 04be
000000b0: ef83 2a3e 3a44 42bd 88ae c6bc 32ad ad3d
000000c0: d166 973d 6ce3 123e 9194 1fbe e468 e63d
000000d0: 0ce0 57be e56a 12be a8dc a7bc 1712 a63c
000000e0: f1c0 71bd 33c1 38be 9cb4 31be cf0f 2f3d
000000f0: a150 363d e0d4 7bbd 6230 21be 1351 14be
00000100: 35f0 51bd 2d42 0a3d 42c3 893d 3ae9 4dbe
00000110: eacd 05be 0a88 25bd eea2 36be 8f1b 053d
00000120: 291e e6bd df78 a33d b02f b73d 1c9f 0e3c
00000130: 879f dc3d 2990 22be d45c 343e e9a0 01be
00000140: 566e 293c e69a 0b3e cfab 07be c7eb bf3c
00000150: fb41 3ebd 35f3 323e aa78 46be 69b2 b33d
00000160: 4aac 0d3e 55d1 303d 4dcf d03c 127c 03bd
00000170: 5945 a63c e61d 833d 4e22 5b3d 4890 62bd
00000180: c311 143c d1cf 2cbe 7b2d 0bbe 9fba babb
00000190: 6ec8 46be 632c 40be b098 d8bd 4ccd 69bd
000001a0: fd2b 793d b6c0 4dbc 0a63 3cbe a1ad 0ebd
000001b0: c9af 053e be1a 80bd e437 dabc 6965 543e
000001c0: d764 ba3c bf46 043d b3b2 2f3e 0080 273e
000001d0: fe7c fdbd a102 0ebe 649a 2a3e 6cc7 b33d
000001e0: b861 e33d 97de 2b3d 3c3f 413e 595e 7dbe
000001f0: 1104 08bd eb9c 81bb 2d4e c93d dbf6 283d
00000200: a39a 7dbd 7e0b bcbd 8fee 9abd 3ce8 0b3d
00000210: 6cda 133e d256 91bd 4f62 45be d916 ee3c
00000220: 22f1 a83c 5a1b 083e 2f62 e13d 73f9 e43d
00000230: fb66 b83d 9c0e 8e3d a356 0e3e 2f56 6c3c
00000240: 496e 00be 0c88 6d3d db7c 07be b4fc e8bd
00000250: 78f5 433e 7e46 4b3e 1879 643d 6a7c 103e
00000260: ffd9 0f3e 55dd 0a3e ff0a bcbd cf62 72bd
00000270: 344f dbbd c7da b1bd ec82 a2bc 4e7c 0dbe
00000280: 64fd 23bd ce65 1b3e 4173 a43d 68e4 50bd
00000290: 66f8 36bd 1941 2cbd b5e7 0c3d cd46 0f3d
000002a0: e969 acba a37c 993c 7331 d43d 8d1a 26bd
000002b0: 9ef4 45bd 6c47 02bd 32e7 5ebe 55ee a63d
000002c0: 71f8 2bbd 20b6 e7bd 0e01 a1bc 3bf9 4abe
000002d0: 8b5e 8abd fa6d efbd f414 dfbd bbe7 153e
000002e0: c15f 3b3e c223 183e e0cb 8e3d 8ae9 113e
000002f0: 63e4 15bd 83c7 77bc 74a0 92bd e8c5 97bd
00000300: e867 d0bd 58c8 dbbc 20c8 32be 5932 63bd
00000310: 8116 a4bc 1206 60bd 7192 24be 60f9 ddbd
00000320: 3443 1c3e b6df f23d 5f52 0b3e 5299 b83d
00000330: ec15 03be 33bd cc3c 64e2 90bd 7ea7 163e
00000340: 7610 96bb 2445 9bbd 16e8 0a3e a3be bd3d
00000350: 35c4 303c c794 23bd c06d 0bbe 97b1 88bd
00000360: e001 0a3e 34a5 febd 26fc 3cbd 5a63 bcbc
00000370: 4c87 18be 2c42 dd3a ba0e 30be 7ef6 1e3e
00000380: a918 c23d 0d83 eebc 249b e6bd afda 40be
00000390: ab0e 2abe 1218 023e 1fe2 e13c 78f6 043d
000003a0: 6ab3 34be 4048 28be e13e e3bc f12c ac3d
000003b0: dad6 d03d 1fbb 06be c85b 8a3d 9a36 57bd
000003c0: d5b2 bebd f293 b2bb d665 52bd 33d7 72bd
000003d0: 23b6 143e fbd5 503c 94c2 983d 0221 a4bc
000003e0: c6ef e23c 8eba 83b9 6192 dd3d df87 363e
000003f0: df58 ec3d 6e4f e4bd 5e67 eebb 522e ab3d
-0.0799245 -0.045646008 0.17223367 0.022845281 0.04757197 -0.24949732 0.12165697 0.13482426
-0.03037086 0.08290313 -0.15486671 0.11245816 -0.030580984 0.1833571 0.2130699 0.009632005
-0.031547956 -0.11315408 0.095822446 -0.11457436 -0.03269079 0.15282463 -0.17615297 0.07291577
-0.026581552 0.14017126 0.11933582 -0.028815828 -0.15851358 -0.018200003 0.016461428 0.12226119
0.045126796 0.05392214 -0.0063112024 -0.011212911 0.14754248 0.011766346 -0.16516338 -0.10432341
-0.14717257 0.07697119 0.08940557 -0.12961413 0.16651891 -0.047428347 -0.024253145 0.084803
0.073926575 0.14344567 -0.15584017 0.11250475 -0.21081561 -0.1429859 -0.02049096 0.020272298
-0.059021894 -0.1804245 -0.17354053 0.042739686 0.044510487 -0.06148231 -0.15741113 -0.14484052
-0.05125447 0.033754516 0.067266956 -0.201085 -0.13066831 -0.04041294 -0.1783559 0.032496985
-0.11236221 0.07982039 0.089446425 0.008704927 0.10772615 -0.15875305 0.17613536 -0.12659039
0.010341248 0.13633308 -0.13249134 0.023427857 -0.046449643 0.17475589 -0.19381967 0.087742634
0.13835254 0.043168385 0.025489474 -0.032100745 0.02029674 0.06402187 0.053499512 -0.05531338
0.009037438 -0.1687615 -0.13591568 -0.0056985165 -0.19412395 -0.18766932 -0.10575998 -0.057080552
0.060832966 -0.012558153 -0.18397155 -0.034833554 0.13055338 -0.06255101 -0.026637979 0.2074181
0.022753162 0.03229403 0.17158012 0.16357422 -0.12377356 -0.1386819 0.16660458 0.08778271
0.11102623 0.041960325 0.18871778 -0.24743022 -0.033207003 -0.0039554737 0.09829364 0.041251045
-0.06191505 -0.091818795 -0.07565033 0.034157023 0.1443879 -0.07096638 -0.19275783 0.029063629
0.020622794 0.13291684 0.11005055 0.11180391 0.09004017 0.0693638 0.13900237 0.014424845
-0.1254207 0.057991073 -0.13231222 -0.11376324 0.19136608 0.1985111 0.055779546 0.1410996
0.14048003 0.13560994 -0.09181785 -0.059176262 -0.10708466 -0.086843066 -0.019837819 -0.1381695
-0.040036574 0.15175554 0.080297954 -0.050999075 -0.044670485 -0.04205427 0.03440066 0.03497963
-0.0013154122 0.01873619 0.10360994 -0.040552665 -0.04832899 -0.031806394 -0.21767882 0.08150927
-0.04198498 -0.113140345 -0.019653823 -0.19821636 -0.06756314 -0.11690898 -0.10892668 0.1463918
0.18298246 0.1485739 0.0697248 0.14249244 -0.03659476 -0.015123251 -0.0715951 -0.074107945
-0.101760685 -0.02682893 -0.17459154 -0.055467937 -0.020030262 -0.05469329 -0.16071488 -0.1083858
0.15260011 0.11859076 0.13605641 0.090136185 -0.12801331 0.024992561 -0.070744306 0.1471233
-0.004579599 -0.07581547 0.13565096 0.09264877 0.010788967 -0.039936807 -0.13616085 -0.066744976
0.13477278 -0.12433854 -0.046138905 -0.022996593 -0.14895362 0.0016880683 -0.17193118 0.15523717
0.0947736 -0.029115224 -0.112600595 -0.18833421 -0.16607158 0.12704495 0.027573643 0.032461613
-0.17646566 -0.16433811 -0.027739944 0.084070094 0.1019723 -0.13157319 0.06755787 -0.052542306
-0.09311453 -0.0054497654 -0.05136665 -0.05928726 0.14522605 0.012746329 0.07458988 -0.02003527
0.027702224 -0.0002512526 0.10818935 0.17825268 0.11540388 -0.111479625 -0.007275506 0.08358444

gcn_layers.0.node_feat.U.bias f4 [30]
00000000: 2664 0a3e de0d 383e 21ab 0bbd 0a78 bbbd
00000010: c62c 133e d893 0ebe 82eb 063e caeb cc3d
00000020: b0de dfbd 2290 193d 1597 86bc 96e1 95bc
00000030: ee93 84bd 3ae7 21be 9fe5 873d 426b 4cbd
00000040: faf7 5a3d e0c4 a3bd 5b5a a13d 0842 05be
00000050: e38c c7bc 861c 5a3d 2bf6 f73d d943 413c
00000060: 6787 e4bc 4192 2ebe a737 d43d 4389 2c3d
00000070: d535 20be 3151 d7bd
0.13514766 0.1797404 -0.034098748 -0.09153755 0.14372548 -0.13923585 0.13175777 0.10005911
-0.10931146 0.03749097 -0.016429463 -0.018296044 -0.06473528 -0.15810862 0.066355936 -0.049906977
0.053459145 -0.07996535 0.07878562 -0.1301347 -0.024359172 0.05324986 0.121075 0.011795961
-0.027896596 -0.17047979 0.10362177 0.04212309 -0.15645535 -0.10513533

gcn_layers.0.node_feat.V.weight f4 [30, 30]
00000000: 3339 26bc cb5b 9f3d db44 763d 3e60 8a3d
00000010: 71e5 2fbd e90b b4bd e0cf 173e a12e dcbd
00000020: 0379 e23d 2948 2e3d fa9c c53b 619b 053e
00000030: c1cb 08be 8743 3bbe 4d07 abbd d49b a73d
00000040: ddcd 103e 0949 07bd 363f 14be ac6d 313e
00000050: 8499 c43d a91e b5bd 679a 9bbd 3f0b aa3d
00000060: 1d3a f0bd a486 893d c3db 28bd 017f 43bd
00000070: 63b1 883d 7f18 783d 0099 ff3d 2587 30be
00000080: ae1b b93d 3f97 363e be80 ca3d 7559 283e
00000090: 4dc6 48bd b59d b3bd 4902 43bd 7fe9 64bd
000000a0: 8b24 0b3e afb2 0a3e c250 043e a2bc 12be
000000b0: abe4 c5bd 168d 1d3e 0900 1a3e e09d f2bd
000000c0: d4b8 e13d 40bd 7e3d 0c21 f23d e831 193d
000000d0: c51b ff3d 4eda 023e 854b 273e 754f 4ebd
000000e0: 0cbb 3e3d 696d ecbd b248 e6bb d5e8 f23d
000000f0: a85e 7bbd afd1 05be d186 bb3c 4b34 80bd
00000100: 9be6 783d 21ae 393d a218 e83d e96f cb3d
00000110: 9db0 bc3d 9bea 07be c3d2 f7bc cf2b 3d3e
00000120: 8bb3 713d 3678 3c3e 64f4 473e 1816 383d
00000130: a702 7d3d 4566 e9bd 4141 0abd d3b2 0b3e
00000140: 5888 fb3d 00d2 2dbe dec0 78bd 63bf f93b
00000150: d3c3 11be 228c c6bc 1093 1e3e 79df 5e3c
00000160: 5b3f f83d 0e03 313d 37de f03d e525 97bc
00000170: 270e 39be d7ed 543d 81d2 28be 1a9e 82bb
00000180: afca aebd bc48 70bd 5703 16be ad1a f6bd
00000190: d318 f7bc b521 1bbe a25b d9bd 46fa 97bd
000001a0: e479 27be 25fb 0ebe 23ad 483d c374 7cbd
000001b0: 01c6 e2bd fd48 39bd 08f4 06be 48a6 003e
000001c0: 4a31 c5bd 3f03 ec3d ae1d e03d b934 d43d
000001d0: 8ec4 433e cf26 983d 22ba 163e 085c 993d
000001e0: f694 073e 9969 e1bd 5ea0 9abd 395b 2bbe
000001f0: 9e8b c5bd 8401 be3c 1749 353e 5ed9 d6bc
00000200: 3a92 d9bd 5ead 173d 7cfa 36be d8bb 2abe
00000210: 2004 203c a92d 1bbb 64de b9bd 2893 b53d
00000220: c5ed 5b3d 4447 913c a00c 073e 4c46 88bd
00000230: 7188 53bd d275 29be 4203 da3d d156 a8bd
00000240: f283 84bd 6117 273e 2a52 d3bd f3d5 04be
00000250: 902e 98bd 71bc 513d 9703 093d 75ca ed3d
00000260: 079a 0a3e 5796 0c3d 5882 2f3e e832 303c
00000270: 01b5 bf3d 6417 efbc 90fc 703d 7bd3 2abb
00000280: b3ba c8bd fa70 40be 47af 903d 22da bebc
00000290: 9400 1abb b356 bc3b 9367 8e3d 8c95 cd3d
000002a0: fc26 9e3c 0572 923c 4e0d 903d 8a59 4abd
000002b0: 81d1 40bd 2de4 e8bd 69a9 85bd 6a6f febd
000002c0: 28ea b5bd 29c5 c3bd d395 02bc b1d4 46bd
000002d0: 0511 823d 8c4a 1cbe a069 28bd 8929 34bd
000002e0: 07d2 373d 753f 68bd 5769 56bd 5b87 f6bd
000002f0: 11cf 17bd 25bd c4bd 5608 473b 10b1 99bd
00000300: 0594 de3d 50e4 163e e010 a83d 2f2c 25be
00000310: 0e7b 83bd 4157 3dbe 7869 1e3e 6a73 1c3e
00000320: 0858 0bbd 7adb c03d 3be4 bbbc 3c73 10bd
00000330: befe 5a3d 7b2c 4e3e 8516 e13d 082c 2dbe
00000340: dd30 b9bd b593 0dbe 7e0b adbc 1cd2 e13d
00000350: 0bab c93d 208b b2bc 8e3b 953d 4071 1e3e
00000360: f797 6dbd 3729 2dbe 575e 84bd f772 043e
00000370: 2ac3 7bbd 8305 263e 0bfe 673d 92b7 0b3e
00000380: 0419 b2bd fe5e 0a3e 20b4 8d3d 0714 93bd
00000390: ee40 3c3d dc01 1bbe e4d8 0cbe 2a83 2c3e
000003a0: c8b3 63bd e047 323d f35a 80bc 41ce 8a3d
000003b0: 63f8 0f3e 6e4d 7b3d 94d5 1a3e 8318 0fbe
000003c0: a760 b63d 6a77 b03c ed95 aebc 174b c53d
000003d0: e066 383e 4ca6 bb3d f090 023e 96a1 3abb
000003e0: 4de2 c1bd 0c5c a73c cc68 803d e1bb 26be
000003f0: 6ab4 f2bd 58b5 d33d 0998 3abe c0cd 123e
-0.010145473 0.0778118 0.06012426 0.06756638 -0.04294342 -0.08791334 0.14825392 -0.10751081
0.110582374 0.042549286 0.006030676 0.13047554 -0.13358976 -0.18287478 -0.08351002 0.08184019
0.1414103 -0.033028636 -0.14477238 0.17326993 0.09599593 -0.088437386 -0.07597809 0.08302926
-0.11729834 0.06715134 -0.041225206 -0.047728542 0.06674459 0.060570236 0.12480354 -0.17239054
0.090384826 0.17831133 0.09887837 0.16440375 -0.04901724 -0.087703146 -0.0476096 -0.05588674
0.13588159 0.13544725 0.12921432 -0.1432977 -0.096627556 0.15385851 0.15039076 -0.118465185
0.11021581 0.0621922 0.118227094 0.03740111 0.124564685 0.12778589 0.16337402 -0.050368745
0.0465651 -0.11544306 -0.007027709 0.118608154 -0.061369568 -0.13068269 0.022891434 -0.06259974
0.060766798 0.045332078 0.11332823 0.099334545 0.09213374 -0.13273089 -0.030251866 0.18473743
0.059009116 0.18405232 0.19526821 0.044942945 0.061770108 -0.113964595 -0.033753637 0.13642435
0.12281865 -0.1697464 -0.060730807 0.007621692 -0.14234857 -0.024236742 0.15485787 0.013603085
0.12121459 0.043215804 0.11761134 -0.018450687 -0.18071805 0.051984634 -0.16486551 -0.0039861323
-0.085347526 -0.058663115 -0.14649712 -0.12016807 -0.030163204 -0.15149577 -0.10613181 -0.07420783
-0.16355091 -0.13962992 0.04899324 -0.06163479 -0.110729225 -0.045235623 -0.13179028 0.12563431
-0.09628542 0.11524057 0.10943161 0.103616185 0.19117948 0.07429277 0.14719442 0.07488257
0.13240418 -0.11006469 -0.07550119 -0.16734017 -0.096457705 0.023194082 0.17703663 -0.026226696
-0.10623594 0.03703057 -0.1786899 -0.16673219 0.0097666085 -0.0023678339 -0.09075621 0.088659585
0.05369355 0.017734177 0.1318841 -0.06654033 -0.051643793 -0.16548851 0.10645153 -0.08219684
-0.06470479 0.16317512 -0.10318406 -0.1297224 -0.07430756 0.051205102 0.03345069 0.11610881
0.1353532 0.034323063 0.17139566 0.0107543245 0.09360696 -0.029185958 0.058834612 -0.0026065994
-0.09801235 -0.18793097 0.070646815 -0.023297373 -0.002349888 0.00574764 0.06953349 0.100382894
0.019305699 0.017876634 0.07033788 -0.049401797 -0.0470748 -0.11371646 -0.06526453 -0.12423594
-0.088825524 -0.0955909 -0.007970291 -0.048542682 0.063509025 -0.15262812 -0.041116357 -0.043984924
0.044878032 -0.056701142 -0.052346554 -0.12037536 -0.03706271 -0.09606389 0.003036996 -0.07504475
0.10868076 0.14735532 0.08206344 -0.16130136 -0.06419955 -0.18490316 0.1546992 0.15278402
-0.0340195 0.09416862 -0.022935977 -0.035266146 0.053465597 0.20134155 0.109906234 -0.16911328
-0.09042523 -0.13825877 -0.021123644 0.11026403 0.09847077 -0.021794856 0.0728675 0.15472889
-0.058006253 -0.16910253 -0.064633064 0.1293448 -0.06146542 0.1621304 0.05663876 0.13644245
-0.086961776 0.13512799 0.06919122 -0.07181554 0.04596036 -0.15137428 -0.13754612 0.1684691
-0.055591375 0.043525577 -0.015668368 0.06777621 0.14059596 0.06135314 0.15120536 -0.13974194
0.08905154 0.021541316 -0.021311725 0.09633463 0.18007994 0.09162578 0.12750602 -0.002847766
-0.094669916 0.020429634 0.062699884 -0.16282608 -0.118508175 0.10337323 -0.1822206 0.143363

gcn_layers.0.node_feat.V.bias f4 [30]
00000000: ac4c 3bbe fa9e 1b3e fcc1 2d3d d9a5 073d
00000010: fa1c 5bbd 8c3e ff3c 1bed c03d c133 253e
00000020: 68b1 09be f62b 01be 0c08 243e b23d 303c
00000030: 38bb 66bd b63d 083d 5de3 e33d 39be ecbd
00000040: afba 173e 9135 e0bd b386 9e3c 3a8e 68bd
00000050: 5158 183d eb12 bb3d 97bd 6cbc 29ed e73d
00000060: aa75 30be 2eb1 a1bd b9e6 32be ec3e 9dbd
00000070: 7f6c 61bd 5028 3ebd
-0.18290967 0.15197363 0.042421326 0.03311715 -0.05349443 0.031157754 0.09420224 0.16133024
-0.13446581 -0.12614426 0.16018695 0.010756897 -0.05633089 0.033261977 0.111273505 -0.115597196
0.14817308 -0.10947717 0.019351339 -0.056776263 0.0371936 0.09134468 -0.014449499 0.113245316
-0.17232385 -0.078951225 -0.17470826 -0.07678017 -0.05503511 -0.046425164

gcn_layers.0.node_norm.batch_norm.weight f4 [30]
00000000: 4cd9 7b3f f7dc 723f cb91 7b3f 6c79 6e3f
00000010: 5097 7f3f 5236 843f 5eac 803f e2ad 7c3f
00000020: 8c92 833f 768e 783f 9907 833f 3be3 7c3f
00000030: 1811 7c3f 2d8d 7f3f 6584 7e3f 4079 7c3f
00000040: 2a13 813f 8d6a 803f 254e 793f a1d7 823f
00000050: 65b6 7a3f c3a8 763f 55e9 7a3f 66b5 833f
00000060: cf42 773f 139f 803f 824b 783f 04a6 733f
00000070: 9770 7a3f f19a 863f
0.98378444 0.94868416 0.9826934 0.93154025 0.9984026 1.0329077 1.0052602 0.98702824
1.0279098 0.9709238 1.0236694 0.98784226 0.98463583 0.9982479 0.9942077 0.9862251
1.0083973 1.0032517 0.97384864 1.0222055 0.9793456 0.9635126 0.98012286 1.0289733
0.96586317 1.0048546 0.96990216 0.95175195 0.9782805 1.0516034

gcn_layers.0.node_norm.batch_norm.bias f4 [30]
00000000: 909b 193c 6bbc edbc f267 003d b0d1 8fbb
00000010: 1b2c 133c 61de 38bc 2723 103c d351 673c
00000020: 3a91 24bd 0819 c73d cd49 c4bb c691 c83b
00000030: ab8d b53c e64f b53d 67d9 2d3d 87e4 8c3d
00000040: 1295 bf3b cba0 493b e48d 83bd b67d a93d
00000050: 4eaa 823c 6c91 9d3d 2a57 a6ba 4f08 803c
00000060: 8b33 74bc 9367 36bc 3280 67bc 9cb0 4ebb
00000070: 8701 523d 355e ef3c
0.009375468 -0.029020509 0.03134913 -0.0043890104 0.0089826835 -0.011283488 0.0087974435 0.0141186295
-0.04017756 0.09721571 -0.005990243 0.006120893 0.02216228 0.0885313 0.04244366 0.06879526
0.005846628 0.0030766006 -0.06423548 0.082759306 0.015950348 0.07693753 -0.0012690772 0.015628962
-0.014904867 -0.011133092 -0.014129685 -0.0031538373 0.051270988 0.029219726

gcn_layers.0.edge_feat.U.weight f4 [30, 30]
00000000: ff60 a23c b063 18bd 7c2b e53c e839 95bd
00000010: 685d 5c3e e9ce a63d 2d6e 43be f9dd 83bc
00000020: 1923 6a3d 6ab5 003e 7b16 c3bd 6eba 8fbd
00000030: fb97 6fbe 9171 33be 6f7e c3bd a763 a4bc
00000040: d399 27bc 8335 3c3e 077e 053d 424b ccbd
00000050: 6430 42bd 9b7c bd3d 5f27 f8bd be12 2e3e
00000060: 52b9 253e 6d42 853d a617 e63c 66ea 173e
00000070: e7bc 8ebd 3a4f 2a3d a1fa 52bd d444 1bbe
00000080: 660b 16be 7bae a33d db89 b33d c3fe b3bd
00000090: 262b 28be 5f52 de3d 9752 603d 47a6 bd3c
000000a0: 30fa acbd 4baf 8a3d 99a3 823d e7dc adbd
000000b0: 1b80 5b3e 15fd cd3d 13e2 f7bd 2aad e23d
000000c0: 5c06 22be 3902 283e 918e 1c3e c71f d8bd
000000d0: 09f8 193e 852e 8dbd ba62 c63d 173f 3e3d
000000e0: aaba 053e 378d 0bbd 468d 0dbe 15d8 13be
000000f0: 653c c23d f488 193e bca7 96bd 8d40 023c
00000100: f988 3bbe 1e56 e3bb 901a 41bd a6eb c6bd
00000110: c7d8 5dbd 7d17 18be d8bb c03d 47cc e23d
00000120: 6da4 4e3c 29d9 2b3e 7b22 9ebd 5be5 223e
00000130: 2095 37bd 3f5f d5bd 685b 80bd bd2a c4bc
00000140: ae40 6fbc 9f1f f1bd cfcf 59bd 447f 5abd
00000150: 2055 32be 9608 a93d a658 28bd 44b3 5bbc
00000160: c9c7 0cbc c5ce 27be bcb0 09be 4378 01be
00000170: 01f8 90bd 9940 a7bd 0c85 313e fbf4 2fbe
00000180: e4fb 82bd c9af a93d c7ae bd3d dfd6 a8bd
00000190: 1cba d93d f2b1 b83d be31 82bd b3e3 0e3e
000001a0: 11c6 c03d 2a46 00be 7019 8c3c 7a24 8dbd
000001b0: 5bb5 fc3d 9155 f33d 3ddd 1cbd bb17 003e
000001c0: 9603 8ebc 2dee 463d f00c 1c3e 8172 1cbe
000001d0: 6b3e 25bd 3b60 033e b2e6 e83d cfd4 0ebe
000001e0: 661d 2fbd cca4 ccbc ac61 c43c 5fc7 47bd
000001f0: cfe2 623e 0ccf c63d f053 18be 70dd 593d
00000200: 73ee 5ebd fcf5 453e 1e52 aebc 4da0 a73d
00000210: 9090 c8bd 515d 52be ece1 0cbd c1e4 463d
00000220: 76fe 8f3d cc5d d1bd f8b1 b73a d873 4bbd
00000230: 7c04 24be 3b58 fabd 0930 e53d ef97 2bbc
00000240: 3858 fa3c 7d89 193e c7c5 313e 62be 4c3b
00000250: b222 0f3d 569a f13d bdbb 5b3c 9ce9 bd3d
00000260: 17e6 08be 94ec f0bc 5d5e 11be 9925 803d
00000270: 09b2 153e 78c4 adbc 67fb b4bb 0c1f 193e
00000280: 53bd e13d c820 e8bc 4e5d 613d 2459 183e
00000290: 7d54 c4bc 2360 e4bd a938 243e faa6 353e
000002a0: 4bc1 fe3d 7a87 f23d 8651 c13d 2c1f 31be
000002b0: a302 1e3d 9d4d 043e d9c0 013e 083c a13c
000002c0: 705e 983d 8aa8 133d ff4e fc3d 0ca5 d4bc
000002d0: 1f56 0d3d 88a0 e7bc 4308 e4bc a9b5 493e
000002e0: 8204 21bd 13b4 0b3d ea2b 8f3d 17d4 5ebe
000002f0: 93e9 bfbc f85a 843d 5f39 673e 85aa b4bd
00000300: 815c f4bd 8864 633d 36de 56bd 0f2f 26be
00000310: 7ed8 1c3d 928e 0e3d a461 a3bd dc91 17be
00000320: f7d6 843d 0075 d03c 402f bb3d 4ab5 543d
00000330: 685d 11bd f5aa 9cbc 4725 373e 7e73 ccbd
00000340: 6d37 e0bc 7344 28bd e982 95bd 4cea 313e
00000350: 87b0 81bd 4a7f 9e3d 9b65 cebd 4a3d 60be
00000360: 5f0b 1e3e 3092 b43d 2a53 003e f7da aa3d
00000370: f566 1ebe d308 623e bc1e 463c 03bf a23d
00000380: c455 0c3c 9a54 b4bd 7cb8 dd3d 96ae a33d
00000390: 6281 b63c 4db1 a43d 559f 0b3e 4bd7 5fbd
000003a0: 3f96 993d 0f21 193e fa81 51bc 919d 02be
000003b0: 3fad 053e 07b3 7fbd 6022 ba3d c39d a3bd
000003c0: f6fd 90bc 77d1 343e e2ea f4bb 0f5a 25be
000003d0: c768 313d 3552 04be 9240 883c e298 d9bd
000003e0: c415 b5bd a031 893d 47cf 3abe da17 863d
000003f0: ed43 f03d f83e 503d 09ba a9bd 1352 4a3d
0.019821642 -0.037204444 0.027974837 -0.07286435 0.21520007 0.08144934 -0.19084997 -0.016097056
0.057162378 0.12569204 -0.09525772 -0.070179805 -0.2339782 -0.17523791 -0.095456 -0.02006705
-0.010229546 0.18379788 0.032590892 -0.09975292 -0.04740943 0.09252282 -0.121168844 0.16999337
0.16183975 0.0650681 0.028087448 0.1483551 -0.06969624 0.041579463 -0.05150855 -0.15162975
-0.14652786 0.07992264 0.08766528 -0.08788826 -0.1642271 0.10855555 0.054766264 0.023150576
-0.08446157 0.06771716 0.0637886 -0.084893994 0.21435587 0.10058037 -0.12103667 0.11068185
-0.15822738 0.16407098 0.1528876 -0.10552936 0.15036024 -0.068936385 0.09686799 0.046446886
0.13059488 -0.03407022 -0.13823423 -0.14437898 0.094841756 0.1499365 -0.073562115 0.00794996
-0.1831397 -0.006937756 -0.047144473 -0.09712915 -0.054161813 -0.1485271 0.09410828 0.11074119
0.012612444 0.16782059 -0.077214204 0.15907805 -0.04481995 -0.104185574 -0.06267434 -0.02394616
-0.014602823 -0.11773609 -0.053176697 -0.053344026 -0.17415285 0.08253591 -0.041100167 -0.0134094395
-0.008592554 -0.1638747 -0.13446325 -0.12643532 -0.07078553 -0.08166618 0.1733591 -0.17183296
-0.063957006 0.082854815 0.09261852 -0.082441084 0.10631201 0.090183154 -0.06357144 0.13954048
0.09412778 -0.12526765 0.017101973 -0.06891723 0.12339278 0.11881555 -0.038296927 0.12509052
-0.017335694 0.048566986 0.1523931 -0.15278055 -0.04034273 0.12829678 0.11372127 -0.13948368
-0.042752646 -0.024980925 0.023972355 -0.04877412 0.22156833 0.0970746 -0.1487577 0.053189695
-0.05442662 0.19332117 -0.02127939 0.08184872 -0.09793198 -0.2054341 -0.034395143 0.048558
0.070309564 -0.102229685 0.0014014831 -0.049671024 -0.16017336 -0.1222386 0.111908026 -0.0104732355
0.030559644 0.14993854 0.17360602 0.0031241407 0.034945197 0.11797015 0.0134114595 0.09273073
-0.13369022 -0.029409684 -0.14196153 0.06257171 0.14618696 -0.021211848 -0.0055231336 0.1495325
0.11022439 -0.028335944 0.055020623 0.14877754 -0.023966068 -0.11151149 0.16037239 0.17739478
0.124392115 0.11842246 0.094393775 -0.17297047 0.038576733 0.12920232 0.12671222 0.019681945
0.074398875 0.036049403 0.12319755 -0.025957607 0.03450596 -0.02827479 -0.02783597 0.19698204
-0.03931094 0.03410728 0.06990798 -0.21760593 -0.023426807 0.064626634 0.22580479 -0.088215865
-0.11931706 0.055515796 -0.05245801 -0.16228889 0.0382924 0.034803934 -0.07977608 -0.14801735
0.06486314 0.025446415 0.091398716 0.051930703 -0.03548947 -0.019124487 0.17885314 -0.09982966
-0.02737018 -0.041080903 -0.0730036 0.17374533 -0.06332498 0.07739122 -0.100779735 -0.2189838
0.15434025 0.088169456 0.12531725 0.083425455 -0.15468962 0.22073679 0.012092289 0.07946589
0.00856537 -0.08805199 0.10826203 0.07992284 0.022278491 0.0804163 0.13634999 -0.05464868
0.0749936 0.14954017 -0.0127873365 -0.1275542 0.1305437 -0.062426593 0.09088588 -0.07989075
-0.017699223 0.1765803 -0.0074742893 -0.16147636 0.043312814 -0.12921984 0.016632352 -0.10624863
-0.08842042 0.06698918 -0.18243133 0.06547518 0.11731706 0.0508413 -0.082874365 0.04939468

gcn_layers.0.edge_feat.U.bias f4 [30]
00000000: 2196 acbd b410 abbe 4c0e 12be 3fa2 75bd
00000010: 4f24 0abd b6e2 8fbb 4578 30be 0fb5 0c3e
00000020: 0242 e93e 12e4 a53e 381f d9bd 75ff 273d
00000030: 7796 c43d 9d5e 0fbe 516b abbd f14c d03d
00000040: d687 e5bc 94b2 ca3d ee85 32be 1c0a 21be
00000050: 6c05 30be aa1c b9bd 8d07 513e eef1 67bd
00000060: 9889 2ebe 97bf afbd 2657 26bd 9caf 65be
00000070: 9080 4c3c 30ed fe3d
-0.08427072 -0.3341118 -0.14263266 -0.059969183 -0.033726033 -0.0043910397 -0.17233379 0.13740943
0.45558172 0.32400566 -0.10601658 0.041015107 0.095990114 -0.14000936 -0.08370078 0.101709254
-0.028018873 0.09897342 -0.17433903 -0.15726513 -0.17189568 -0.0903867 0.20413037 -0.056627207
-0.17044675 -0.08581465 -0.040610455 -0.22430271 0.012481824 0.12447584

gcn_layers.0.edge_feat.V.weight f4 [30, 30]
00000000: 2b0c 293b ee56 f6bd a923 8abd cd24 863d
00000010: a8ee 343e b833 4a3e 1f2b 1c3e 3a7a a6bd
00000020: 77e7 f4bd a29c e33d 5467 49be 192e 14be
00000030: f68c 233e acec a13c 728a 8d3d 04a9 27be
00000040: ada8 133e fb0d f43d ee10 3bbe 46a5 223e
00000050: 5682 babc b028 7abd 0f8a 45bd b198 10be
00000060: 6f5e 5b3e a220 313d be55 123c 82e1 213e
00000070: 1a28 4d3e 2b38 973d df1a d63b b36f a83d
00000080: f6cc 3ebe db8b 013d 79fd 4dbe 78c7 103e
00000090: 3dc5 c8bd 87e0 2c3d 427a 37be 783a f6bd
000000a0: 6451 4d3e aa07 1c3e 0a63 3bbe 98eb a33d
000000b0: a7e4 353e a8e9 abbd 0e54 bfbc 2351 d6bd
000000c0: 1cb4 3e3e c399 2abd 282d 36bc 2002 7b3d
000000d0: 5717 9ebd f50e c6bd 58bd ed3d 5877 eb3d
000000e0: a5bf 15be 3ada 073e f2e7 693d 71f6 c63d
000000f0: f117 ad3d 5052 853c f796 dfbd cb5a 33be
00000100: 3b2e 6a3d 82ed 1abe d0ca 02bd edf8 c73d
00000110: 0cab dcbd 7c78 a7bd c8d8 d03d 7a63 47be
00000120: 2c3c 3f3e 0dd1 36be 3587 42be f77f 683c
00000130: fbb1 6a3d 7d20 833d e93f 883d 6ad1 2e3d
00000140: f741 ee3d 0075 02bd c500 313e f85c 863d
00000150: 7f6a 0d3e e251 30be 36a4 ad3d 50eb 8bbd
00000160: 082a fe3c c4b3 d6bd 25df d3bd 70c1 013d
00000170: c45b 35bb 62c6 293e cc38 17be ec8e d23b
00000180: 834f 00bd 0739 e33d 45e6 49be c717 2abe
00000190: db63 37bc a8c0 0b3e b13b e93d 47e7 d3bd
000001a0: 91d9 a4bb a970 403d 47fd 0cbe 0049 123e
000001b0: ef9d ce3c efae 083c 9232 d83d f52c 003e
000001c0: 5d93 2f3e 5a54 0c3e 1f40 0b3e 1602 023e
000001d0: 8423 0d3e 16f6 28be 9b4f 0f3e 5497 ee3d
000001e0: deaa ad3d 0fa3 edbb eae3 ddbd 0aaa 3bbe
000001f0: 2c30 493d 740b dfbb 8d10 32bd b361 873d
00000200: 01da aabd 3fc4 183e 5a8b 6f3d 66d9 0b3e
00000210: 9573 1cbe f23e d2bd 75be a83d 6afa 95bd
00000220: 8889 373d 38fb 543d 62d0 483a 9a4a 0b3e
00000230: 4797 6b3d 6d85 073e 533d 00bd 326e ae3d
00000240: f0a2 1e3e 5c2f 2bbd 2770 b43d ffb0 113e
00000250: 0805 6c3d 1802 f13d e0bb e0bd 8116 febc
00000260: 1f3c ffbd 1048 bcbd 3586 333d fad4 abbd
00000270: feb5 de3c 2eda 70bc 9607 a3bd 4886 20be
00000280: e367 7fbc a70d 143e 354b fcbd 5fec 713d
00000290: a6e4 d83d 512f 3a3d 01c4 bcbd bbe8 dfbd
000002a0: 48ec 123e 81ea 06be 6a23 64bd 329c 78bd
000002b0: a3e6 cbbb c4a6 8e3d 19c9 413e 750e 24be
000002c0: d4e1 08be 8515 fd3d bd51 0a3b 7efb 113e
000002d0: 6b87 5d3d 93a4 a33c 4d37 1c3e 7e27 d13d
000002e0: 1b99 d8bd d4d0 213e 0ad9 93bd 0231 f43d
000002f0: 5aa9 113e b314 323e dee1 c2bd d4e0 52be
00000300: cfef cebd cb8c 4c3e 3410 09be 3386 1f3d
00000310: 08a6 1dbe 809b 083d d8fe dbbd 78f7 e9bd
00000320: a4e5 33be 5655 bd3d e0ae e6bc 7c8e 55be
00000330: 407b cd3c 862c 7ebd 81d0 06bd 72d6 c73d
00000340: 36f8 9bbd 2b93 a63d 65f2 0c3e c0d5 b13d
00000350: fb75 ea3d 218c 4dbd b06b dcbd b385 043e
00000360: 5e4c 6a3c f61c 1d3e c6ee eabc 3234 1cbe
00000370: cd22 f53a be49 14bd 708f d5bd f843 26ba
00000380: 0546 e03c 49f1 143d d778 9d3d 9170 9bbd
00000390: 9aa4 a23d c4aa 8c3d c2d8 603d 8cf1 853d
000003a0: d2dd cf3d dd78 acbd 6d24 793c e36a a63d
000003b0: 7cb6 0a3e 4567 993c c220 ef3d 9218 123e
000003c0: 0a58 ca3d 26a5 48bc 5e1a 903d 219b 303d
000003d0: 93ea ffbd c607 0e3e 248c 6e3d ffc9 8cbd
000003e0: 5071 e1bd 201d 03bd fa49 303c 1fbb e8bd
000003f0: f306 aabd 3e01 9abd 2a9d 42bc 8eb3 0c3d
0.0025794606 -0.12028299 -0.06745083 0.06549988 0.17669165 0.19746292 0.15250824 -0.081287816
-0.11958211 0.1111386 -0.19668323 -0.1447071 0.15971741 0.019766174 0.06911172 -0.16373068
0.14419813 0.11916729 -0.18268177 0.1588336 -0.022767227 -0.06107396 -0.048227366 -0.14120747
0.21422742 0.04324401 0.008931575 0.1580868 0.20034829 0.0738376 0.006533965 0.0822443
-0.18632874 0.031627517 -0.20116223 0.14138591 -0.09803245 0.042206313 -0.17917731 -0.12022871
0.2005058 0.15237299 -0.18299499 0.0800392 0.17763005 -0.08394176 -0.02335551 -0.10464694
0.18623394 -0.041650545 -0.0111191645 0.061281323 -0.077192955 -0.096708216 0.1160838 0.114973724
-0.14623888 0.1326684 0.057105966 0.09714974 0.08451832 0.016274601 -0.10917466 -0.17515104
0.057172995 -0.15129665 -0.0319317 0.09764276 -0.10774812 -0.081772774 0.10197598 -0.19471541
0.18675297 -0.17853184 -0.1899689 0.014190665 0.05729864 0.06402681 0.06652815 0.04268018
0.116336755 -0.03184986 0.1728545 0.06560701 0.13810156 -0.17218736 0.084785864 -0.06831992
0.031025901 -0.10483506 -0.10345296 0.031678617 -0.0027673105 0.16579583 -0.1476776 0.006425729
-0.03132583 0.110948615 -0.19716747 -0.16610633 -0.011193241 0.13647711 0.11388338 -0.10346847
-0.0050308187 0.04698244 -0.13768493 0.1428566 0.025221793 0.008342489 0.105565205 0.1251715
0.17146058 0.13704053 0.13598679 0.12696108 0.1378308 -0.16500124 0.13995211 0.11649957
0.08479856 -0.007252104 -0.10834487 -0.18326584 0.049118206 -0.0068067852 -0.043472815 0.066104315
-0.08342362 0.14918612 0.058482505 0.1365715 -0.15278466 -0.10265912 0.08239452 -0.07323153
0.044808894 0.051997393 0.0007660446 0.13602677 0.057517316 0.13234492 -0.031308483 0.08517112
0.15491843 -0.041793212 0.08810454 0.14227675 0.057621986 0.117679775 -0.10973334 -0.03101659
-0.12462639 -0.09193432 0.04382916 -0.083902314 0.02718639 -0.014700456 -0.07960431 -0.15676224
-0.015588733 0.14458333 -0.12319032 0.05906331 0.10590486 0.04545528 -0.09217072 -0.10933062
0.14347947 -0.13175394 -0.055697836 -0.060695834 -0.0062225624 0.06965402 0.18924369 -0.1602114
-0.13367397 0.1235762 0.0021105849 0.14256093 0.054084223 0.019975936 0.1525547 0.10212611
-0.105760776 0.15802318 -0.07219131 0.1192341 0.14224759 0.17390709 -0.09515737 -0.20593578
-0.101043336 0.19975583 -0.13385087 0.03894634 -0.15395367 0.03335142 -0.10741967 -0.11424154
-0.1756807 0.09244792 -0.028159559 -0.20855135 0.025083184 -0.06205418 -0.03291369 0.09757699
-0.07615702 0.08133539 0.13764341 0.08683348 0.11448284 -0.050182465 -0.10762727 0.12941627
0.014300434 0.15343079 -0.02867831 -0.15254286 0.0018702388 -0.03620314 -0.10427749 -0.00063425256
0.027377138 0.03636292 0.07689064 -0.0758983 0.079415515 0.068685085 0.054894216 0.06540212
0.10149731 -0.0842149 0.0152064385 0.08125856 0.13546175 0.018726 0.1167617 0.14267185
0.09880073 -0.012246406 0.07036279 0.043116692 -0.12495913 0.13870153 0.058239117 -0.06874465
-0.11007941 -0.032010198 0.010759825 -0.113638155 -0.08302107 -0.07519768 -0.011878291 0.034350924

gcn_layers.0.edge_feat.V.bias f4 [30]
00000000: bd05 91be c604 2abe 2c52 0bbe 8b27 d43d
00000010: e113 8abd d601 7e3d 69a0 01bd 0753 e53c
00000020: 499c a33e 5e55 853e de00 79bd c391 3cbd
00000030: 9311 31be 9cad 683d 8247 c8bd 619f c43c
00000040: a966 1d3d fd7f cb3d 221a 3d3c f038 66be
00000050: ad23 653c 2dc3 d2ba 9039 a1bd 210a 22bd
00000060: 6916 c2bc ba35 ccbd d949 81bd 51de 62be
00000070: f835 20be 9d92 6f3e
-0.2832469 -0.16603383 -0.13605565 0.10359105 -0.06742073 0.06201347 -0.03164712 0.027993692
0.31955174 0.26041692 -0.060791843 -0.046037447 -0.1729186 0.05680619 -0.09779264 0.024001779
0.038427982 0.09936521 0.011541875 -0.22482657 0.013985557 -0.0016079895 -0.07872307 -0.03956044
-0.023692327 -0.09971185 -0.063129134 -0.2215512 -0.15645587 0.23395772

gcn_layers.0.edge_norm.batch_norm.weight f4 [30]
00000000: 0bbb 7e3f 7bec 803f 8b4b 813f d85c 7f3f
00000010: caf5 7a3f 3f30 7e3f f050 793f d11e 813f
00000020: bb1e 843f 4ba5 843f 578c 863f c373 843f
00000030: 5876 7c3f 9741 7e3f 5122 833f 8796 7c3f
00000040: 2a26 893f 7a92 7a3f 5952 783f 9468 803f
00000050: b775 7d3f 9ca2 7b3f 4dc4 813f d6c4 773f
00000060: 8e1b 703f 56b5 7c3f 0958 7e3f 1be6 7e3f
00000070: da19 7a3f f930 7f3f
0.99504155 1.0072168 1.0101179 0.99751043 0.98031294 0.9929237 0.97389126 1.008753
1.0321878 1.0362943 1.0511578 1.0347828 0.9861808 0.9931883 1.0244848 0.98667186
1.0714772 0.97879755 0.9700065 1.0031915 0.99007744 0.98295 1.0138031 0.9678472
0.93792045 0.98714197 0.9935308 0.99569863 0.97695696 0.996841

gcn_layers.0.edge_norm.batch_norm.bias f4 [30]
00000000: 0008 79bc b483 e2bc eea7 e53b 5603 94bc
00000010: d483 42bd deaa ef3c 11e6 31bd 09af c73c
00000020: 2fb5 4f3d 35bc bc3c 0e6a 0c3d 4231 2a3c
00000030: 01b5 c7bc dd2b fcbb 3464 423b 0967 72bc
00000040: bdb9 483d 457b 87bc 7bd5 28bd b9b1 8bbc
00000050: a90f 31bd f619 89bd bf88 a53c 0347 adbc
00000060: 3eb4 82bd 7f28 29bc 1f5f b0bc b8b7 cebb
00000070: 4627 c0ba 139e 2cba
-0.015199661 -0.027650692 0.007008544 -0.018067997 -0.047489002 0.02925628 -0.0434323 0.024375455
0.0507099 0.023038963 0.03428083 0.010387721 -0.024378302 -0.0076956586 0.0029661776 -0.014795073
0.04900526 -0.016538272 -0.041219216 -0.017052518 -0.043227825 -0.06694405 0.020206807 -0.021152025
-0.06382035 -0.010324596 -0.021529732 -0.006308522 -0.0014660142 -0.0006584834

gcn_layers.1.node_feat.U.weight f4 [30, 30]
00000000: f385 1cbc ade8 15bd ab29 e5bc 4a2f f9bd
00000010: 9322 4c3e dff1 ef3d a3bb 1a3c 38b8 c4bd
00000020: 499e 653e e797 14be 127e ba3d f630 293c
00000030: 846d a43d 7ea7 b73d 080b a73d 1f5a 02be
00000040: a0f7 733e 4f5f f83d d605 d1bd 5c2a f6bd
00000050: 8098 fdbd 06d9 1cbe 5cad 5b3e c514 c83c
00000060: f8ff 65bd d785 08bd 276d d6bd 38a4 e7bd
00000070: 2ec5 febd 0792 c6bd 6c49 ca3a 4574 9fbd
00000080: 1622 ef3d 620f 84bd 4727 db3c a8fd bfbd
00000090: 98a2 20be 188e 4d3e 5d1c 71bd 3862 263e
000000a0: 5778 dbbd 33d0 7bbc 819d 333e 8755 49ba
000000b0: a1ef 8b3d 5228 0bbe 7fbf 8bbd 194c bd3d
000000c0: a398 d3bd 6f53 513d a8ab f43c d439 babd
000000d0: 4f43 36bd ce85 ed3d ebbc 73bd 0e45 efbd
000000e0: 641d e6bd 7556 593c c3f8 8a3d cf84 0fbe
000000f0: 1f05 273e b866 1bbe 0ac2 a8bd 02f4 cfbd
00000100: b1de 853d a7e5 443e e0a8 44be ba0f 4ebd
00000110: a234 0dbc 8b84 00be fcc2 13be 2a08 eebd
00000120: 2147 f5bd f3c7 0fbc 90b8 c33d 567f 41bd
00000130: acf7 153e 4f24 48bc 0b39 263e ed9a 1ebe
00000140: fcf7 173e 6b66 9ebd 1043 143e 82ac d43d
00000150: cb87 d23d 86c0 1c3e c4ce adbd 6f97 1b3e
00000160: 077d 2ebe ef98 1fbe 068b 363e 4862 083e
00000170: 8092 0fbe e73e d13d 6e46 ab3d 94db 52be
00000180: 9e8c e73d 224c 193e 5cbd a5bd a356 1c3e
00000190: 2da5 09be 48b6 cfbb 44f7 dfbd d447 32be
000001a0: 0e48 b9bd a954 fc3d fbd4 a33d 738a 8f3d
000001b0: 6a15 d4bd 5992 63bd 5fa1 2a3e 1f72 083e
000001c0: be60 fabb f131 3b3e 2a30 5cbd 6080 bbbd
000001d0: 916a e7bd 4287 4b3d 6bb3 7abb 28db 113e
000001e0: 1ab7 603d 3a56 553d e4dc 6abb 9980 27be
000001f0: d9cc a43c 23a9 cf3d dfd5 00be 63dc d4bd
00000200: 5491 5abd 6f0b 20be a6ed c23d 366e 223e
00000210: fdb0 0ebe 67c5 c23d 0285 4c3e 6b6e e33d
00000220: 8fb8 34be 70e9 1dbd e834 49bc af5f 023e
00000230: 05dc fd3b dd30 103e ebbc 73bd 26be 6fbd
00000240: 9673 643d 5fcd 68be e494 2abe d679 16be
00000250: 6d4f 013e e527 30be 23f5 083c 6e35 1bbe
00000260: b454 133e f6ce 0dbe 2d97 b83c 1f80 c3bd
00000270: 3be7 30bd 5fb4 54bc 11cf 2ebd 9991 bdbd
00000280: 3366 65bb 4653 1a3e 6c8a 8ebd ed49 a93d
00000290: c8ff 823c 0cd1 28bd ec87 97bd 6911 433c
000002a0: 033c bebd 4c73 df3d 5412 88bb 1a59 553e
000002b0: e2cc 203e 5d61 553b d1b6 2ebe bebf 08be
000002c0: f101 833d d6d0 7bbd 890d be3d 9f82 ad3d
000002d0: f39e b2bd bb33 15be 8021 6a3c d4b0 f03d
000002e0: df2e 25bd 4b26 3fbd 78e6 ec3c fd7a 1dbe
000002f0: 600c 1ebe 3e7f 2f3b 15c1 b93d f726 3a3c
00000300: 2fc3 f23d db14 7ebd 2a80 cd3d 7172 8ebd
00000310: 5b97 093e 4cd2 433e d014 4fbd 18a2 47be
00000320: 1b9a 1d3e 783f 9c3c 0500 353e 977e 663c
00000330: aed4 3ebd b539 16be c0fe 813d 48d3 683b
00000340: 4065 4a3d 7e9d 633d bd63 a2bd 5acc a2bd
00000350: 1bfb 58ba 74c3 813d 3103 a2bd 377d b73d
00000360: fba4 df3d cea0 15be cf3e 293e db49 dabd
00000370: 648f d23d 26e3 f0bd 70e5 543d 5f8b bdbd
00000380: 65f5 46be b058 843d 5e84 913d c5a7 053e
00000390: 90ba d9bc 4488 0abe bbe3 213e 2a24 0a3d
000003a0: e0fb 0bbe da89 4a3c daf0 393d 8ac8 283e
000003b0: 059d 4d3e a182 05be 384b 0abe e764 043e
000003c0: 010c 2cbe 90d1 31be 39ce 2abe 4157 943b
000003d0: 8caa b2bd 1d03 dfbd a6b9 073e 121f cebd
000003e0: 0825 513c ac90 063e d620 c03d e8a7 d33d
000003f0: 66c5 d33c 6d41 68be 018f c23c 8f84 043d
-0.00955342 -0.03659885 -0.02797397 -0.12167223 0.19935064 0.11716055 0.00944415 -0.096054494
0.22423662 -0.14511071 0.09106077 0.010326615 0.08028701 0.089674935 0.08156401 -0.12729691
0.2382493 0.12127554 -0.10206191 -0.12019798 -0.12382603 -0.15317163 0.2145285 0.024423966
-0.056152314 -0.033330765 -0.10470038 -0.11310619 -0.12439953 -0.09695821 0.0015433258 -0.077858485
0.11676423 -0.064482465 0.026752127 -0.09374553 -0.15687025 0.20073736 -0.05886494 0.16248405
-0.107163124 -0.015369463 0.17540552 -0.0007680286 0.06832815 -0.135896 -0.06823634 0.0924303
-0.103318475 0.05110496 0.029867008 -0.09093061 -0.044497784 0.11597787 -0.059506338 -0.11683093
-0.112360746 0.013265242 0.06785729 -0.14015506 0.16310547 -0.15175903 -0.08240135 -0.10153963
0.06536616 0.1922823 -0.19205046 -0.050307967 -0.008618506 -0.12550561 -0.1442985 -0.11622651
-0.119764574 -0.008775699 0.09556687 -0.047240578 0.1464526 -0.012215688 0.16232698 -0.15488787
0.14840692 -0.077343784 0.14478707 0.10384466 0.10279807 0.15307817 -0.08486703 0.15194486
-0.17039882 -0.15585683 0.1782647 0.13318741 -0.14020729 0.10217076 0.08363043 -0.20591575
0.113061175 0.14970449 -0.08092758 0.15267424 -0.13441916 -0.0063388683 -0.10935834 -0.17410213
-0.090469465 0.12320835 0.07999607 0.07008829 -0.10355647 -0.05555949 0.1666312 0.13324784
-0.007640927 0.1828077 -0.05375687 -0.09155345 -0.11299623 0.04968954 -0.0038253914 0.14243758
0.05486212 0.052084185 -0.0035837227 -0.1635765 0.02011721 0.10139682 -0.12581585 -0.10393598
-0.053361252 -0.15629362 0.09517984 0.15862355 -0.13934703 0.09510308 0.19972613 0.11105045
-0.17648529 -0.0385527 -0.01228068 0.12731813 0.0077471756 0.1408114 -0.059506338 -0.05853095
0.055774294 -0.22734593 -0.1665836 -0.14694914 0.12627955 -0.17202719 0.008359226 -0.151571
0.1438778 -0.1384848 0.022533024 -0.095459215 -0.04318927 -0.012982457 -0.042677943 -0.09256286
-0.0035003542 0.15070829 -0.069599956 0.08266053 0.015991107 -0.041214988 -0.07398972 0.011906006
-0.0928879 0.10910663 -0.0041525755 0.20834771 0.15703157 0.0032559254 -0.17061926 -0.13354394
0.06396855 -0.06147846 0.092799254 0.084721796 -0.087217234 -0.14570515 0.014290214 0.11752477
-0.040327903 -0.04666738 0.02891849 -0.15378948 -0.15434408 0.0026778723 0.090700306 0.011361829
0.118536346 -0.062031608 0.10034211 -0.06955422 0.13436644 0.1912319 -0.050556958 -0.19495428
0.15390818 0.019073233 0.17675789 0.014068267 -0.046589546 -0.14670451 0.06347418 0.0035526324
0.049412966 0.055570118 -0.0792918 -0.07949133 -0.0008277164 0.06336108 -0.07910765 0.0895943
0.109201394 -0.14612123 0.16527866 -0.10658618 0.10281256 -0.11762075 0.05197662 -0.092550986
-0.19429548 0.06462228 0.07105325 0.1305228 -0.026578218 -0.13528544 0.15809529 0.033725895
-0.13670301 0.012361968 0.04539571 0.1648275 0.2007943 -0.13038112 -0.13505256 0.12929116
-0.16801454 -0.17365098 -0.1668023 0.004527003 -0.087239355 -0.10889266 0.13254413 -0.1006452
0.012765177 0.13141125 0.09381263 0.1033476 0.025850963 -0.22681208 0.02374983 0.03235298

gcn_layers.1.node_feat.U.bias f4 [30]
00000000: da5b 003e 106f bf3d 8da8 d2bc 5362 f2bc
00000010: 5dc4 cbbd 6f8c ac3c ff85 2abe 2c1f 5abd
00000020: f6e9 c7bc 5129 1b3e 4475 1e3e eade 94bc
00000030: 93d3 503d ebf0 f23d 5580 2d3e b572 093e
00000040: 55f9 963d db7f 813d 5b2d f2bd 2631 a8bd
00000050: f75e 873b 59b0 163e 7ea2 ff3d bc58 273c
00000060: bc7e 1ebd 4201 083e 3045 88bd 8a08 713d
00000070: 50c9 adbd 0939 37be
0.12535039 0.09347355 -0.025715137 -0.0295879 -0.09949563 0.021063058 -0.16652678 -0.053252384
-0.024403553 0.1515248 0.15474421 -0.0181727 0.050983023 0.11862358 0.16943486 0.13422664
0.07371775 0.063232146 -0.11825057 -0.08212499 0.0041311937 0.14715709 0.12482165 0.010214027
-0.038695082 0.1328173 -0.066538215 0.058846034 -0.08485663 -0.17892851

gcn_layers.1.node_feat.V.weight f4 [30, 30]
00000000: bd96 6cbc 5b34 3e3d c2ad 1abe 6480 313d
00000010: 0182 223e 0f31 bebd 57c8 423e 91d2 12be
00000020: ba85 b33c 8f94 0e3e 9af4 15be 5807 9cbd
00000030: 7215 4c3e c9b5 a93d 90ec a6bd 5d38 2d3e
00000040: 6e34 0ebe d839 debb dacc bbbd 7cbd dfbd
00000050: f531 c53d b2b0 613d a297 b43c 358e 66bd
00000060: a727 b23d ea07 793d 805d a3bd 8b42 02be
00000070: efa4 00be 44df 653d d3a8 c13d 19b3 93bd
00000080: 54a8 dbbd eb12 75bd b2a2 393e 6e5e 4e3e
00000090: d3f5 5e3e 6555 123d 76b3 3ebe 8888 863d
000000a0: 27cd 1e3e 52c7 d4bd 6020 d0bd 63b7 853c
000000b0: 137f 75bd 1701 073e 6a00 86bc 42e3 b23c
000000c0: d27c 6a3d f4a7 45be 0f0b 27bd f413 2bbe
000000d0: 8846 4b3e 24d0 04be f13d fa3d d7a8 15be
000000e0: 6400 dabd 34d5 27be 72ed 003d 2356 c8bd
000000f0: 72af 48bd 5767 ff3b ec85 483e a5b4 cc3d
00000100: a6f9 5dbc 4bcc d3bd ef42 813d 8011 7e3d
00000110: 7cb1 1fbe 70d7 963d f9db 2b3e 3c8c 42bd
00000120: 0e2d 163e 7b83 d33d 3072 3cbe c369 04be
00000130: 7779 c53d bc29 253c 76fa d4ba f74d b83d
00000140: 3c3c ebbd f2a0 4b3d 18ef e63c 6927 adbd
00000150: 0ab3 a53d 5625 043e f935 e3bc fe3c f83d
00000160: 5a9f e73d 570b 0fbe bb52 58bd 76ea f0bd
00000170: dc77 313d feef 3f3d ecca a1bd fc22 313e
00000180: 9af0 abbd 56c4 97bd 35a3 37bc a92f f13c
00000190: 96f5 4e3e f0cc 9cbd dc4f 09bd d70b cb3d
000001a0: e576 33be 2784 aa3c f963 673d 225b 2c3e
000001b0: 3fe7 38bd 437e 343d 8546 27be 3da7 0fbe
000001c0: 033f e03b a497 103e 9541 803d f5c8 013e
000001d0: 5d81 003d d035 ddbd bcad 013d 3c41 29bd
000001e0: e308 963d b653 75bd f9ae 8b3d 641b 25be
000001f0: f91f 8d3d c65a dfbc ad52 87bd d7e0 18bd
00000200: 838f 1d3d 634c 1a3e 53b0 173e f5b1 843d
00000210: f657 e83d 3ed0 2f3d f74e e5bc 05af e73c
00000220: 9d36 84bc 093a ccbd 8f94 ce3c d703 d8bd
00000230: c8d6 03be f234 013e 4855 8fbc 765d 11bd
00000240: 532e 973c 3b2f d6bd 35ca e2bd 28c8 da3c
00000250: 8537 c03d c6a5 dc3c 47e7 0abe 83e3 8bbd
00000260: dc79 353d 2101 d0bd 9322 1fbd ee8b 4dbd
00000270: b394 89bc 195f 9e3b 7a42 1f3e 3b0b 203e
00000280: a412 943d 73af 223e c704 f63d 28e7 91bc
00000290: 3f02 bdbd 4635 25bd 77f9 083e 40c0 eebd
000002a0: 9efb bf3d 3157 7bbd 4818 be3d 0ecb d7bc
000002b0: c772 34bd e6fd 31bd 1fe2 d93d bfbc 873d
000002c0: db5e fdbc c8ab c5bd fc08 0bbe 03d4 223d
000002d0: d029 ad3d 9a0e 9b3d 934d 493e b295 0dbe
000002e0: a4a1 923a 8540 a53d c25e 143d 72c0 ee3c
000002f0: ca5b 87bc bc86 e1bd b808 24bd 592e 98bd
00000300: 57e6 3a3e 1ab3 11be e390 d4bd 8cf9 f73d
00000310: 748a 2bbc a542 5fbe 44e5 083d 0966 363e
00000320: 8fe1 fbbc 10ef 8ebd 6cb6 83be 0fbf a6bc
00000330: 27d9 b3bd d225 12bd 81ff f7bd 2781 d23d
00000340: d2f4 1bbd f45b 44bd a3b4 4d3d b35f 643e
00000350: e0e8 173c 3ab3 83bd c7bc ab3c da15 06be
00000360: 15f0 14be e402 b7bd 855a d43d 182a cd3c
00000370: 2990 ae3d f000 7dbd 40a5 fbbd 0568 1bbe
00000380: 9ada c03d c359 003c 8be9 1d3d 1f6b d83d
00000390: 03dd 083e 3b26 923d e3c5 ae3d 27a5 2cbe
000003a0: f6ff 063d 03bd 45be 5c7c ac3d 50b6 d9bd
000003b0: a2c9 09be 6c27 90bd fa73 363c da34 dabd
000003c0: 6b6c 243e 8c19 3dbe f053 943d 0534 b43d
000003d0: a9fc de3d 3f46 283d 74cb d13d 89fa 483c
000003e0: 47fe 51bd 1a57 f73d dedd 543c b783 10be
000003f0: d4d6 2fbd ebe4 81bd 213c babb 7d28 d53d
-0.014440236 0.04643665 -0.15105346 0.043335333 0.15869905 -0.09286701 0.19021736 -0.14338137
0.021914352 0.13923858 -0.1464409 -0.07618588 0.19930056 0.08286626 -0.081505895 0.16916032
-0.13887188 -0.006781798 -0.09169932 -0.10924813 0.09628669 0.05510015 0.02204496 -0.056287963
0.08698969 0.060798563 -0.07976818 -0.12720697 -0.12562917 0.056121126 0.09456029 -0.072118945
-0.107254654 -0.059832495 0.1812847 0.2015321 0.21773462 0.03572597 -0.18623146 0.0656901
0.15507947 -0.1038958 -0.10162425 0.016322797 -0.05993564 0.1318401 -0.01635762 0.02183688
0.057247944 -0.1930235 -0.04078203 -0.1670683 0.19851124 -0.12970024 0.12218846 -0.14615189
-0.10644606 -0.16389924 0.031476445 -0.09782054 -0.048995443 0.0077943015 0.19582337 0.09995393
-0.01354829 -0.103417 0.06311595 0.062028408 -0.15595049 0.0736531 0.16783132 -0.04749702
0.14665624 0.10327812 -0.18402934 -0.1293097 0.09642308 0.010080751 -0.001624896 0.089992456
-0.11486098 0.049714036 0.02819018 -0.084547825 0.080907896 0.12904868 -0.027735697 0.12121008
0.11309691 -0.1396917 -0.052813273 -0.1176347 0.043327197 0.046859734 -0.079000324 0.17298502
-0.083955005 -0.07410495 -0.011208345 0.029441671 0.20210871 -0.07656276 -0.033523425 0.09914368
-0.17525823 0.020814968 0.056491826 0.1683164 -0.04514241 0.044065725 -0.16335495 -0.1402864
0.006843449 0.14120346 0.06262509 0.12674315 0.03137337 -0.108012795 0.031659827 -0.041321978
0.07325914 -0.059894286 0.06820483 -0.1612373 0.06890864 -0.027264964 -0.06607566 -0.0373238
0.03846694 0.15068202 0.14813356 0.06479255 0.11344902 0.042923205 -0.027991755 0.028281698
-0.016139323 -0.09972007 0.025217323 -0.105476074 -0.12874901 0.12617853 -0.01749672 -0.035489522
0.018454706 -0.10458227 -0.11073724 0.02670677 0.093855895 0.026934516 -0.13564788 -0.06830504
0.044305667 -0.10156465 -0.038851332 -0.050182275 -0.016794538 0.004833114 0.15552703 0.15629284
0.07230118 0.15887241 0.1201263 -0.01781042 -0.09228944 -0.04033401 0.13376413 -0.116577625
0.09374164 -0.06136245 0.09281975 -0.026341941 -0.044054773 -0.043455027 0.10638832 0.06627797
-0.03092902 -0.09651905 -0.13577646 0.03975297 0.08455241 0.075711444 0.19658498 -0.13826635
0.0011187089 0.08068947 0.03622318 0.0291445 -0.01652326 -0.11012027 -0.040047377 -0.07430715
0.1825193 -0.14228478 -0.103791974 0.12108144 -0.0104700215 -0.21802767 0.03342177 0.17812361
-0.030747203 -0.06979191 -0.25725114 -0.020354776 -0.08781653 -0.0356806 -0.121092804 0.1027854
-0.038075276 -0.047939256 0.050221097 0.22302131 0.00927183 -0.06430669 0.02096404 -0.13094273
-0.14544709 -0.08936098 0.10368828 0.025044486 0.0852359 -0.061768472 -0.12287378 -0.15176399
0.09416695 0.007833901 0.038552802 0.10567307 0.1336556 0.07136198 0.08533838 -0.16859876
0.032958947 -0.19310383 0.08422157 -0.106304765 -0.13455823 -0.07038769 0.011136049 -0.10654612
0.16056983 -0.18466777 0.07242572 0.087989844 0.10888035 0.041082617 0.10243884 0.0122667635
-0.05126789 0.1207716 0.01299235 -0.14112745 -0.042929485 -0.06342491 -0.0056834375 0.10408113

gcn_layers.1.node_feat.V.bias f4 [30]
00000000: 4516 843b 5849 a73d 5631 533d 2a6f e23d
00000010: 5b2b 203e 91e8 1ebe c9e1 cb3d d951 88bd
00000020: 114f cf3d 28e8 14bd a7d2 6a3d 69d8 f7bd
00000030: 4487 0b3e 1edc 893c 9df3 30bd b2d0 ef3b
00000040: 0cab 8f3d 43cc 093e 4e75 4c3d c68d 343e
00000050: 9466 493c 7206 843d 334b 0b3e 32ac ecbc
00000060: cd68 a0bd 926d ea38 073e 333d 8187 bd3c
00000070: 0faf 123c 4a35 823c
0.004030975 0.08168286 0.051560722 0.11056359 0.15641539 -0.15518405 0.099551745 -0.06656236
0.101225026 -0.036354214 0.0573298 -0.12101824 0.13625818 0.016828593 -0.043201078 0.0073185796
0.070150465 0.13456826 0.049916558 0.17632207 0.012292523 0.06446542 0.13602905 -0.028890703
-0.07832489 0.000111783986 0.043760326 0.023135902 0.00895287 0.01589455

gcn_layers.1.node_norm.batch_norm.weight f4 [30]
00000000: 36fa 7f3f 0282 8b3f 56c5 7c3f c6df 703f
00000010: 3a59 7a3f cb7f 743f 3f16 753f 0d15 7c3f
00000020: 68bc 7e3f 34eb 7c3f 2cd3 703f 355e 833f
00000030: 9dbe 783f 4552 733f 9f86 713f cff1 813f
00000040: d9f2 813f 6ba9 6e3f 4a9a 7c3f 9d9b 823f
00000050: a17d 863f 41f3 833f a13c 893f ef29 7b3f
00000060: c823 803f 0034 743f 4ae9 833f 6422 753f
00000070: cdc9 7d3f 609e 793f
0.99991167 1.089905 0.9873861 0.9409145 0.977924 0.95507497 0.9573707 0.9846962
0.99506235 0.9879639 0.9407222 1.0263125 0.9716585 0.9504741 0.9434604 1.0151919
1.0152236 0.9322726 0.98672926 1.020374 1.0507089 1.030861 1.0721627 0.9811086
1.001092 0.95391846 1.0305569 0.957556 0.9913605 0.97507286

gcn_layers.1.node_norm.batch_norm.bias f4 [30]
00000000: 1b36 38bd f8bd b93d 7b5d ccbc 0857 2fbd
00000010: 622b 12bc 9cd2 86bc ce29 45bd 117f 53bc
00000020: 1efc 16bd 40dc 1f3c 848d 15bd a042 0c3b
00000030: 47ab 1a3b 1761 7e3c 19ed 2cbd 78d5 a3bc
00000040: 6f26 953d d458 39bd e4f4 963b 4d89 9a3c
00000050: f50d a4bc 4996 1bbd dd3b 623d 79cf 313d
00000060: 4ec1 913d adf9 53bd a621 afbd be9c d53c
00000070: c99b a73d 005e 8d3b
-0.044973474 0.09069437 -0.024946919 -0.04280761 -0.008921476 -0.016457848 -0.04813557 -0.012908713
-0.03686153 0.009757102 -0.036511913 0.0021402016 0.0023600624 0.015526078 -0.0422183 -0.01999925
0.07282721 -0.04525073 0.00460683 0.018864298 -0.020026186 -0.03798512 0.05523287 0.043410752
0.07116948 -0.05175178 -0.0855134 0.026075717 0.081840105 0.004314184
