models/vrp_20_k3_normalized.pt (torch, 150189 bytes, 196 tensors)

node_feature_embedding.weight f4 [16, 3]
0	0x3e894c49	0.26816013
1	0x3ea2814f	0.3173928
2	0x3f074b39	0.52849156
3	0x3e08231a	0.1329464
4	0x3eee7805	0.46575943
5	0xbe827c8f	-0.25485656
6	0xbe88e862	-0.26739794
7	0xbea14020	-0.31494236
8	0x3f1d0e8b	0.61350316
9	0x3eaddd52	0.33957916
10	0xbe477f21	-0.1948209
11	0x3e2e1bcd	0.17002793
12	0x3ef5f047	0.4803488
13	0x3ebc30c3	0.36755952
14	0xbdca83d4	-0.098884255
15	0x3da06b40	0.07832956
16	0xbe888d3b	-0.2667025
17	0x3ed70549	0.4199622
18	0x3e55d271	0.20881058
19	0x3eb11ab5	0.34590688
20	0x3ebcdb76	0.36886185
21	0x3e88f626	0.26750296
22	0xbd292ea8	-0.04130426
23	0xbe313158	-0.1730398
24	0x3ee38697	0.4443862
25	0x3ea192e1	0.31557372
26	0xbcaac975	-0.020848015
27	0xba2d0e49	-0.0006601555
28	0xbf031d16	-0.51216257
29	0xbf3ae0fb	-0.7299954
30	0x3e7adc61	0.2449813
31	0xbe4604bb	-0.19337742
32	0xbe223e11	-0.15843989
33	0x3e03de6c	0.12877816
34	0x3e723fd4	0.23657161
35	0xbe26cac1	-0.16288282
36	0xbd8671d4	-0.0656468
37	0xbed13ad0	-0.40865183
38	0x3ce9530c	0.028481983
39	0xbece9d79	-0.40354517
40	0x3f1a8817	0.60363907
41	0x3f0e09ba	0.5548359
42	0xbecbcdc4	-0.39805424
43	0xbde062cd	-0.10956345
44	0xbeb62545	-0.3557531
45	0x3e88b89b	0.26703343
46	0x3e8a0680	0.26958084
47	0xbdafeee9	-0.0859049

distance_embedding.weight f4 [8, 1]
0	0xbf20febb	-0.6288869
1	0xbf709106	-0.9397129
2	0x3f8e2934	1.1106324
3	0xbf7d2ed7	-0.98899597
4	0xbf8f6b81	-1.1204683
5	0x3e969c01	0.29415897
6	0x3fa17832	1.2614806
7	0x3f749aeb	0.95548886

edge_feature_embedding.weight f4 [3, 8]
0	0x3ed2ff79	0.41210535
1	0xc000f7ef	-2.0151327
2	0xbea82c6f	-0.328464
3	0x3f5c8d0c	0.8615272
4	0xbbcee50c	-0.0063139256
5	0xbf4ae4d5	-0.7925542
6	0x3f7cd5f8	0.9876399
7	0xbdc9a214	-0.09845367
8	0x3d9aaa22	0.075519815
9	0xbfa4c124	-1.2871442
10	0xbf8161e5	-1.0108
11	0xbf64781f	-0.8924579
12	0xbe751989	-0.23935522
13	0x403729cf	2.8619268
14	0xbfce2518	-1.610507
15	0xbe3128a0	-0.17300653
16	0xbf8edab0	-1.1160488
17	0xbfdf41e4	-1.7441983
18	0xbea9c669	-0.33159187
19	0xbf0b08e1	-0.54310423
20	0xbfb6bb5c	-1.4275928
21	0xbf8c24b0	-1.0948696
22	0x3ec15cd9	0.3776615
23	0x3fb54469	1.4161502

gcn_layers.0.node_feat.U.weight f4 [16, 16]
0	0x3e76a55b	0.24086516
1	0x3e68b183	0.22723965
2	0xbd80457b	-0.06263252
3	0xbd85fc5e	-0.06542276
4	0x3e8c8939	0.27448443
5	0x3e0ae168	0.13562548
6	0x3e2bc3f2	0.16773966
7	0xbe382f28	-0.17986739
8	0x3cdd5a70	0.027020663
9	0xbd3006bb	-0.04297517
10	0x3d79be44	0.060972467
11	0x3e371dbb	0.17882435
12	0xbe6c6f59	-0.23089351
13	0xbe3c6777	-0.18398844
14	0x3da93f6a	0.082640484
15	0x3e1253ae	0.14289734
16	0xbe55cd10	-0.20879006
17	0xbeba6e69	-0.3641236
18	0x3df07fd3	0.117431305
19	0x3c5e8df1	0.013583646
20	0x3d60bc83	0.05486728
21	0xbd0bd6e7	-0.034140494
22	0xbda9885c	-0.082779616
23	0x3e467950	0.19382215
24	0x3e2db5df	0.1696391
25	0xbcd891d3	-0.026436722
26	0xbded840b	-0.11597451
27	0xbd9a1f68	-0.075255215
28	0x3ec618fa	0.3869093
29	0xbd877085	-0.06613258
30	0xbe29108c	-0.16510218
31	0xbe836d99	-0.25669554
32	0xbe648774	-0.22317296
33	0x3d6fd998	0.058557123
34	0xbd815811	-0.063156255
35	0xbd2eb7b6	-0.04265567
36	0xbe1e48e5	-0.15457495
37	0xbd4409d1	-0.047860924
38	0xbdb3e486	-0.08783822
39	0xbe6b59b1	-0.22983433
40	0xbea2af3a	-0.31774312
41	0xbe40e39c	-0.18836826
42	0x3d5c4d91	0.05378491
43	0xbe459d9f	-0.19298409
44	0xbe4b1bb0	-0.1983478
45	0x3d6a152e	0.057149105
46	0xbcb36225	-0.021897385
47	0xbe649e0b	-0.22325914
48	0x3bacb113	0.0052701323
49	0x3e35c5f8	0.177513
50	0xbe62d443	-0.22151284
51	0x3d933d69	0.071894474
52	0xbccc59dc	-0.024945192
53	0xbd72e83c	-0.059303507
54	0x3e5ca8d7	0.21548782
55	0xbc93f84c	-0.018062733
56	0x3dd11937	0.102098875
57	0x3e1bdf04	0.15221792
58	0xbe9d3036	-0.30700845
59	0x3e69b56e	0.22823116
60	0x3abc48bb	0.0014364937
61	0x3eabc711	0.33550313
62	0xbbe2495d	-0.0069057182
63	0x3de543a1	0.1119454
64	0x3e628e62	0.22124627
65	0xbe58dfe5	-0.21179159
66	0xbe2dad0c	-0.16960543
67	0x3da29d84	0.079402
68	0x3e2263ae	0.15858337
69	0x3d85b2f7	0.065282755
70	0x3d341ed6	0.04397472
71	0x3e25d614	0.16194946
72	0x3e3c80ef	0.1840856
73	0x3d90e5dc	0.07075092
74	0x3e4c0d8e	0.19927046
75	0x3c6b54e9	0.014363506
76	0xbcf23516	-0.029566329
77	0x3a8f9fef	0.0010957698
78	0xbdcbb1a1	-0.099459894
79	0x3e82c9bb	0.25544533
80	0xbe8abc83	-0.27096948
81	0x3e2ee442	0.17079261
82	0xbd51e193	-0.051240515
83	0xbd9982af	-0.07495629
84	0x3d97ee2f	0.07418477
85	0xbe95c3ad	-0.2925085
86	0xbe215f13	-0.15758924
87	0x3e48bd86	0.19603547
88	0x3e03fe32	0.12889937
89	0x3e693de2	0.22777513
90	0xbcb69195	-0.022286216
91	0x3d856b2a	0.065145805
92	0xbe0f25eb	-0.13979308
93	0xbd99225a	-0.07477255
94	0x3e2127a4	0.15737778
95	0xbd13787e	-0.036003582
96	0x3baba9ee	0.005238763
97	0x3cc7e47c	0.024400942
98	0x3d87fccf	0.06640016
99	0xbcbedac0	-0.023297668
100	0x3e267b3b	0.16257946
101	0xbe94e0fa	-0.29077893
102	0x3e1f4b43	0.15556054
103	0xbdd7df1c	-0.105406016
104	0x3e2dc865	0.16970976
105	0xbde3c0c2	-0.1112075
106	0x3d8f29ee	0.06990419
107	0x3ea9df09	0.33177975
108	0xbd9d4db6	-0.07680838
109	0xbd9a2127	-0.075258546
110	0xbe7ffe28	-0.24999297
111	0x3e5af6c4	0.21383196
112	0xbdb6a0f9	-0.08917422
113	0xbdf9dd58	-0.12200421
114	0x3dd2045b	0.10254737
115	0x3e4bcdeb	0.1990277
116	0xbe930de4	-0.28721535
117	0xbc94c0c3	-0.018158322
118	0x3cafb5da	0.021449018
119	0x3da8842a	0.08228333
120	0xbdf2616e	-0.118349895
121	0x3d8e0136	0.06933825
122	0xbdb15a79	-0.086598344
123	0x3c29cb8b	0.01036347
124	0xbe89df3c	-0.26928127
125	0x3de98676	0.114025995
126	0x3e604697	0.21901928
127	0xbeb20016	-0.3476569
128	0xbe4d2533	-0.20033722
129	0x3e305526	0.17219982
130	0x3df9b026	0.12191801
131	0xbe626fa8	-0.22112906
132	0xbe5cae7a	-0.21550933
133	0xbe31807c	-0.17334169
134	0xbd2ad349	-0.041705403
135	0xbbeec673	-0.0072868406
136	0xbe1f1960	-0.15537024
137	0xbd8b6577	-0.06806462
138	0xbe7f3e4c	-0.24926108
139	0xbe4a8d9b	-0.1978058
140	0x3dd6611e	0.104677424
141	0x3e241834	0.16024858
142	0x3deb8116	0.114992306
143	0x3b0762f9	0.0020658358
144	0xbdf5df73	-0.1200551
145	0xbc9af867	-0.018917276
146	0x3e82cdac	0.2554754
147	0x3dc57b23	0.09642627
148	0x3db88781	0.0901022
149	0x3ed50825	0.41607776
150	0x3ddb4df5	0.107082285
151	0xbe5f14c4	-0.21785265
152	0x3c6903ee	0.014222128
153	0x3e7b2776	0.24526772
154	0xbda803ea	-0.082038715
155	0x3e02facd	0.12790985
156	0xbde98c69	-0.11403734
157	0xbe895683	-0.26823816
158	0xbdf13ac5	-0.117787875
159	0xbdec62ee	-0.11542307
160	0x3e0624d7	0.13099991
161	0x3eab1da6	0.33421057
162	0xbda7aee0	-0.08187652
163	0xbd469e77	-0.048490968
164	0xbe07dd24	-0.13267952
165	0xbe0a6a60	-0.13517141
166	0x3e6c9431	0.23103406
167	0xbd3a4eda	-0.045485355
168	0x3e32abbc	0.17448324
169	0xbbffc62f	-0.0078056077
170	0xbe013425	-0.12617548
171	0xbd977049	-0.073944636
172	0xbc7efb3c	-0.015562829
173	0x3e2a3cb3	0.16624717
174	0x3dad352e	0.08457409
175	0x3d0011fa	0.031267144
176	0x3d19747c	0.037464604
177	0xbdcfb948	-0.101427615
178	0x3caad5c6	0.020853888
179	0x3e97b4a0	0.29629993
180	0x3d65193e	0.055932276
181	0x3e15732b	0.14594714
182	0x3debd2e8	0.115148365
183	0x3e86849d	0.2627305
184	0xbd19d551	-0.03755695
185	0xbe1b886a	-0.15188757
186	0x3e1fe050	0.15612912
187	0xbb0732e2	-0.0020629694
188	0x3d88cb29	0.06679375
189	0xbeaac0c8	-0.33350205
190	0x3e0af086	0.13568315
191	0xbe029487	-0.12751971
192	0xbe25d3b6	-0.16194043
193	0xbe703466	-0.23457488
194	0x3d8e7e86	0.06957726
195	0xbe81b0a7	-0.25330088
196	0xbe270817	-0.1631168
197	0xbe1442ab	-0.14478557
198	0xbe30933b	-0.17243664
199	0xbe8cf486	-0.27530307
200	0xbdbca5b7	-0.09211295
201	0xbce56953	-0.028004324
202	0xbc2ee99e	-0.010675816
203	0x3e04f61e	0.12984511
204	0xbdf34653	-0.11878648
205	0x3d8f719a	0.0700409
206	0x3df02a7c	0.11726853
207	0x3d9e674e	0.077345476
208	0xbe0fac92	-0.14030674
209	0x3e2fe2f6	0.17176422
210	0xbc89181f	-0.016735135
211	0xbdbf558d	-0.093424894
212	0x3e2aba3b	0.16672604
213	0x3d293666	0.041311644
214	0x3e0ee46a	0.1395432
215	0x3db192eb	0.086706005
216	0x3e8709f3	0.26374778
217	0xbc7f2009	-0.015571603
218	0x3e8296c0	0.25505638
219	0x3ebc228f	0.36745116
220	0x3db4e4cd	0.08832703
221	0x3e0d69f9	0.13809957
222	0xbe28c2c1	-0.16480543
223	0x3e55ee63	0.20891719
224	0xbe4d1253	-0.20026521
225	0x3e76f232	0.24115828
226	0x3de341a5	0.11096505
227	0x3bf75f02	0.0075491676
228	0x3e7b81c3	0.24561219
229	0xbe49b304	-0.19697195
230	0xbded4cf3	-0.115869425
231	0xbc8615c3	-0.016367799
232	0xbda69cd2	-0.0813538
233	0xbe185db7	-0.148795
234	0x3e20b66c	0.15694588
235	0x3d92d857	0.0717017
236	0xbeaeafc7	-0.34118482
237	0x3e42cb72	0.1902292
238	0xbded02e4	-0.11572817
239	0xbbb0e0fc	-0.005397914
240	0x3ddc421a	0.10754795
241	0x3e1d0a41	0.15335943
242	0xbdd689d0	-0.104755044
243	0xbd384928	-0.044991642
244	0xbe1046a7	-0.14089452
245	0xbe2015c8	-0.15633309
246	0xbe0d426e	-0.13794872
247	0xbea10097	-0.31445763
248	0x3e50f768	0.20406878
249	0x3ce2851b	0.02765136
250	0xbe8377d0	-0.25677347
251	0x3e02a6a1	0.12758876
252	0x3df4bcf4	0.119501024
253	0x3e680b5d	0.22660585
254	0x3e1b6259	0.15174235
255	0xbbdf150c	-0.006807929

gcn_layers.0.node_feat.U.bias f4 [16]
0	0x3e1506b4	0.14553338
1	0xbb910998	-0.0044261925
2	0x3d4cc21f	0.049989816
3	0xbe8bdcc9	-0.27316883
4	0xbea4e287	-0.32204077
5	0xbe440506	-0.19142541
6	0x3dacb4b4	0.08432904
7	0x3cf9ac86	0.030477773
8	0x3c585a26	0.013205087
9	0x3e13067c	0.14357942
10	0x3e29a127	0.16565381
11	0xbdcb8459	-0.09937353
12	0x3de62187	0.112368636
13	0x3e33703f	0.17523287
14	0xbdd2c02c	-0.1029056
15	0xbd7644ec	-0.060124323

gcn_layers.0.node_feat.V.weight f4 [16, 16]
0	0xbe0bc2e8	-0.1364857
1	0x3df8b6e7	0.12144261
2	0x3e33e91c	0.17569393
3	0xbcb478d9	-0.02203028
4	0xbe33c47b	-0.1755542
5	0xbd93c6d0	-0.07215655
6	0xbe8f684b	-0.28009257
7	0xbc06d0d0	-0.008228496
8	0xbe0bf8c0	-0.1366911
9	0x3e655262	0.22394708
10	0x3d509e89	0.05093244
11	0xbe141f7b	-0.14465134
12	0x3e49f88f	0.19723724
13	0x3d964ecb	0.07339247
14	0x3debfead	0.11523185
15	0x3d1fd7ad	0.039024044
16	0x3d664665	0.056219477
17	0x3e4630fe	0.19354627
18	0xbdcfd3cc	-0.10147819
19	0x3d5d0b0e	0.05396562
20	0x3e327dfc	0.17430872
21	0xbe3677b3	-0.17819099
22	0xbc2f6087	-0.010704166
23	0x3d8ba9b4	0.06819478
24	0xbdf418e8	-0.11918813
25	0x3d5b9b5f	0.05361497
26	0xbd652f30	-0.055953205
27	0x3d803b12	0.06261267
28	0x3db01589	0.085978575
29	0x3e8873fb	0.26650986
30	0x3e47c98d	0.1951048
31	0x3e864e78	0.26231742
32	0x3e606cae	0.21916458
33	0x3dec07fb	0.1152496
34	0xbd1c4718	-0.038153738
35	0x3e83ddb2	0.25755078
36	0x3e4b06d4	0.19826823
37	0x3e5e4ce7	0.21709023
38	0xbdffb736	-0.124861166
39	0x3e81a2e2	0.25319582
40	0x3e26f4eb	0.16304366
41	0x3dc81074	0.09768763
42	0x3ce785ec	0.028262101
43	0x3e73b71a	0.23800316
44	0x3de626a9	0.112378426
45	0x3d41e23c	0.047334895
46	0xbe34ba4b	-0.1764919
47	0xbdab4b5c	-0.08363983
48	0x3b658488	0.0035021622
49	0xbea690b3	-0.32532272
50	0xbd823ffb	-0.063598596
51	0x3e69d3e2	0.22834733
52	0x3e2b4aee	0.16727802
53	0x3e1ddbfc	0.15415949
54	0xbe90237e	-0.28152078
55	0xbc83db80	-0.016095877
56	0xbe51b620	-0.20479631
57	0x3da3caca	0.07997663
58	0x3e9fcdfe	0.31211847
59	0xbe596d56	-0.21233115
60	0xbd88b860	-0.06675792
61	0x3d170f37	0.036879744
62	0x3d6a5be3	0.057216536
63	0xbdfc01e1	-0.12305046
64	0xbe85c81b	-0.2612923
65	0xbe27c11a	-0.16382256
66	0x3cc0e47c	0.02354645
67	0x3dc08ede	0.0940225
68	0x3d1f01d2	0.038820095
69	0xbe89eeea	-0.2694009
70	0xbe659fda	-0.2242426
71	0x3d3e4fdc	0.04646288
72	0xbe0f60a5	-0.1400171
73	0x3caa5e7b	0.020797005
74	0xbe4043c7	-0.18775855
75	0xbd18ec22	-0.03733457
76	0x3e049326	0.12946758
77	0x3ead713b	0.3387545
78	0x3e2a1f2c	0.16613454
79	0xbe954378	-0.29153037
80	0x3d879bcb	0.06621512
81	0xbdccc38b	-0.09998234
82	0x3d2bd27b	0.041948777
83	0x3e3e0136	0.1855515
84	0xbe01b162	-0.12665322
85	0xbe57df6a	-0.2108132
86	0xbbe08f75	-0.006853039
87	0xbe1cafbf	-0.15301417
88	0xbdeefa0f	-0.11668789
89	0xbe217389	-0.1576673
90	0xbdef4758	-0.116835296
91	0x3e2a2723	0.16616492
92	0x3d912530	0.07087171
93	0xbdf61142	-0.120150104
94	0xbdc6e2c9	-0.097112246
95	0x3e1f1f0e	0.1553919
96	0xbda25e4f	-0.07928144
97	0xbcda93f2	-0.026681874
98	0x3d2c0b9f	0.04200327
99	0xbe797286	-0.24360093
100	0xbeb4d5f5	-0.35319486
101	0x3cc1cd14	0.02365736
102	0xbda28672	-0.079358
103	0xbe83ffb0	-0.25781012
104	0xbd89e6af	-0.067334525
105	0x3ea0885a	0.31354028
106	0x3e1f709e	0.15570304
107	0x3ce89a00	0.028393745
108	0xbd905caa	-0.07048924
109	0xbd460bdd	-0.048351157
110	0xbcf75a31	-0.030194374
111	0x3db52d55	0.08846537
112	0x3e9471ad	0.28992978
113	0xbd32b0d4	-0.043625668
114	0xbe3a99ac	-0.18222684
115	0x3e92656c	0.28593004
116	0xbd7f355c	-0.062306747
117	0xbd3c0f2f	-0.045912918
118	0xbd5b4b55	-0.05353864
119	0x3ea936e6	0.33049697
120	0x3de7aad6	0.11311881
121	0xbe00bae5	-0.12571295
122	0x3d822104	0.063539535
123	0xbd3a55c1	-0.045491938
124	0xbb27c874	-0.0025601657
125	0x3e0d616e	0.13806698
126	0xbd8c31c7	-0.06845432
127	0x3eb6e0de	0.35718435
128	0x3e78ec8c	0.24308985
129	0x3dce3411	0.10068525
130	0x3d8572dc	0.06516048
131	0xbcb572df	-0.022149501
132	0x3dbab811	0.09117139
133	0x3e6a1015	0.22857697
134	0xbe1a5553	-0.15071611
135	0x3c42319d	0.011852649
136	0x3e74fc57	0.23924385
137	0x3e33f84e	0.1757519
138	0x3e597457	0.21235786
139	0x3e5103b4	0.20411569
140	0xba6cfe55	-0.0009040584
141	0xbe384a14	-0.17997009
142	0xbe656859	-0.22403087
143	0x3e445a73	0.19175129
144	0x3d8eadf9	0.069667764
145	0x3df1e8f4	0.118120104
146	0xbdedf4d4	-0.11618963
147	0xbe122410	-0.14271569
148	0x3d224a6d	0.03962176
149	0xbeb6a624	-0.3567363
150	0x3d8e1123	0.06936862
151	0xbe034584	-0.12819487
152	0x3cf19ec9	0.02949466
153	0x3c3ffc1f	0.011717825
154	0xbec8c535	-0.39212957
155	0x3e67d302	0.22639087
156	0xbe0a9524	-0.13533455
157	0xbce4f3b1	-0.027948232
158	0x3e7a8b30	0.24467158
159	0xbdf239cc	-0.1182743
160	0x3d2e4e58	0.042555183
161	0xbe9bcdb5	-0.3043038
162	0x3eac7d7e	0.33689493
163	0x3e77fe4d	0.24218102
164	0x3e0c82fa	0.13721839
165	0x3dd1a65c	0.10236809
166	0xbdf75fbe	-0.12078808
167	0xbe3950a1	-0.18097164
168	0x3d53a416	0.051670156
169	0x3e101c2e	0.1407325
170	0x3cb264c3	0.021776563
171	0xbd3d42f4	-0.04620643
172	0x3e39536f	0.18098234
173	0xbd7a4146	-0.061097406
174	0x3dc31c0e	0.095268354
175	0x3dbf4573	0.09339418
176	0x3de643dd	0.11243413
177	0x3d487309	0.04893783
178	0x3c760d92	0.015017884
179	0xbeb48879	-0.3526037
180	0xbe03272e	-0.12807915
181	0xbd10db83	-0.035365593
182	0x3e226052	0.15857056
183	0x3d1e3814	0.0386277
184	0x3cf69616	0.030100863
185	0xbd9081be	-0.07055996
186	0x3c96517c	0.018349402
187	0xbe1efd20	-0.15526247
188	0xbdc2fe0b	-0.09521111
189	0x3e8a1c64	0.26974785
190	0xbcb59697	-0.022166533
191	0xbe83796a	-0.2567857
192	0x3e82a67c	0.25517642
193	0x3e35c05b	0.17749159
194	0x3d698eed	0.05702107
195	0x3ec0df54	0.37670386
196	0xbe037a62	-0.12839654
197	0x3e035bf7	0.1282805
198	0xbc5829f1	-0.013193593
199	0x3e2ae31e	0.16688201
200	0x3e9990c1	0.2999325
201	0x3e05ac02	0.13053897
202	0x3e7358bb	0.23764317
203	0x3e31db4b	0.1736881
204	0x3c703b86	0.014662629
205	0x3d86f79f	0.06590199
206	0xbe854913	-0.26032314
207	0xbd65ab0a	-0.05607132
208	0xbd2f8d02	-0.042859085
209	0xbd1f3d21	-0.038876656
210	0x3e1d1fc6	0.15344152
211	0x3e108b81	0.14115717
212	0xbe35c306	-0.17750177
213	0x3e15eff4	0.14642316
214	0x3da35d70	0.07976806
215	0xbe18baa6	-0.1491495
216	0xbd81237e	-0.06305598
217	0x3e2f33bb	0.17109577
218	0x3e1e9730	0.15487361
219	0x3df3e855	0.11909548
220	0x3de19a60	0.11015773
221	0x3e196d81	0.14983179
222	0xbc4ddc5a	-0.012564743
223	0xbea329b4	-0.31867754
224	0x3e37a63a	0.17934504
225	0xbe91b871	-0.2846103
226	0x3e371056	0.17877325
227	0x3e057867	0.13034211
228	0xbdd8010f	-0.10547077
229	0x3e239ae3	0.15977053
230	0xbb9a2d65	-0.0047051185
231	0x3d006008	0.031341583
232	0xbc079686	-0.008275634
233	0x3e0b6438	0.13612449
234	0x3e2597b8	0.16171157
235	0x3df0114f	0.11722051
236	0x3e996792	0.2996183
237	0x37350a48	1.07908345e-05
238	0x3dd2599d	0.102709986
239	0x3e536c6b	0.20646827
240	0xbcd70d9d	-0.026251609
241	0x3dc39325	0.0954955
242	0x3c95af21	0.018271985
243	0x3d65bbc3	0.056087267
244	0x3e477b25	0.1948057
245	0xbcc735eb	-0.024317702
246	0x3daca17e	0.0842924
247	0xbce314ff	-0.027719973
248	0x3d7aab0c	0.06119828
249	0x3e9f3509	0.3109515
250	0xbd87c62d	-0.06629596
251	0xbe69b44a	-0.22822681
252	0x3e898ed7	0.2686679
253	0xbe8535ef	-0.2601771
254	0xbe160ba2	-0.14652875
255	0x3d80fa46	0.06297736

gcn_layers.0.node_feat.V.bias f4 [16]
0	0xbe45d511	-0.1931956
1	0xbe5727f6	-0.21011338
2	0x3d267ea0	0.040648103
3	0x3dc62b8e	0.09676276
4	0xbe054acc	-0.13016814
5	0x3d66e315	0.056368906
6	0xbe73cece	-0.23809358
7	0x3e0004c2	0.12501815
8	0xbd983eac	-0.07433829
9	0x3e3640ff	0.17798232
10	0xbceaa607	-0.028643621
11	0xbd5c79ba	-0.053827025
12	0xbd19e01c	-0.037567243
13	0x3e5360d6	0.20642409
14	0x3ca67780	0.020320654
15	0xbcdf7481	-0.027277233

gcn_layers.0.node_norm.batch_norm.weight f4 [16]
0	0x3f5fb41c	0.873842
1	0x3f61096b	0.87904996
2	0x3f283b67	0.6571564
3	0x3f73b006	0.95190465
4	0x3f886a1b	1.0657381
5	0x3f6f34f2	0.93440163
6	0x3f2ff91b	0.6873948
7	0x3f4a4ad5	0.79020435
8	0x3f7751bb	0.96609086
9	0x3f5f41e4	0.87209916
10	0x3f4ccfbe	0.8000449
11	0x3f75a22a	0.9595057
12	0x3f4119fb	0.7543027
13	0x3f525e30	0.8217497
14	0x3f4a79b5	0.7909196
15	0x3f76b213	0.9636547

gcn_layers.0.node_norm.batch_norm.bias f4 [16]
0	0xbcf3f1ef	-0.029778449
1	0x3e188a29	0.14896454
2	0x3d869ecb	0.06573256
3	0x3ea156cb	0.3151153
4	0x3d4137ef	0.047172483
5	0xbf957b70	-1.1678295
6	0xbe4e81c3	-0.20166688
7	0x3d178f4e	0.0370019
8	0x3e97dcd8	0.29660678
9	0xbde591a0	-0.112094164
10	0xbcb36ac1	-0.02190149
11	0x3d34874c	0.04407434
12	0xbd0dde9c	-0.034636125
13	0x3e057506	0.13032922
14	0xbe087e08	-0.13329327
15	0xbc5528d1	-0.01301022

gcn_layers.0.edge_feat.U.weight f4 [16, 16]
0	0x3f0b55a2	0.5442754
1	0x3ede38e2	0.43402773
2	0xbddd34ae	-0.108010635
3	0x3e23c963	0.15994792
4	0x3ec5a96c	0.3860582
5	0xbd4e9b80	-0.050441265
6	0xbcce3796	-0.02517299
7	0xbe68685b	-0.22696058
8	0x3e7011de	0.23444316
9	0xbe03fb15	-0.12888749
10	0xbe8bd2f6	-0.27309388
11	0x3dbe8291	0.09302247
12	0x3d98a91e	0.074541315
13	0x3e5b190f	0.21396278
14	0x3c029f58	0.007972561
15	0xbd26ad39	-0.04069254
16	0x3e8d255d	0.27567568
17	0x3e810688	0.25200295
18	0xbe1f5659	-0.15560283
19	0xbdde702c	-0.10861239
20	0xbdb026e6	-0.08601169
21	0xbe327e22	-0.17430928
22	0x3e1a9d54	0.15099078
23	0x3da92e21	0.082607515
24	0x3e17ce67	0.1482483
25	0xba80f6b4	-0.0009839148
26	0x3df99c4d	0.12188015
27	0x3e6fdf93	0.2342513
28	0x3d685237	0.05671903
29	0xbe9bf589	-0.30460766
30	0x3ea3770e	0.3192677
31	0x3dcc1159	0.09964246
32	0xbd1322a3	-0.035921704
33	0xbe285b61	-0.16441108
34	0x3e97c065	0.29638973
35	0xbe41fff9	-0.18945302
36	0x3d861f87	0.06548982
37	0x3cf95960	0.030438125
38	0x3e362794	0.17788535
39	0x3e89f2ad	0.2694296
40	0xbe467487	-0.19380389
41	0xbd197662	-0.037466414
42	0xbe48a785	-0.19595154
43	0x3da9cfba	0.08291574
44	0xbe97ff11	-0.29686788
45	0xbcb4aee6	-0.022056054
46	0xbe83890e	-0.25690502
47	0x3d6e1fd5	0.058135826
48	0x3fc8abd3	1.5677437
49	0x3f9064c8	1.1280756
50	0xbf71a0d2	-0.9438602
51	0x3f943db4	1.158133
52	0x3f6b5b38	0.91936064
53	0xbf7c093a	-0.9845158
54	0xbf7eb1f0	-0.9949026
55	0xbf9963e7	-1.1983613
56	0x3e9da39f	0.30788895
57	0x3ea7522e	0.32679886
58	0x3ec17e48	0.37791657
59	0x3d439663	0.04775084
60	0x3ea6add6	0.325545
61	0x3d4a4bb1	0.04938859
62	0xbe1cad7c	-0.15300554
63	0xbd092ef3	-0.03349204
64	0x3e76a6be	0.24087045
65	0x3e67a869	0.22622837
66	0xbca04eee	-0.019568887
67	0xbdc3dfcc	-0.0956417
68	0xbe57ddbb	-0.21080677
69	0x3c4ebd9b	0.012618448
70	0x3e7c221d	0.24622388
71	0xbd2cd0c2	-0.042191274
72	0xbecb13de	-0.39663595
73	0x3d91d61f	0.071209185
74	0x3e6755b6	0.2259129
75	0xbe81a5a1	-0.25321677
76	0xbe0c5b17	-0.13706623
77	0xbbed2f89	-0.0072383326
78	0x3e2e4088	0.17016804
79	0x3dde4e72	0.10854806
80	0xbe93cf39	-0.28869036
81	0xbe8c8d33	-0.27451476
82	0xbdeca6a6	-0.11555223
83	0x3dc27d48	0.09496552
84	0x3d256bc3	0.040385973
85	0x3cf1ae7b	0.029502144
86	0xb8b409ea	-8.5849155e-05
87	0x3e56fe92	0.20995548
88	0x3e238201	0.15967561
89	0xbdd16066	-0.10223465
90	0xbe1cebdc	-0.15324348
91	0xbd01754a	-0.031605996
92	0x3df902f4	0.121587664
93	0xbe57ea89	-0.21085562
94	0x3de0ad2d	0.10970531
95	0xbe9ed816	-0.31024235
96	0xbe4c64b0	-0.19960284
97	0x3c703a34	0.014662314
98	0x3e52bc10	0.20579553
99	0xbe0582e4	-0.13038212
100	0xbe05df08	-0.13073361
101	0xbdb47c16	-0.0881273
102	0xbdca5bb4	-0.09880772
103	0x3ce38193	0.027771747
104	0x3e9abcae	0.30222076
105	0xbcfe27d0	-0.031024843
106	0x3e8ccec5	0.27501503
107	0xbd7c8091	-0.061646048
108	0x3e88f374	0.2674824
109	0xbe55dc8c	-0.20884913
110	0x3e9ec363	0.31008443
111	0xbec4fcd0	-0.3847413
112	0xbe9b49dd	-0.3032979
113	0xbe2bffe4	-0.16796833
114	0xbcee4686	-0.029086363
115	0xbe1d6d6f	-0.15373777
116	0xbe6880af	-0.22705339
117	0xbdea2f75	-0.11434833
118	0x3ea7c4e9	0.32767418
119	0xbdfc0c66	-0.12307052
120	0x3dc54246	0.09631781
121	0xbd810da0	-0.06301427
122	0x3e028d4f	0.12749217
123	0x3e76cb1d	0.24100919
124	0xbde42818	-0.1114046
125	0x3e6ca0a6	0.23108158
126	0xbd8bb611	-0.06821836
127	0xbe9f8eea	-0.31163722
128	0x3f3a59a6	0.7279304
129	0x3f11ee2c	0.57004046
130	0xbf84171b	-1.0319551
131	0x3f26956f	0.6507177
132	0x3f2195fe	0.63119495
133	0xbf2db2e2	-0.6785108
134	0xbf2199d4	-0.6312535
135	0xbf42015d	-0.7578333
136	0x3e4c0fca	0.19927898
137	0x3e887673	0.2665287
138	0xbc9f7fd0	-0.019470125
139	0x3e4af705	0.19820793
140	0x3e8bc79c	0.27300727
141	0xbc64a842	-0.013956131
142	0xbe58c928	-0.21170485
143	0xbe9e3096	-0.30896443
144	0xbe425401	-0.18977357
145	0xbd9630f6	-0.07333557
146	0x3d8af310	0.06784642
147	0x3e195d38	0.14976966
148	0xbe4e7286	-0.20160875
149	0xbe00ad60	-0.12566137
150	0x3dcc493f	0.09974908
151	0xbdbcf90f	-0.09227192
152	0xbdef939c	-0.11698076
153	0xbdebc165	-0.115114965
154	0xbe126d9c	-0.14299625
155	0x3e2248df	0.1584811
156	0x3e50fc6c	0.20408791
157	0x3d59da46	0.053186677
158	0x3dcab47e	0.098977074
159	0xbdbe384a	-0.0928808
160	0xbe6ce7f1	-0.23135354
161	0xbd240f58	-0.040053695
162	0x3e1b047c	0.1513843
163	0xbe854499	-0.26028898
164	0xbd8e0b57	-0.06935757
165	0x3cc5e64c	0.024157666
166	0xbe36814d	-0.17822762
167	0xbd9c57c4	-0.076339275
168	0xbe247f3a	-0.16064158
169	0xbdc377a8	-0.09544307
170	0xbe12bbe6	-0.1432949
171	0x3d3c4707	0.045966174
172	0xbe7db556	-0.24776205
173	0xbdffba43	-0.124866985
174	0xbd6280ae	-0.0552985
175	0x3ece5bab	0.40304312
176	0x3d0578a8	0.03258577
177	0x3e9acf93	0.30236492
178	0xbe5faff6	-0.21844468
179	0x3d642154	0.055695847
180	0x3e9eeb52	0.3103891
181	0x3d57b755	0.052665073
182	0xbe8a5904	-0.2702104
183	0xbe2046a5	-0.15651949
184	0x3c3e5583	0.011617067
185	0xbdbad297	-0.09122198
186	0xbdb09ce1	-0.08623672
187	0x3e39ffbe	0.18163964
188	0x3e66f514	0.22554427
189	0x3dbbba0e	0.091663465
190	0x3e756557	0.2396444
191	0xbddc2529	-0.10749275
192	0x3e87e0c1	0.2653866
193	0x3e87da05	0.26533523
194	0xbe09f013	-0.13470487
195	0xbe09ebad	-0.1346881
196	0xbe46d75c	-0.1941809
197	0x3e4a20b2	0.19739035
198	0x3dcd1c06	0.10015111
199	0x3d1f552c	0.038899586
200	0xbe1cc9b3	-0.15311317
201	0xbc162782	-0.009164693
202	0x3dd9effb	0.10641476
203	0x3e82d149	0.25550297
204	0x3e8bca1c	0.27302635
205	0x3dfd353a	0.12363668
206	0x3e6a0741	0.2285433
207	0x3ca061ae	0.019577827
208	0xbe90e343	-0.28298387
209	0xbe84b5e2	-0.25920016
210	0x3e01ffdc	0.12695259
211	0xbd525eac	-0.051359817
212	0xbe84f0fa	-0.259651
213	0xbcb003b2	-0.021486137
214	0x3e39abf0	0.18131995
215	0x3e75b444	0.23994547
216	0x3ea8a55d	0.32938662
217	0xbc08af60	-0.008342594
218	0xbe34ec4f	-0.1766827
219	0x3d2e634d	0.04257517
220	0x3d63efe8	0.055648714
221	0xbe37ee73	-0.17962055
222	0x3db96920	0.09053254
223	0x3e09a35e	0.13441226
224	0x3d85ba48	0.06529671
225	0x3d5f4ce1	0.054516677
226	0x3e8b8241	0.27247813
227	0x3e21c77d	0.15798755
228	0x3ce1ebaf	0.027578203
229	0xbe4dbc2e	-0.20091316
230	0xbe0643f6	-0.13111863
231	0x3d5dfe5f	0.054197665
232	0xbe77c761	-0.24197151
233	0xbde5ea1f	-0.11226296
234	0x3d0ea3d7	0.03482422
235	0xbc818e2a	-0.01581486
236	0xbd757651	-0.05992729
237	0xbe166439	-0.1468667
238	0x3de68833	0.11256447
239	0x3e90cc04	0.28280652
240	0xbe8bdfe7	-0.2731926
241	0xbdce710e	-0.10080157
242	0x3e46e03c	0.19421476
243	0xbe5fab69	-0.21842732
244	0xbd789df5	-0.060697515
245	0x3e91b316	0.28456944
246	0x3e4dc832	0.200959
247	0x3eb6e644	0.35722554
248	0xbdac722e	-0.084202155
249	0x3d2c6a8f	0.04209381
250	0x3d79eef6	0.061018907
251	0x3e75c900	0.24002457
252	0x3e6f5b12	0.23374584
253	0xbdd3f7d2	-0.10350002
254	0xbcdcc8e5	-0.026951263
255	0x3db29cac	0.08721289

gcn_layers.0.edge_feat.U.bias f4 [16]
0	0xbf9c323d	-1.2202832
1	0x3efedcf9	0.49777964
2	0x3fa58bee	1.2933328
3	0xbfa980f7	-1.3242482
4	0x3fa57658	1.2926741
5	0xbdd9c6ca	-0.10633619
6	0x3d7b629f	0.06137335
7	0x3f1c9202	0.6116029
8	0xbf9b91ff	-1.215393
9	0x3f93da8d	1.1551071
10	0x3fa71553	1.3053383
11	0xbec7b0c5	-0.39002052
12	0x3e3cb504	0.18428427
13	0xbd9183f2	-0.07105245
14	0xbd6ffa57	-0.058588352
15	0xbdfe6606	-0.12421803

gcn_layers.0.edge_feat.V.weight f4 [16, 16]
0	0xbe59bee5	-0.21264227
1	0x3e2a12df	0.16608761
2	0x3e29dc65	0.1658798
3	0xbd751815	-0.05983742
4	0x3ddec41e	0.1087725
5	0x3e581b60	0.21104193
6	0x3d66e8e8	0.05637446
7	0xbdbca2de	-0.09210752
8	0x3e0f0853	0.13968019
9	0xbe2cd9bb	-0.16879933
10	0xbe1f6824	-0.1556707
11	0xbc7af917	-0.015318177
12	0xbddafcf5	-0.10692779
13	0xbe7ae947	-0.2450305
14	0xbe48ebdc	-0.19621223
15	0xbc8497ed	-0.016185725
16	0x3d26a5ec	0.04068558
17	0xbe4cee2c	-0.2001273
18	0x3c1e1d7c	0.009650584
19	0x3dee8837	0.11647075
20	0x3db279d3	0.087146424
21	0xbe32274a	-0.173978
22	0xbe2e4ef8	-0.17022312
23	0xbe863d28	-0.26218534
24	0x3dee5279	0.11636824
25	0x3e4dcbf7	0.20097338
26	0xbe17846e	-0.14796612
27	0xbde8096b	-0.11329921
28	0x3e7eac77	0.24870478
29	0xbd35a325	-0.04434504
30	0xbde58b51	-0.11208213
31	0x3dac05b7	0.083995275
32	0xbe0f5416	-0.1399692
33	0x3e43311d	0.19061704
34	0x3e2b0a1a	0.16703072
35	0x3d6fc340	0.058535814
36	0xbe43f7a4	-0.19137436
37	0xbde8cdad	-0.113673545
38	0x3d01d5af	0.031697925
39	0x3e39a0ab	0.18127696
40	0xbd34d945	-0.044152517
41	0xbc8709b2	-0.016484115
42	0xbddbbf4b	-0.107298456
43	0x3e5930be	0.2121
44	0x3e072ce4	0.13200718
45	0xbd87d404	-0.06632236
46	0xbde33502	-0.11094095
47	0x3e313f2f	0.17309259
48	0xbeb5a7c0	-0.35479546
49	0x3e82b14a	0.25525886
50	0xbf02dcde	-0.51118267
51	0xbe9f91d5	-0.3116595
52	0x3e0da5b8	0.13832748
53	0xbf12263b	-0.57089585
54	0x3d23bd9c	0.039975747
55	0xbe43a3b4	-0.19105417
56	0xbe6144be	-0.2199888
57	0x3df728e9	0.1206835
58	0xbceaf474	-0.028681017
59	0xbd5bd354	-0.053668335
60	0xbe012537	-0.12611853
61	0xbd504254	-0.050844505
62	0x3d82dc82	0.06389715
63	0x3c8f4bc4	0.017492183
64	0x3dc4a90b	0.09602555
65	0x3dd7f034	0.10543862
66	0xbe15a94e	-0.14615366
67	0xbda1f98b	-0.07908925
68	0xbe587915	-0.21139939
69	0x3d8001ec	0.062503666
70	0x3c73f770	0.014890537
71	0x3d7f70b7	0.062363353
72	0xbc13eff3	-0.009029376
73	0x3ccfe55a	0.025377918
74	0x3e83ad76	0.25718278
75	0x3e260555	0.16212972
76	0xbe61e755	-0.22060902
77	0x3e05a71d	0.1305203
78	0x3e25548f	0.16145538
79	0x3d9a3697	0.075299434
80	0xbd6fe7ca	-0.05857066
81	0xbdfa8795	-0.122328915
82	0x3e53b32e	0.2067382
83	0xbdcf88e8	-0.10133535
84	0x3e038172	0.12842348
85	0x3caaa4ac	0.020830475
86	0xbe4c4459	-0.19947948
87	0x3e80c199	0.25147703
88	0x3e768550	0.24074292
89	0x3dda6024	0.106628686
90	0x3e57d522	0.21077397
91	0x3e4e45ea	0.20143858
92	0xbdfeb0cd	-0.12436066
93	0xbd9a7ad4	-0.07542959
94	0xbd8f6782	-0.070021644
95	0xbe30e102	-0.17273334
96	0xbd067a04	-0.032831207
97	0xbc014d56	-0.0078919735
98	0x3e8c5268	0.2740662
99	0x3e7966b7	0.24355589
100	0x3dd568a7	0.104203515
101	0x3d10357c	0.035207257
102	0x3e577d81	0.2104397
103	0xbe5d5114	-0.2161296
104	0xbcd4a8e6	-0.025959443
105	0xbe53f1ad	-0.2069766
106	0xbe7fec1c	-0.24992412
107	0xbeae281c	-0.34014976
108	0x3de557ff	0.111984245
109	0xbd008dfd	-0.03138541
110	0xbe1a87c4	-0.15090853
111	0xbe1eabdf	-0.15495251
112	0x3e437420	0.19087267
113	0x3df76fa5	0.120818414
114	0x3d4a172e	0.049338512
115	0x3de93362	0.113867536
116	0x3dec38aa	0.11534245
117	0x3dfefa57	0.12450092
118	0xbe079b28	-0.13242781
119	0x3e316a90	0.17325807
120	0x3e48e377	0.19618021
121	0x3db4df8a	0.08831699
122	0x3e0672a3	0.13129668
123	0xbe5ebbc2	-0.21751311
124	0x3dc9bff9	0.09851069
125	0x3e88d359	0.26723745
126	0x3df9dba0	0.12200093
127	0xbe521ad1	-0.20518042
128	0xbe31d312	-0.17365673
129	0xbe22e362	-0.15907052
130	0xbeac40ac	-0.3364309
131	0x3d3e4a0f	0.046457347
132	0x3e3b177e	0.1827068
133	0xbe9ad9f4	-0.3024441
134	0xbe025d81	-0.12730981
135	0xbe32e87d	-0.174715
136	0x3d2d3078	0.04228255
137	0x3edc7d95	0.4306456
138	0xbc62aa8d	-0.013834608
139	0x3d315bcb	0.04330043
140	0xbdf3bbc8	-0.11901051
141	0xbe44b80f	-0.19210838
142	0xbd859b78	-0.06523794
143	0xbe15b48b	-0.14619653
144	0x3d66f085	0.05638172
145	0xbe19a4f7	-0.15004335
146	0xbe10fba8	-0.14158499
147	0xbe75b1cd	-0.23993607
148	0x3d91969b	0.07108804
149	0xbe667653	-0.22506075
150	0xbe718cde	-0.23588893
151	0x3bbeace3	0.0058189495
152	0x3e36561d	0.17806287
153	0x3e3ab80b	0.1823427
154	0xbe349ea0	-0.17638636
155	0xbe03bfe3	-0.12866168
156	0xbdc22992	-0.09480585
157	0xbe2f352d	-0.17110129
158	0x3e87c8bd	0.2652034
159	0x3e87975c	0.26482666
160	0x3e3bfd78	0.1835841
161	0x3e024f06	0.12725458
162	0x3db6c0a2	0.089234605
163	0x3cb7f05a	0.022453476
164	0x3d7102c2	0.05884052
165	0xbe128a3e	-0.14310548
166	0xbdfe8a42	-0.12428714
167	0x3d9fd293	0.07803836
168	0x3e10f0d8	0.14154375
169	0x3d9feb3f	0.078085415
170	0xbcdd254f	-0.02699533
171	0xbe4e19ae	-0.20126984
172	0x3d8574a5	0.06516389
173	0x3cf5520d	0.029946351
174	0x3d937e2e	0.07201801
175	0x3e1bd516	0.15218005
176	0xbe251e9d	-0.1612496
177	0x3e37175f	0.17880009
178	0x3e3e600f	0.18591331
179	0xbe25d8cf	-0.16195987
180	0xbe193fc2	-0.14965728
181	0x3e89c3b3	0.2690712
182	0x3e6224c5	0.22084339
183	0x3e8d0cda	0.27548867
184	0xbcab0c6e	-0.02087995
185	0xbe003a9d	-0.12522359
186	0xbe23c2ea	-0.15992323
187	0x3e2cf8c4	0.16891772
188	0xbdd32ffe	-0.10311888
189	0xbe151a15	-0.14560731
190	0xbe1aaf08	-0.15105832
191	0xbe11e5ec	-0.14247864
192	0x3bb12901	0.0054064994
193	0x3e4e01d2	0.20117882
194	0xbe3f43fd	-0.18678279
195	0x3e43f511	0.19136454
196	0xbcad7d65	-0.021177957
197	0x3d5f3a50	0.05449897
198	0x3e06077d	0.13088794
199	0x3c58ac3b	0.013224657
200	0x3e58acdd	0.21159692
201	0xbb65a446	-0.0035040542
202	0x3e961876	0.29315537
203	0x3dbfcdd5	0.09365431
204	0x3d225a4f	0.039636906
205	0xbd287654	-0.04112847
206	0xbe697789	-0.22799505
207	0x3e61caa6	0.2204996
208	0xbceedac2	-0.029157046
209	0x3e5c9bbc	0.21543783
210	0xbd649c14	-0.05581291
211	0x3c27c9ba	0.010240966
212	0x3e5e9cea	0.21739545
213	0x3da7db84	0.08196166
214	0xbe63e4b9	-0.2225522
215	0x3d8c7370	0.068579555
216	0x3dad49c0	0.08461332
217	0xbd063501	-0.032765392
218	0x3ce54672	0.027987693
219	0x3c312a10	0.010813251
220	0x3de2396e	0.1104611
221	0x3e059f86	0.13049135
222	0x3e14054f	0.1445515
223	0x3dcda10e	0.10040484
224	0xbde476a5	-0.11155442
225	0x3d780f37	0.060561385
226	0x3d51bc7f	0.051205155
227	0x3dac3dc0	0.084102154
228	0x3d2693ed	0.040668417
229	0x3ea36ca8	0.31918836
230	0xbcb8d0c9	-0.022560494
231	0xbd738812	-0.05945594
232	0x3e23e42f	0.16005014
233	0x3d932d87	0.07186418
234	0xbd4d6ec7	-0.050154474
235	0xbe41e13b	-0.18933575
236	0xbe15b054	-0.14618045
237	0xbe048ba9	-0.12943901
238	0x3dde8e6e	0.1086701
239	0xbe8424ed	-0.25809422
240	0xbdc22cd7	-0.09481209
241	0xbdbb6ff9	-0.091522165
242	0x3e86a3b5	0.26296774
243	0x3e4f0883	0.2021809
244	0xbd4461f7	-0.04794499
245	0x3e403fc9	0.18774332
246	0x3d9b08e1	0.07570053
247	0x3dfedf49	0.12444932
248	0xbe41492b	-0.18875568
249	0xbd9be9f0	-0.076129794
250	0x3d4cc3be	0.04999136
251	0xbde431f6	-0.11142342
252	0xbe17ce2b	-0.1482474
253	0x3d28651e	0.041112058
254	0xbd576662	-0.052587874
255	0x3e781068	0.24225008

gcn_layers.0.edge_feat.V.bias f4 [16]
0	0xbf8af22f	-1.0855159
1	0x3f1c4eb1	0.61057574
2	0x3fa2c0c9	1.2715083
3	0xbfd31b97	-1.6492795
4	0x3f95e203	1.1709598
5	0x3cd46d51	0.025931032
6	0x3da3e3d2	0.08002438
7	0x3f4b7add	0.7948435
8	0xbfbdb620	-1.4821205
9	0x3fa437b7	1.2829503
10	0x3f896771	1.0734693
11	0xbedbccef	-0.4292979
12	0x3e22a224	0.15882164
13	0xbeaeb07b	-0.3411902
14	0xbede6cd1	-0.43442395
15	0x3e8eb9a3	0.27876005

gcn_layers.0.edge_norm.batch_norm.weight f4 [16]
0	0x3f41e621	0.75741774
1	0x3f59bddb	0.8505532
2	0x3f8d68f1	1.104765
3	0x3f80e6e1	1.0070459
4	0x3f933a1c	1.1502109
5	0x3f85aeda	1.0443985
6	0x3f92bb8f	1.1463488
7	0x3f826069	1.0185672
8	0x3f8fc47d	1.1231838
9	0x3f648c58	0.8927665
10	0x3f9119c3	1.1335987
11	0x3f8eaa85	1.1145788
12	0x3f77f351	0.96855646
13	0x3f7dcb91	0.9913874
14	0x3f91032d	1.1329094
15	0x3f811bf3	1.0086654

gcn_layers.0.edge_norm.batch_norm.bias f4 [16]
0	0xbe81a089	-0.2531779
1	0xbdf5acb7	-0.11995833
2	0x3de77406	0.113014266
3	0xbddd57b8	-0.10807747
4	0x3db615a9	0.0889085
5	0x3df63c3d	0.12023208
6	0x3e6243c3	0.22096162
7	0x3e2a9b7c	0.16660875
8	0xbe41bd94	-0.18919975
9	0xbdb83d51	-0.0899607
10	0x3df3b1d4	0.118991524
11	0x3ddb336b	0.107031666
12	0x3e1de336	0.15418705
13	0x3cc07a9d	0.023495967
14	0x3e30888d	0.1723959
15	0xbce9402b	-0.02847298

gcn_layers.1.node_feat.U.weight f4 [16, 16]
0	0x3c234f54	0.009967644
1	0x3df2d4fe	0.11857031
2	0xbdee51c1	-0.11636687
3	0x3ef184db	0.47171673
4	0x3dfc01b7	0.123050146
5	0x3ce14ced	0.027502501
6	0x3d53c4a7	0.051701214
7	0xbdee02f0	-0.11621654
8	0xbd024417	-0.031803217
9	0x3cb09628	0.021555975
10	0x3eb0ced5	0.345328
11	0xbd1103a1	-0.03540385
12	0xbd6bc8ff	-0.05756473
13	0x3cb3801a	0.02191167
14	0x3c64da65	0.013968085
15	0x3e65b69c	0.22432941
16	0xbb881ecf	-0.0041540633
17	0x3db8f893	0.09031787
18	0x3d9e3646	0.077251956
19	0x3c2072b1	0.00979297
20	0xbe88df75	-0.26732984
21	0x3da244cb	0.079232775
22	0xbe333ad8	-0.17502916
23	0x3d7fd777	0.062461343
24	0xbe6df8c1	-0.23239423
25	0x3e1409d9	0.14456882
26	0x3c84843c	0.016176336
27	0x3e329e3a	0.17443171
28	0xbe414506	-0.18873987
29	0xbdc10546	-0.09424834
30	0xbe851ec4	-0.26000035
31	0xbe6ef1cb	-0.23334424
32	0xbe7c91a9	-0.2466494
33	0x3e423109	0.18964018
34	0x3c13e292	0.009026187
35	0x3c823bf1	0.015897723
36	0xbe19354c	-0.14961737
37	0xbeb1b6c0	-0.3470974
38	0xbe304d78	-0.17217052
39	0x3d99d470	0.07511222
40	0x3e3d85f8	0.18508136
41	0x3dbd5b71	0.09245957
42	0xbe09b9d2	-0.13449791
43	0xbe25e215	-0.16199525
44	0x3db481a4	0.088137895
45	0xbde02f9a	-0.10946579
46	0x3d6f9584	0.0584922
47	0x3dfd5a9d	0.12370799
48	0xbe4986c3	-0.19680314
49	0xb9d81a01	-0.00041218105
50	0xbe013e24	-0.12621361
51	0xbe8d7967	-0.27631685
52	0x3d07dd3c	0.03316997
53	0x3ddc21df	0.10748648
54	0xbc6de25b	-0.014519299
55	0x3c8c2735	0.01710854
56	0xbe6d6e78	-0.23186672
57	0x3dc12ab6	0.094319746
58	0xbe448eb6	-0.19195065
59	0xbdcec391	-0.10095895
60	0xbebfed2b	-0.37485632
61	0x3cd5532b	0.026040634
62	0xbb8961aa	-0.0041925507
63	0xbdfbb328	-0.12290031
64	0x3d0c538c	0.034259364
65	0x3cd39d6d	0.025831902
66	0x3dac5e7b	0.08416458
67	0x3da2d486	0.07950692
68	0x3e009d35	0.1255997
69	0xbde34108	-0.11096388
70	0x3dda56be	0.10661076
71	0xbde3e7d1	-0.111282
72	0xbe56992b	-0.20956866
73	0xbec44ec0	-0.3834133
74	0xbd5d6e2a	-0.05406014
75	0xbd828dcf	-0.06374704
76	0xbe0b9ff6	-0.13635239
77	0x3d8136c2	0.06309272
78	0x3e441e8b	0.19152276
79	0x3dd51a29	0.1040538
80	0xbd11ecc9	-0.035626207
81	0x3dbbffdf	0.09179663
82	0x3d85b269	0.0652817
83	0xbb9acff4	-0.004724497
84	0x3ddb405b	0.10705634
85	0x3f2ca526	0.67439497
86	0x3bf1dc18	0.0073809735
87	0xbce5b161	-0.028038682
88	0x3c4f2232	0.01264243
89	0x3c4580ee	0.012054665
90	0xbdc3c1e0	-0.09558463
91	0xbe0c3268	-0.13691103
92	0xbe1ff92d	-0.15622397
93	0xbcc546b6	-0.02408157
94	0x3cfa1e0b	0.030531904
95	0x3e08da06	0.1336442
96	0xbdcb8672	-0.09937753
97	0xbe268d78	-0.16264904
98	0xbe86df0d	-0.2634205
99	0xbeccba60	-0.39985943
100	0xbe5ccb8e	-0.21562025
101	0x3dbc6960	0.09199786
102	0xbbd812d5	-0.006594042
103	0x3e64af6c	0.22332543
104	0x3cc14422	0.023592059
105	0xbce1f1cf	-0.027581124
106	0xbe52b18d	-0.20575543
107	0x3d7b0fa4	0.061294213
108	0x3e23c903	0.15994649
109	0x3d96c916	0.07362573
110	0x3c74108f	0.014896526
111	0xbe74c641	-0.23903753
112	0xbd43e58d	-0.04782634
113	0x3d25018a	0.04028467
114	0x3e82b584	0.2552911
115	0x3d57e04a	0.052704133
116	0xbe1f33aa	-0.15547052
117	0xbb22df64	-0.002485239
118	0x3e018906	0.12649927
119	0x3e1ef2ca	0.15522304
120	0x3e6a4cd6	0.22880873
121	0x3e31bb07	0.17356502
122	0x3db36546	0.08759551
123	0x3dfc656a	0.12324031
124	0x3e67ac66	0.22624359
125	0x3e8af8ba	0.27142888
126	0x3d786430	0.06064242
127	0x3d56c247	0.05243137
128	0x3db75e42	0.08953525
129	0x3ed62144	0.41822255
130	0x3dba81d8	0.09106797
131	0xbdb5aa97	-0.08870428
132	0xbe849203	-0.25892648
133	0xbdb61f73	-0.08892717
134	0x3d56545f	0.052326556
135	0x3e7f5903	0.24936299
136	0xbd01ec45	-0.031719465
137	0x3e9403e6	0.28909224
138	0x3e4acdf2	0.19805124
139	0x3d8fcb83	0.07021239
140	0x3d558382	0.05212737
141	0xbd42b48f	-0.047535475
142	0x3def43ea	0.116828755
143	0x3d7d5f01	0.06185818
144	0x3e8a3cc6	0.2699949
145	0x3e12ca46	0.14334974
146	0xbdfc367a	-0.12315078
147	0xbde51f5d	-0.11187623
148	0x3e94e8d6	0.2908389
149	0xbd1f962e	-0.038961582
150	0x3e196d30	0.14983058
151	0x3de6ed8b	0.112757765
152	0xbdade687	-0.08491235
153	0xbc760f5d	-0.015018311
154	0x3de06d10	0.10958302
155	0x3e1909ab	0.14945094
156	0x3a30fa90	0.0006751204
157	0xbd4560b9	-0.048187945
158	0xbe107327	-0.14106427
159	0xbdb3d4bd	-0.08780811
160	0xbe1d3c2c	-0.15354985
161	0xbcaf15cf	-0.021372704
162	0x3e0c5222	0.13703206
163	0xbe6b226f	-0.22962354
164	0xbe4dad42	-0.20085624
165	0xbc106ee1	-0.008815498
166	0x3c3e16c4	0.011602107
167	0x3c9a6a5c	0.018849544
168	0xbe3422a5	-0.17591341
169	0x3c1d2251	0.009590701
170	0xbef5f45b	-0.4803799
171	0x3dfaf1ce	0.12253152
172	0x3e208d36	0.15678868
173	0xbc989749	-0.018626826
174	0xbda5ee36	-0.08102076
175	0xbe7f906f	-0.24957441
176	0x3e13bd12	0.14427593
177	0xbd31462f	-0.043279823
178	0xbdd345eb	-0.1031607
179	0x3d0870e2	0.03331078
180	0xbd5b6b2c	-0.053569004
181	0x3ed2f010	0.41198778
182	0x3c7460b3	0.014915633
183	0xbd459589	-0.04823831
184	0xbd2938eb	-0.041314047
185	0xbc4c1644	-0.01245648
186	0x3d5d6f9f	0.05406153
187	0x3d1a12bc	0.037615523
188	0x3e4013ce	0.18757555
189	0x3d1f3e23	0.038877618
190	0x3d648ad5	0.055796463
191	0xbd04a130	-0.032380283
192	0x3e6526e8	0.22378123
193	0x3d75ab68	0.05997792
194	0x3c4825d7	0.012216053
195	0x3ec13c3d	0.3774127
196	0xbe242ad0	-0.16031957
197	0x3e0af503	0.13570027
198	0xbdf52ee6	-0.11971836
199	0xbc98aad5	-0.018636147
200	0xbe806951	-0.2508035
201	0x3da8ca5e	0.082417235
202	0x3dfd6347	0.12372451
203	0x3e5ba4f9	0.21449651
204	0xbe91ce60	-0.28477764
205	0x3dcf71bb	0.10129114
206	0xbdd7b3a1	-0.10532308
207	0x3e228398	0.15870512
208	0xbdd4bcd3	-0.10387578
209	0x3b08b36e	0.0020858902
210	0xbd43863b	-0.047735434
211	0xbe2969cb	-0.16544263
212	0xbe041d4b	-0.129018
213	0x3dd99071	0.10623253
214	0xbe590fe8	-0.21197474
215	0x3e25ac7f	0.16179083
216	0x3c20392a	0.009779254
217	0x3d088592	0.033330508
218	0x3d5dc146	0.054139398
219	0xbd4e5579	-0.05037448
220	0xbd33bdf0	-0.04388231
221	0xbe4d404f	-0.20044063
222	0xbb96e844	-0.004605325
223	0x3d08261c	0.03323947
224	0xbd9529da	-0.07283373
225	0xbdbbe9b6	-0.09175436
226	0xbcbadba7	-0.022809817
227	0xbc30789b	-0.010770942
228	0xbcf9f2b0	-0.03051123
229	0xbcad4244	-0.021149762
230	0x3db94562	0.09046437
231	0x3e520217	0.2050861
232	0x3e20e6a5	0.15712984
233	0x3e3671b0	0.17816806
234	0xbea637d6	-0.32464474
235	0x3afb1b9e	0.0019158011
236	0x3d246c7b	0.040142518
237	0xbe7f10c8	-0.24908745
238	0xbe9f93fd	-0.31167594
239	0xbe278e79	-0.16362943
240	0xbc025ce5	-0.007956718
241	0xbe9de4e1	-0.30838683
242	0xbd267eb2	-0.04064817
243	0x3e34e197	0.1766418
244	0xbe6ed2e5	-0.23322637
245	0x3e1cedbf	0.15325068
246	0x3be88141	0.0070954864
247	0x3d887d42	0.06664516
248	0xbd913384	-0.07089904
249	0x3dc4e99e	0.096148714
250	0x3e028c36	0.12748799
251	0xbe825079	-0.2545202
252	0xbd59e6f7	-0.05319878
253	0x3e23b23b	0.15985958
254	0x3d32fe7a	0.04369972
255	0xbbf0d012	-0.0073490227

gcn_layers.1.node_feat.U.bias f4 [16]
0	0x3e2a0001	0.16601564
1	0xbe17eca7	-0.1483637
2	0xbe13fb11	-0.14451243
3	0x3c1ff9f0	0.00976418
4	0x3ce57630	0.028010458
5	0xbd092f5d	-0.033492435
6	0x3e5b7cc8	0.21434319
7	0xbcf12ac5	-0.02943934
8	0xbe0493cc	-0.12947005
9	0xbe0634dc	-0.13106102
10	0xbdcbdcfd	-0.099542595
11	0xbe54cbad	-0.20780821
12	0xbc1f8448	-0.009736128
13	0x3cbc9850	0.023021847
14	0x3e57f1a2	0.2108827
15	0x3e0ab218	0.135445

gcn_layers.1.node_feat.V.weight f4 [16, 16]
0	0x3c82eec8	0.015983
1	0xbdb83191	-0.08993829
2	0x3d65d2bc	0.056109175
3	0xbe9d5104	-0.30725873
4	0xbe7f70ba	-0.24945346
5	0x3b9a2136	0.004703666
6	0xbc8a0545	-0.016848216
7	0x3ede0343	0.43361863
8	0x3d93ca58	0.072163284
9	0x3e66c6dd	0.22536798
10	0x3e03075f	0.1279578
11	0xbdf4ab20	-0.11946702
12	0x3e5b7eec	0.21435136
13	0x3db252f4	0.08707228
14	0x3e09a978	0.13443553
15	0xbcf8c5a2	-0.030367676
16	0x3a996caf	0.0011705364
17	0xbe62beba	-0.22143069
18	0x3db7538c	0.08951482
19	0x3e060fc2	0.13091949
20	0x3e73f473	0.23823719
21	0xbc6e4388	-0.014542468
22	0x3de1bda7	0.110225014
23	0xbdf40947	-0.11915832
24	0x3e929f6a	0.28637248
25	0xbd89cf83	-0.06729033
26	0x3e20f67f	0.15719031
27	0xbdeefac5	-0.11668924
28	0x3e8de674	0.27714884
29	0x3e426d03	0.18986897
30	0x3c6d993f	0.014501869
31	0x3e548b1b	0.2075619
32	0xbe5b93a1	-0.21443035
33	0x3db0a413	0.08625045
34	0xbdc2acc7	-0.09505611
35	0x3e642016	0.22277865
36	0x3ea8c92d	0.32965985
37	0x3c784b33	0.015154648
38	0xbdf06c17	-0.117393665
39	0x3b98c7a8	0.0046624728
40	0xbd10d282	-0.035357006
41	0x3d5163fe	0.05112075
42	0x3c8e24a0	0.017351449
43	0xbe709900	-0.23495865
44	0xbe6d9e05	-0.23204811
45	0x3d053b2a	0.032527126
46	0xbea46fa1	-0.32116416
47	0xbcbc26af	-0.022967665
48	0xbe00fced	-0.12596484
49	0xbd672b6e	-0.056437902
50	0x3e7a0111	0.2441447
51	0x3e6e627d	0.23279758
52	0x3aba5877	0.0014217038
53	0x3d58a242	0.052889116
54	0xbdaa039e	-0.08301471
55	0xbd60d4ea	-0.05489055
56	0x3e1fff92	0.15624836
57	0xbdd4e3b0	-0.103949904
58	0x3e7b8213	0.24561338
59	0x3ecb29cc	0.39680326
60	0x3df388b5	0.11891309
61	0xbdece0c6	-0.1156631
62	0xbe517534	-0.20454866
63	0xbdf52999	-0.11970825
64	0xbeef807f	-0.46777722
65	0x3e16e1d0	0.14734578
66	0xbeae6e59	-0.34068564
67	0xbe81a094	-0.25317824
68	0xbdffd87a	-0.124924615
69	0x3d267399	0.040637586
70	0xbe7916fa	-0.24325171
71	0xba1ade7a	-0.00059077854
72	0x3ce22135	0.027603725
73	0x3ea8d2f9	0.3297346
74	0xbecf339f	-0.4046907
75	0xbdd3c0d3	-0.10339513
76	0xbe2c7b0c	-0.16843814
77	0x3dac4938	0.08412403
78	0xbeaa65e6	-0.33280867
79	0xbd966482	-0.07343389
80	0x3c396d5b	0.011317576
81	0xbc201b2c	-0.009772103
82	0xbdb217c3	-0.086959384
83	0x3cb6a87b	0.022297135
84	0x3cac7ab9	0.021054612
85	0xbe201eae	-0.15636703
86	0xbc1dd401	-0.009633065
87	0x3d752d9e	0.059857957
88	0xbc2a1f9b	-0.010383512
89	0x3d35f7df	0.04442584
90	0xbdca88d5	-0.0988938
91	0xbd2e4087	-0.042542007
92	0x3d123fef	0.035705503
93	0x3d80becd	0.06286392
94	0x3ca1946e	0.019724097
95	0x3de20a6a	0.110371426
96	0x3e0020ea	0.12512556
97	0x3e108d5a	0.14116421
98	0xbde8e2a2	-0.11371352
99	0xbdb452d3	-0.0880486
100	0x3e570a65	0.21000059
101	0xbe86bdfb	-0.2631682
102	0xbe8e5aa8	-0.2780354
103	0xbe6e40f3	-0.23266964
104	0xbe9cdf27	-0.30639002
105	0x3d95e4ab	0.073190056
106	0xbea4a49f	-0.32156846
107	0x3d21f2f5	0.039538343
108	0xbe1fc912	-0.15604046
109	0xbe19839f	-0.14991616
110	0xbe66a38e	-0.22523329
111	0x3e0d2f61	0.13787605
112	0xbd323fb0	-0.04351777
113	0xbcdb0f76	-0.02674077
114	0xbe4761ae	-0.19470856
115	0x3e205f4c	0.15661353
116	0x3d4a55fb	0.049398404
117	0x3da8d381	0.08243466
118	0xbe41c4d5	-0.18922742
119	0xbe29adb5	-0.1657017
120	0xbefea79f	-0.4973726
121	0xbd43488a	-0.0476766
122	0xbe01acf6	-0.12663636
123	0xbe4effb0	-0.20214725
124	0x3e3cf7d5	0.18453915
125	0x3dc46a42	0.095905796
126	0xbd1a55b4	-0.03767939
127	0x3dcf1add	0.10112546
128	0x3d9b93c5	0.07596544
129	0xbeb57b13	-0.3544546
130	0xbe4202ed	-0.18946429
131	0xbce67cf7	-0.02813576
132	0x3db255ca	0.08707769
133	0x3ceb5bcd	0.028730297
134	0xbe7aa31c	-0.24476284
135	0xbe20ce98	-0.1570381
136	0xbea406c4	-0.32036412
137	0xbe9636d3	-0.29338703
138	0xbda4d857	-0.08049076
139	0xbde32a54	-0.11092058
140	0x3bcd9e93	0.006275007
141	0xbdc7d837	-0.097580366
142	0xbe8327e1	-0.25616363
143	0x3e32a8f9	0.1744727
144	0xbe53a1fd	-0.20667262
145	0xbdcb22ad	-0.09918723
146	0xbceb51ff	-0.028725622
147	0xbcd48c21	-0.025945725
148	0xbe9e622a	-0.30934268
149	0xbdfa62a5	-0.12225846
150	0x3d87f018	0.06637591
151	0xbe55f15f	-0.20892857
152	0x3d6bb3a8	0.05754438
153	0xbdb97775	-0.09055988
154	0x3da7ec8b	0.08199414
155	0xbe96b470	-0.29434538
156	0xbe82002d	-0.2539076
157	0xbcb3f959	-0.021969484
158	0x3c838994	0.016056813
159	0xbe9266b4	-0.2859398
160	0x3ddef650	0.10886824
161	0xbed5c59e	-0.41752332
162	0x3e0d2755	0.13784535
163	0xbcd70110	-0.026245624
164	0xbcd349b6	-0.025791984
165	0xbaf6c9ef	-0.0018828491
166	0x3e01fded	0.12694521
167	0xbe9bbe60	-0.30418682
168	0x3e867277	0.26259205
169	0xbe1ab748	-0.15108979
170	0x3e2a01dd	0.16602273
171	0x3eae6ada	0.34065896
172	0xbe76f8e6	-0.24118385
173	0x3e540557	0.20705162
174	0xbc77ec21	-0.015131981
175	0x3e3bc8d5	0.1833833
176	0xbdeeee5a	-0.11666556
177	0x3d1db4ce	0.038502507
178	0x3d347354	0.044055298
179	0xbdfe60ad	-0.12420783
180	0x3d8d1461	0.068886526
181	0xbd147cc9	-0.036251817
182	0x3dc36d0b	0.09542283
183	0x3bc220c9	0.0059243185
184	0xbc46d55d	-0.012135831
185	0xbd6d0b2b	-0.05787198
186	0xbd1e28c4	-0.038613096
187	0x3d8e84e1	0.069589384
188	0xbdea67fa	-0.11445613
189	0x3d70cbc3	0.058788072
190	0x3b2386e1	0.002495222
191	0x3d6a5ddb	0.057218414
192	0xbe2368f5	-0.15958007
193	0xbba60e42	-0.0050676176
194	0xbe388a6a	-0.18021551
195	0x3ca4861a	0.020083476
196	0x3c745da7	0.014914907
197	0x3cc01472	0.02344725
198	0xbe4526d8	-0.19253099
199	0xbb942e77	-0.0045221406
200	0x3e18583e	0.14877412
201	0x3e1b2998	0.15152586
202	0xbd582ded	-0.052778173
203	0xbe70d50f	-0.23518775
204	0xbcac3076	-0.021019202
205	0xbd061983	-0.032739174
206	0x3c1b1eb9	0.009467774
207	0x3d243cc1	0.040097002
208	0x3e168dda	0.1470255
209	0x3d34a0a5	0.044098515
210	0xbe727dd1	-0.23680808
211	0xbdc6988e	-0.09697066
212	0x3b918006	0.0044403104
213	0xbc138cef	-0.009005769
214	0x3d0bd1da	0.034135677
215	0x3e8a1034	0.26965487
216	0xbe9cbc61	-0.30612472
217	0xbddfae27	-0.10921889
218	0xbdbf3c23	-0.09337642
219	0x3e9875c8	0.2977736
220	0xbcb8508d	-0.022499347
221	0xbdd7402e	-0.10510288
222	0xbe748b21	-0.23881198
223	0xbeed92a4	-0.4640094
224	0xbe4d15d5	-0.2002786
225	0xbd256f83	-0.04038955
226	0xbdd07f5f	-0.10180544
227	0xbdd63d96	-0.10460965
228	0xbe7debd0	-0.24796987
229	0x3e5122f7	0.20423494
230	0x3e89efe3	0.26940832
231	0xbd28052d	-0.04102056
232	0xbe720082	-0.23633006
233	0xbe7297a1	-0.23690654
234	0xbd9a7b50	-0.07543051
235	0xbdd89022	-0.10574366
236	0xbe95963a	-0.29216176
237	0x3d62f70b	0.05541138
238	0x3ea18c55	0.31552377
239	0x3e761070	0.24029708
240	0x3e04fed0	0.12987828
241	0x3dda39ce	0.106555566
242	0x3e661bd3	0.22471552
243	0xbe4524a1	-0.19252254
244	0x3e89b0ab	0.268926
245	0xbd2e1341	-0.04249883
246	0x3e3f2d29	0.18669571
247	0xbda5c576	-0.08094303
248	0x3e188411	0.1489413
249	0xbdbbbe93	-0.091672085
250	0xbdafe48d	-0.085885145
251	0x3dbe5bee	0.09294878
252	0x3e0b9533	0.13631134
253	0xbe10b919	-0.14133109
254	0xbd4e6705	-0.050391216
255	0xbe50925b	-0.2036833

gcn_layers.1.node_feat.V.bias f4 [16]
0	0xbe55a5e7	-0.20864068
1	0xbd6e1f12	-0.0581351
2	0x3e0a93b5	0.13532908
3	0x3dfd388a	0.123642996
4	0x3e5fdd56	0.21861777
5	0x3e39c582	0.1814175
6	0xbe684d9b	-0.22685854
7	0xbdbd3e79	-0.09240431
8	0xbe760f0f	-0.24029182
9	0x3d85f9f8	0.065418184
10	0xbc92b11b	-0.017906716
11	0xbe3d8936	-0.18509373
12	0xbe5eff45	-0.21777065
13	0xbe6b5108	-0.2298013
14	0x3e538307	0.20655452
15	0xbe74ea98	-0.23917615

gcn_layers.1.node_norm.batch_norm.weight f4 [16]
0	0x3f4174ec	0.75569034
1	0x3f2dce5b	0.67893
2	0x3f67cfe7	0.9055161
3	0x3f5cd9f8	0.86270094
4	0x3f500988	0.81264544
5	0x3f668a0e	0.90054405
6	0x3f52f40c	0.82403636
7	0x3f3f9473	0.7483589
8	0x3f5b679b	0.85704964
9	0x3f867625	1.0504805
10	0x3f5a36bc	0.8523977
11	0x3f642cd3	0.89130896
12	0x3f6827da	0.9068581
13	0x3f254938	0.6456485
14	0x3f62b779	0.8856121
15	0x3f5d3efb	0.86424226

gcn_layers.1.node_norm.batch_norm.bias f4 [16]
0	0x3e7c99c0	0.24668026
1	0x3f72d9d4	0.9486363
2	0x3ea2c36d	0.31789723
3	0x3e48e21f	0.19617508
4	0xbd9d9856	-0.076950714
5	0xbf63597d	-0.88808423
6	0xbcf18e6f	-0.029486863
7	0x3d31c8f2	0.043404527
8	0x3e6cf9d1	0.23142172
9	0x3d0c2a1a	0.03421984
10	0x3bcf5a5b	0.00632791
11	0xbe83b07b	-0.2572058
12	0x3cfe8c90	0.031072885
13	0x3e7594a0	0.23982477
14	0x3e9ab5c8	0.30216813
15	0x3eb1800b	0.34668002
