models/vrp_20_k3_normalized_32_hidden_dim.pt (torch, 354242 bytes, 196 tensors)

node_feature_embedding.weight f4 [32, 3]
000000 0c 6a eb 3e 2a 1e 44 be 75 03 4f 3f 87 7c c0 3e
       0.45979345 -0.19152132 0.8086465 0.37595007
000010 41 5c 9c 3e c4 74 3c 3e 07 d9 6b 3e fd 1b dd 3e
       0.30539134 0.18403918 0.23032008 0.43185416
000020 29 98 25 3e 6e d7 a7 3e 33 6b e1 3d 7f 4b 15 3f
       0.16171326 0.32781547 0.11006775 0.5831832
000030 d3 1a 24 bb 8e ad 3d be 0e 49 a9 3d c2 88 8f 3e
       -0.0025040403 -0.18523237 0.08265887 0.28034025
000040 9b 2b b5 be 1d ed 5e bd e0 59 10 be b9 8f ae be
       -0.3538483 -0.054425348 -0.14096785 -0.34094027
000050 d7 0e 11 bf 41 fe ca be 17 44 08 bf 72 89 62 3e
       -0.5666327 -0.39647105 -0.53228897 0.22122744
000060 8f 24 ae be de 7c 88 3e d4 b0 2c bf 28 8b af 3d
       -0.34012267 0.26657766 -0.6745732 0.08571464
000070 d9 1d 7b bd 37 65 11 bf fd 1e d0 3e bb 7c f4 be
       -0.06130776 -0.56795067 0.40648642 -0.47751412
000080 ad 13 76 3d 60 f4 69 bd 6e bf 4a be 31 cb 80 3e
       0.060077358 -0.05711782 -0.19799587 0.25155023
000090 13 b4 f0 3e b2 ae 0a 3f ef 8e 81 be e6 82 0d be
       0.47012386 0.54172814 -0.25304362 -0.13819465
0000a0 1d f4 fa bd 2d b0 66 bc c2 d9 11 3f 59 61 ee be
       -0.12253592 -0.0140800895 0.569729 -0.46558645
0000b0 38 c6 f7 be 11 dc 3c 3e 76 39 96 be 0e d3 bc be
       -0.48393416 0.18443324 -0.29340714 -0.36879772
0000c0 08 e8 0a 3f fd 61 e7 3d 49 8b 8c 3e db 9b d2 3d
       0.542603 0.11297987 0.27450016 0.10283633
0000d0 66 0d 25 3d 16 2b dc 3e d8 b0 82 be a5 ae b0 3e
       0.04029598 0.43001622 -0.25525546 0.34508243
0000e0 c0 63 18 3f ea f6 05 3e 86 2b f6 3c 7c d1 48 3d
       0.59527206 0.13082471 0.03005005 0.049027905
0000f0 58 68 07 bd 15 0e b9 bd 53 97 67 3f be 4e 71 3e
       -0.033058494 -0.09035889 0.9046528 0.23565194
000100 d2 78 4b 3d 25 9a 10 3e 35 68 da be f8 05 04 bf
       0.04967577 0.14121301 -0.4265763 -0.5157161
000110 36 f9 fd 3e 06 1f d8 be 72 9c ae be da ce 42 be
       0.49604195 -0.4221117 -0.34103733 -0.1902422
000120 ff 44 af 3d 3a 53 29 be 18 ea 5d be 75 74 0e 3f
       0.08558082 -0.16535655 -0.21671331 0.5564645
000130 31 4f b0 3b 82 ae 15 3e f6 7d a8 be 01 cc 53 be
       0.005380534 0.1461735 -0.329086 -0.2068329
000140 1b cc 47 3f 20 50 16 3f 64 0c 18 bd d2 59 75 bd
       0.78045815 0.5871601 -0.03712119 -0.059900112
000150 18 db f2 bd 9b 3a 0c 3e 8f a2 a7 3e d0 b0 fd 3e
       -0.11858195 0.13694231 0.3274121 0.4954896
000160 57 31 c6 be 25 9c 0e be 0f 3d 95 3d 93 9c d9 3e
       -0.38709518 -0.13926752 0.07287037 0.4250227
000170 de 4c a9 3e d4 72 82 3e 9c 0a b9 3e 0e cb bc 3e
       0.33066458 0.25478232 0.36140907 0.36873668

distance_embedding.weight f4 [16, 1]
000000 81 51 12 bf 96 bd 00 3f b6 94 9c bf 87 88 90 3f
       -0.57155615 0.50289285 -1.2232883 1.1291665
000010 c8 e0 49 3f 17 49 22 be 9d e4 c6 be f2 c2 82 bf
       0.78858614 -0.15848194 -0.38846293 -1.0215743
000020 cc 4d ef be d7 cb 6d 3f cc a0 eb be 44 a8 81 3f
       -0.46739042 0.9288916 -0.46021116 1.0129476
000030 27 9a 8f 3f 64 f4 96 3f f8 03 37 bf 39 ec 9d 3e
       1.1218919 1.1793332 -0.7149043 0.30844286

edge_feature_embedding.weight f4 [3, 16]
000000 e2 81 d1 bd 32 85 41 bf 6d 4d 39 bf 79 be 60 3c
       -0.10229851 -0.75593865 -0.7238377 0.013717287
000010 f0 19 69 bf 7c 91 d5 bf bd e1 cf be 9d c7 b8 bf
       -0.910552 -1.6685023 -0.40601912 -1.4435917
000020 ad ac e6 3e 53 38 1c 3f c8 45 c6 3e 5e d0 85 3f
       0.45053616 0.61023444 0.38725114 1.0454214
000030 e6 d2 93 3e 5c 17 16 be 7f 65 14 40 76 04 f5 bf
       0.2887184 -0.14657348 2.3186948 -1.9141986
000040 39 cf 8d be 6b a2 58 bf 7a 20 6d 3e 96 72 8d bf
       -0.2769716 -0.8462283 0.2315692 -1.1050594
000050 eb 61 c5 3e 2b 8f ab 3e 93 1a 93 be e6 3c 5a 3f
       0.38551268 0.33507666 -0.28731212 0.85249174
000060 e4 67 9a bf 04 a4 8c be 00 ce b2 3f 34 cd 99 bf
       -1.2062955 -0.27468884 1.3969116 -1.2015748
000070 4b e7 89 3e ec 37 6e 3f 89 be b8 3f 11 29 20 c0
       0.26934275 0.9305408 1.4433147 -2.5025065
000080 a0 44 58 bf 43 82 1b bf d4 49 85 bf 78 24 83 be
       -0.84479713 -0.6074564 -1.0413156 -0.2561376
000090 48 36 45 bf f4 6b 8e 3e 03 bb 98 3e 30 2a 06 c0
       -0.7703595 0.27816737 0.2983018 -2.096325
0000a0 82 67 a0 3f d8 20 3d 3f 8e 81 03 3e 1b dd b4 bf
       1.2531588 0.7387824 0.1284239 -1.4129976
0000b0 24 83 67 3f 6b 1d 96 3f c9 e8 1b 3d f4 da 67 bf
       0.9043448 1.1727728 0.038063798 -0.9056847

gcn_layers.0.node_feat.U.weight f4 [32, 32]
000000 8c 53 45 be 79 7c af bd ad 03 66 be dd 3c 81 bd
       -0.19270152 -0.08568663 -0.2246234 -0.06310437
000010 61 ae 27 3e fc 6f fc 3b 63 a1 84 3d 4e 5e 37 3e
       0.16375114 0.0077037793 0.064760946 0.17907068
000020 f0 cc f6 3d 18 73 89 bc 68 6c 23 3e ba 3f 62 3e
       0.120508075 -0.016778514 0.15959322 0.22094622
000030 47 c1 ba bd d8 39 3f 3d a1 19 d0 3d 32 fe 11 be
       -0.09118896 0.046686023 0.10161138 -0.14257124
000040 32 44 8b 3c 8c 11 d2 bd 56 ec 17 3e 12 48 1d be
       0.017000291 -0.10257253 0.14836249 -0.15359524
000050 84 ea ff 3b ca 14 41 3c a1 6b 0a bd 01 7a 88 3e
       0.007809939 0.011784742 -0.03379405 0.26655582
000060 39 b3 d7 3d 4d 48 b0 bd e0 98 74 3e 93 43 f4 3d
       0.10532231 -0.0860754 0.23886442 0.11926951
000070 50 73 3b 3d b5 57 28 be 29 73 fb bd 20 be fd bc
       0.045764267 -0.16439708 -0.122778244 -0.030974448
000080 ba 26 5e be 35 52 83 3c 6e b1 ea bd 90 5f 83 3d
       -0.2169446 0.01603041 -0.11459623 0.064147115
000090 64 33 26 3e 57 00 28 3e c8 ca 34 3e a6 9b a7 3d
       0.16230541 0.1640638 0.1765548 0.081839845
0000a0 57 66 9b bd bd 99 31 3e d2 0c 37 be d3 5d 00 be
       -0.07587879 0.17343803 -0.17875984 -0.12535791
0000b0 92 c4 c7 bd 19 aa 08 3e c1 d9 78 bd 0c bd de bd
       -0.0975429 0.13346137 -0.06075454 -0.108759016
0000c0 57 2d 48 be b1 93 63 be 5b 6c d8 3d 36 f6 0d be
       -0.19548546 -0.22224309 0.10567542 -0.13863453
0000d0 84 fb b8 bc 02 25 57 bd 63 55 3d bd b8 28 fb 3a
       -0.02258087 -0.052525528 -0.04622401 0.0019161915
0000e0 b7 a5 1c 3c 4a ad e4 bd cc 2e ab 3d 27 4e 54 be
       0.009560994 -0.11165865 0.08358535 -0.20732938
0000f0 31 99 74 bd 61 83 b5 bd 89 e1 e5 3b 1d 45 23 be
       -0.059716407 -0.08862949 0.0070154113 -0.15944333
000100 12 74 ee bd 4c b9 4b be e9 7a 78 3d f7 ab d8 bd
       -0.116432324 -0.19894904 0.06066409 -0.10579675
000110 df 2c 02 bd 6c 20 2b 3d 93 e8 98 3d 28 92 81 3e
       -0.031781074 0.041778967 0.07466235 0.2530682
000120 dc 92 f6 bd d4 89 49 bc b4 b6 34 3e 3b b1 f6 3d
       -0.1203973 -0.012300927 0.1764782 0.12045523
000130 7e 5d 11 be 1f 66 71 bd 06 e7 3b 3e 4d 4f 15 be
       -0.1419582 -0.05893528 0.18349847 -0.14581032
000140 b2 d0 a1 bd c5 35 9a 3d 4b 45 f6 3c 94 c6 aa bd
       -0.079011336 0.07529787 0.030062338 -0.08338657
000150 95 aa 44 3e 49 b7 47 be 3f 01 98 bc 79 c2 38 3e
       0.19205697 -0.19503511 -0.018555282 0.18042935
000160 80 e4 06 3e 4b 82 50 be 7a 2d 54 3e 73 d3 cc bc
       0.13173103 -0.20362203 0.20720473 -0.02500317
000170 2d 95 34 3d 68 68 03 be 0b b8 e1 3d ac fa cf 3d
       0.044087578 -0.12832797 0.110214315 0.10155234
000180 6f 28 e9 bd 68 99 85 be 1f 4d 0a be 84 72 60 bc
       -0.11384665 -0.26093602 -0.13505982 -0.013699178
000190 f0 dd 76 bd 50 80 bb 3d f0 8a c1 3d 98 3a 48 bd
       -0.06027025 0.09155333 0.09450328 -0.048884004
0001a0 15 35 2c 3e dd 0e dc bc 6f 5c ae 3d bd 2d 2b 3e
       0.16817124 -0.026862556 0.08513724 0.16716667
0001b0 9b 61 8f bc be d4 9c bd 53 8d e9 bd 2e 56 0c 3e
       -0.017502597 -0.07657765 -0.114039086 0.1370475
0001c0 b1 a3 1f be 7e 2a da bd 93 84 f6 3d 3a 55 7b be
       -0.15589787 -0.10652636 0.12037005 -0.2454423
0001d0 72 8d 0c 3e fe 25 5c be 7f 06 dc bd 46 11 41 3e
       0.13725832 -0.21498868 -0.107434265 0.18854246
0001e0 45 62 da bc 05 00 c5 3b 42 c4 d4 3d 67 d7 23 be
       -0.026658187 0.006011965 0.10388996 -0.16000138
0001f0 f6 24 14 3e b1 4e 34 3d c3 dd 3e be 5b 65 6a be
       0.14467224 0.04402036 -0.18639283 -0.22890227
000200 44 49 8e 3c a0 d9 9f bd 37 b2 2f be d9 a3 02 3e
       0.01736892 -0.078051805 -0.17157827 0.12757815
000210 3b e7 7c 3e 12 d9 94 3e 0a 4f ae bd da b1 40 3e
       0.24697582 0.29071862 -0.08511169 0.18817845
000220 0e 09 42 bd 79 4c 31 be df e1 4a 3d 67 ea 09 3e
       -0.047371916 -0.17314328 0.049531814 0.13468324
000230 a2 fc 9a 3d 56 35 ee bd d3 bc 6d 3e f6 68 99 3d
       0.07567717 -0.11631267 0.23216562 0.07490723
000240 95 92 04 be 42 a6 5a bd e2 85 ae 3c ec 8c 2a 3e
       -0.12946542 -0.053381212 0.021304075 0.1665532
000250 42 c5 46 bd ab ba 5c 3d e8 b9 3f 3d d6 91 a4 bd
       -0.048527963 0.053888958 0.046808153 -0.080356285
000260 23 a9 75 3e 54 20 1a 3e 7c a3 b6 bb 65 f9 ff 3d
       0.23990302 0.15051395 -0.005573688 0.1249874
000270 ce 12 92 3d 8d 9f 56 3e 0d a3 96 bd 3f 47 fe bd
       0.07132493 0.20959301 -0.07355318 -0.12415933
000280 48 7a c5 3d 1a 1c 60 3e 87 3c fe 3d f6 c4 b4 3d
       0.09642464 0.2188572 0.124138884 0.0882663
000290 69 39 4a bd 97 5d b9 bd b6 cb 50 be 3b c7 78 3d
       -0.049371157 -0.09051054 -0.2039021 0.060736876
0002a0 fd 8e a5 3b b2 ba 37 bc 79 87 17 be 5e 00 81 bd
       0.005052446 -0.011213945 -0.14797772 -0.06298898
0002b0 6c 08 54 ba 27 03 18 be 7e 79 3a be 49 ce c1 bd
       -0.0008088413 -0.14844953 -0.18210408 -0.09463174
0002c0 25 76 a3 bd fd 3b c6 3d fe aa 90 3d 2c de 8b 3d
       -0.07981519 0.096794106 0.07063864 0.06829485
0002d0 82 eb e9 bd cd 45 3e be 1f 96 46 be 5b 71 05 3d
       -0.11421873 -0.18581314 -0.19393204 0.032578807
0002e0 10 11 f8 bc a1 8d 46 3d 8d c3 4a bd df dc 09 3e
       -0.030281574 0.04847491 -0.049502898 0.13463162
0002f0 89 a3 0e 3e 39 15 99 bd fa 12 65 3e da 6f 9b 3d
       0.13929571 -0.07474751 0.2237052 0.07589693
000300 03 87 8a 3d b4 0d 18 bd fc 08 33 be 3f af 13 3e
       0.06764033 -0.037122443 -0.17483896 0.1442232
000310 c0 40 4a 3e cd 8f 76 bc 0a 11 26 3e 1b df 94 3d
       0.19751263 -0.015048933 0.16217437 0.072691165
000320 49 c2 a8 bd 52 66 ab bd a4 03 d6 3c 36 4a e9 3d
       -0.08240182 -0.083691254 0.026124783 0.11391108
000330 b8 f7 9f bc dc 15 db bd be 98 bd 3c 01 c2 44 3e
       -0.019527301 -0.10697529 0.023144122 0.19214632
000340 3a c1 e3 bd ec d4 f1 bd 21 cf 9a bd 95 05 2b 3d
       -0.111208394 -0.1180819 -0.07559038 0.04175337
000350 8f 7c 97 bc ac 15 0a be 66 f7 2a 3e 93 58 d2 3d
       -0.018492011 -0.1348483 0.16695938 0.102708004
000360 5e 34 59 3e 3a 3b 74 bc 5b 13 56 bd 97 55 24 3e
       0.21211383 -0.014906699 -0.052264553 0.16048275
000370 38 dd 1b 3d 17 0b 5b 3d 2e b0 35 3d 0e 8a 28 bd
       0.038052768 0.053477373 0.04435747 -0.041147284
000380 70 32 f5 3d 90 cd 88 bb 31 f6 e6 3d 73 30 57 bd
       0.11972511 -0.0041748956 0.11277426 -0.05253644
000390 97 d2 c9 3d 58 b7 6c bd e4 1d b8 bc f6 b0 f0 bd
       0.0985462 -0.057792038 -0.02247519 -0.117525026
0003a0 5c 45 67 be 1f 7a 1d 3e cd 2b 66 bb d0 7c e9 3c
       -0.22585052 0.15378617 -0.0035121322 0.028501898
0003b0 ad 07 8a bd 31 1d 27 3d a6 c5 29 3e 23 33 f0 3b
       -0.06739745 0.040799323 0.16579303 0.0073303147
0003c0 41 9d ca 3c 3b bb e3 bc f9 c3 4c bd 2c be 19 3e
       0.024733188 -0.02779924 -0.04999158 0.15013951
0003d0 88 44 d2 3d 20 00 39 3e af b0 ce bd c1 d6 31 be
       0.102669775 0.18066454 -0.100922935 -0.17367078
0003e0 1d 88 a1 3b 71 1d 33 3e bc 69 30 bd 90 01 9f 3e
       0.004929556 0.174917 -0.043069586 0.3105588
0003f0 6b 5d 92 3d c7 57 06 3e a1 cb ad bd 5d 74 7d bd
       0.07146724 0.13119422 -0.08486105 -0.06187855

gcn_layers.0.node_feat.U.bias f4 [32]
000000 fc 80 1a 3d 6a a4 d6 bd 22 12 15 3e 9b 61 d5 3c
       0.037720665 -0.10480578 0.14557698 0.026047518
000010 89 6e 42 3e 5e 90 5b bd 95 44 d6 bd 15 e6 4c be
       0.18987478 -0.053604476 -0.104623 -0.20009644
000020 14 c8 01 be d4 8c 0c be a6 84 5e be 80 3c 0f bc
       -0.1267398 -0.13725597 -0.21730289 -0.008742452
000030 a4 17 a7 3c aa d8 72 3d 43 cf 49 3d 4e d0 48 3d
       0.020397015 0.05928866 0.049269926 0.04902678
000040 65 4a 5b 3d 7c 04 30 3e e8 c1 14 bb ff ad 3c 3c
       0.053537745 0.1718921 -0.0022698585 0.011516093
000050 95 47 0c be 74 27 30 be 15 ad 5c bd 4f ee 9c 3d
       -0.13699181 -0.1720255 -0.053876 0.07662641
000060 08 84 8f bd 14 ad 68 3d 9b 69 08 be 23 e7 c8 3d
       -0.07007605 0.056805685 -0.13321535 0.09809711
000070 3e 44 96 bc 42 79 02 3d f8 48 d9 3c ca af 32 3c
       -0.018343087 0.03185392 0.026524052 0.010906169

gcn_layers.0.node_feat.V.weight f4 [32, 32]
000000 18 2a 31 3e fc 39 78 3e c8 48 2f 3e c1 5f db 3d
       0.17301214 0.2424087 0.17117608 0.10711623
000010 30 fb bf bd e6 a3 f8 3d 07 b4 16 bc bc a5 31 bd
       -0.09374082 0.12140636 -0.009198195 -0.043370947
000020 ec 76 da 3c 41 84 25 be cb f3 c5 3d d3 56 28 3e
       0.026668034 -0.16163732 0.096656404 0.16439371
000030 02 12 bb 3d 47 b6 4d be 6d de 99 bd 68 b4 23 bd
       0.09134294 -0.20089065 -0.075131275 -0.03996697
000040 40 ea 6a bd 86 98 27 3e dd 28 ba 3d 66 a3 15 3e
       -0.057352304 0.16366777 0.09089825 0.14613113
000050 77 4f 49 3e eb 5b 0a 3e b5 c0 28 3d 58 a6 61 be
       0.1965922 0.13511626 0.041199405 -0.22036111
000060 0a 8a 6e 3c b7 1e bf bc 9e 75 c0 3d 78 05 a4 3d
       0.014559278 -0.023330076 0.09397434 0.080088556
000070 75 f9 3d 3d 04 62 3b bc 48 1b 46 3e bf a4 5f 3e
       0.04638048 -0.011436943 0.19346344 0.2184019
000080 4b f3 64 bd ff cc 32 3e 6c ee 1f 3d 63 54 a7 3d
       -0.055896085 0.17461012 0.039045736 0.08170392
000090 c7 5d 3e 3e fe 30 5d bd 04 e8 1c 3e 0e bf 88 3c
       0.1859046 -0.0540018 0.15322882 0.016692664
0000a0 7f 2c 09 bd 1e c6 b6 3d 9e 46 a0 bd c1 a8 97 bd
       -0.0334897 0.089245066 -0.07825969 -0.07405234
0000b0 bf 89 a2 bd 99 a3 9c 3d fd 79 73 3e 38 65 ab 3d
       -0.07936429 0.07648391 0.23777004 0.08368915
0000c0 99 62 0f 3d 7d c2 a2 bc bf 51 0d 3d 2a 08 17 3e
       0.03500614 -0.01986813 0.034501787 0.14749208
0000d0 83 e5 43 be f1 ab 29 3e b2 fa da 3d 6d bc 47 be
       -0.1913052 0.16569497 0.106923476 -0.19505472
0000e0 65 1f 0f 3e b8 38 f2 3d 3e 74 11 be 78 f9 94 bc
       0.1397682 0.118272245 -0.14204499 -0.018185362
0000f0 dc d8 8b be d3 00 8d 3b d4 d8 8e 3d 5c 39 2b 3e
       -0.27313888 0.004303077 0.069749504 0.167211
000100 2c 46 bc bd f7 52 d9 bd 0c 39 31 3d ac 7f 89 3d
       -0.09193072 -0.106115274 0.043267295 0.067138046
000110 6f ef 8a bd ee c8 e7 bd 9e 92 03 3e 9c b8 f2 bd
       -0.067839496 -0.11317621 0.12848899 -0.11851618
000120 6c c8 70 bd 21 70 54 3e e5 1e 53 3d 43 ba 99 be
       -0.058784887 0.20745899 0.051543135 -0.3002492
000130 2e 1f 0b bd 30 9f 74 be 86 61 35 bd 63 d6 32 3b
       -0.033965282 -0.2388885 -0.04428246 0.002728843
000140 93 45 3c 3e 8f 53 53 be 48 db d6 3c d5 7a b8 3d
       0.18385915 -0.20637344 0.026227608 0.09007803
000150 d3 df 44 be 30 bb a2 bd c8 fb 07 be 61 51 a8 bd
       -0.19226007 -0.079458594 -0.1327964 -0.08218647
000160 93 f8 b9 bd c6 71 15 3e 59 46 08 be 86 c8 14 3d
       -0.09080615 0.14594182 -0.13308086 0.036324047
000170 05 93 61 be e8 d1 a6 3b 81 64 c0 3d 9c 43 84 bd
       -0.2202874 0.0050909407 0.093941696 -0.06458208
000180 78 2f 02 3e a0 b1 31 3d 01 bb 9c 3d b6 2d d0 3d
       0.1271342 0.043382287 0.07652856 0.10164969
000190 c9 44 22 bd 41 91 36 3d 5d 46 3f be 13 bd 45 bd
       -0.03961638 0.04457212 -0.18679185 -0.04827602
0001a0 44 81 9c bd d3 84 c3 3d 57 de 2a be 44 05 d4 3d
       -0.07641843 0.095468186 -0.16686378 0.10352567
0001b0 b8 1d 37 3e da 19 9d bd 25 40 05 3e 07 d0 ae bd
       0.1788243 -0.076709464 0.1301275 -0.08535772
0001c0 09 aa 13 3e 24 27 1e 3e 3f ad 9d 3c 66 86 11 3c
       0.14420332 0.15444618 0.01924765 0.008882141
0001d0 d4 7f 56 bd 7c 08 a5 bd da 63 42 be fe 3f 38 be
       -0.052368 -0.08058259 -0.18983403 -0.17993161
0001e0 5c c7 a8 bd 10 9e 89 3d f0 66 12 bd fa 73 33 3c
       -0.0824115 0.06719601 -0.0357427 0.010952944
0001f0 33 7e 26 3a 71 6e 33 be e7 89 cb bd ed 9c b3 bd
       0.00063512026 -0.17522599 -0.09938412 -0.087701656
000200 95 67 31 be 64 46 eb bd 49 8b d9 3d f8 e5 6d bb
       -0.1732467 -0.11488035 0.1062227 -0.0036300402
000210 59 02 64 bd 93 ad 57 bd 49 09 48 3d a0 1f 05 3d
       -0.0556663 -0.052655768 0.04883698 0.032500863
000220 2c 74 80 3c ca 67 cd 3c 8d 92 75 bc 05 e5 f7 bd
       0.015680395 0.025073905 -0.014988554 -0.12104229
000230 02 80 46 3d ff c9 88 3d b5 d4 81 be c4 99 9a bc
       0.04846192 0.06679153 -0.25357595 -0.01887215
000240 d6 ab af 3d 9b 94 a6 bd 5a 60 cf 3d 71 01 c7 bd
       0.08577697 -0.08133813 0.101257995 -0.09717072
000250 05 d1 fb bd 75 65 1a be cb 75 16 bd b9 cf bb bc
       -0.12295727 -0.15077765 -0.03673343 -0.022926198
000260 8a 6b 27 be ba 8d d4 bd 50 ad ac 3d 88 89 d4 bd
       -0.16349617 -0.10378595 0.08431494 -0.103777945
000270 c1 55 05 3e db fb a1 bd c6 80 40 3e 4b a3 19 3e
       0.13020994 -0.07909366 0.18799123 0.15003698
000280 63 49 c2 bd 2a 7c 6d bd f2 61 b7 3c 2f ac b8 3c
       -0.09486654 -0.05797974 0.022385571 0.022543041
000290 cc ad ac 3d a7 c2 0f bd f7 4b 5a 3d 87 f5 0b 3e
       0.084315866 -0.035097744 0.053295102 0.1366788
0002a0 9d 41 d5 bd e0 81 dc bd 81 49 66 3e dd 82 50 3e
       -0.10412905 -0.10766959 0.22488977 0.2036242
0002b0 39 c7 b9 bc 21 3a 78 bc d9 69 a8 3d c6 22 95 bc
       -0.022678005 -0.015150578 0.08223314 -0.018205058
0002c0 7c 7e c8 bd 90 bd 58 3d d9 9b 2a be 94 6e 27 3c
       -0.0978975 0.052915156 -0.16661014 0.010219235
0002d0 30 1c 03 3d f9 0e d2 bd cf ce 16 3e 3a 66 22 3e
       0.032009304 -0.10256762 0.14727329 0.15859309
0002e0 d4 92 cc 3c 6f d2 db 3c d2 4c a5 bd 7d 25 a4 bd
       0.024972357 0.026833741 -0.08071293 -0.08014963
0002f0 83 7a 77 be 9d 23 80 3e 1c 19 8a bd 80 90 50 bc
       -0.24167828 0.2502717 -0.067430705 -0.012729764
000300 5c c3 b4 3d 73 50 f2 3c e6 64 65 3e 43 62 71 3c
       0.08826324 0.029579377 0.22401771 0.0147329
000310 fe f8 5e be 01 12 14 3d 59 fa 82 bd de ce 26 3d
       -0.2177467 0.036149982 -0.06395406 0.040724628
000320 d6 f9 99 3d 5a 71 03 bd 87 65 4a be 77 a1 a9 bd
       0.075183555 -0.032090522 -0.19765292 -0.0828275
000330 70 60 6d 3d 49 30 ab 3c 12 a2 b0 bb a9 ed 42 3d
       0.057953298 0.020897048 -0.005390414 0.04758993
000340 91 f6 e5 bd 66 69 31 3e 4b cb c6 3d a8 b7 4b 3e
       -0.112286694 0.17325363 0.09706744 0.19894278
000350 cc 80 9f bd 69 2d 02 3e 5b 0f 63 3c 5d 16 26 be
       -0.07788238 0.12712635 0.0138586415 -0.16219468
000360 30 6d b4 bd cf 4a 24 bd ff f2 00 be 1e ee cf bd
       -0.08809888 -0.040110406 -0.12592696 -0.10152839
000370 e7 aa 4f 3e 9e bc 87 3d 81 86 ec 3d 5b 61 49 3e
       0.20280038 0.06627773 0.11549092 0.19666044
000380 d6 16 31 be e7 17 7b 3d 05 6a 0b be c3 f8 c5 bc
       -0.17293867 0.061302092 -0.13614662 -0.02416647
000390 47 1a 9b 3c f6 15 c3 bd 30 ce 19 be a8 8f a3 bd
       0.018933428 -0.09525673 -0.1502006 -0.07986385
0003a0 53 5b 09 3d 36 3a e2 3c 07 d9 4e be 06 d0 62 3d
       0.03353436 0.027615648 -0.20199977 0.055374168
0003b0 d6 17 e1 3d 63 d1 27 bd d5 a1 1f be 15 14 6d bd
       0.109908745 -0.04097117 -0.15589078 -0.05788048
0003c0 91 8f 25 be b3 fe 35 bd ff 16 e8 3c e3 fc 24 3d
       -0.16168047 -0.044432353 0.028331278 0.040280234
0003d0 31 41 8a 3d f3 d7 08 3e fe 5b 25 3e 4d 6a c9 3d
       0.067507155 0.13363628 0.16148373 0.098347284
0003e0 1c 4b db bd 39 fa 6c 3d 5f 09 89 3d 91 68 36 be
       -0.10707685 0.05785582 0.066912405 -0.17813326
0003f0 86 93 38 3e 5e 3f 54 be f1 77 99 bd 2e a2 d4 bd
       0.18025026 -0.20727298 -0.0749358 -0.10382496

gcn_layers.0.node_feat.V.bias f4 [32]
000000 4b 6d 30 be 1a ef eb bd 1d 39 8f 3c f0 22 55 3d
       -0.17229192 -0.115202144 0.017483288 0.052035272
000010 dd 2c 03 be 09 51 c0 3d bd 59 80 bd 4b 75 8f bd
       -0.12810083 0.09390456 -0.06267116 -0.07004794
000020 85 e8 a8 bd 9c ab dd bc 5e 5d 9b bd 59 e0 01 3e
       -0.082474746 -0.027059369 -0.07586168 0.12683238
000030 3e 67 a4 3d 9f e2 26 bd 19 ff 0d bd 13 d7 1b 3d
       0.080275044 -0.040743466 -0.03466711 0.038046908
000040 8e e5 b5 bd 16 88 8e 3d 32 05 01 3e a5 dc 01 bd
       -0.08881675 0.0695955 0.12599638 -0.031704564
000050 96 c0 33 bd 59 d1 19 be eb cf d4 3b 1f fb 54 3e
       -0.043884836 -0.15021266 0.0064945123 0.2079892
000060 dc 49 8f 3d 0e df 2f 3e 02 33 78 bd 99 92 89 3d
       0.069965094 0.17174932 -0.06059552 0.067174144
000070 06 b9 b5 bd d7 5e 7e bd 32 76 36 bd 7e f7 48 3c
       -0.08873181 -0.062102165 -0.044546314 0.012266038

gcn_layers.0.node_norm.batch_norm.weight f4 [32]
000000 bb 7e 4f 3f 48 8e 67 3f 9a 2b 54 3f 63 78 5a 3f
       0.8105275 0.9045148 0.8287903 0.85339946
000010 2e 4b 81 3f b8 d8 67 3f 76 4e 65 3f af a6 77 3f
       1.0101068 0.9056506 0.89572847 0.96738714
000020 e4 d3 46 3f 49 21 6f 3f d3 32 73 3f f3 25 63 3f
       0.7766707 0.93410164 0.94999427 0.8872978
000030 91 a7 3c 3f 41 1e 3f 3f 68 3a 5b 3f dc 7e 72 3f
       0.73693186 0.7465554 0.85635996 0.9472482
000040 20 61 68 3f 0a 3d 85 3f 47 b6 74 3f 7a 29 66 3f
       0.907732 1.0409253 0.95590633 0.8990704
000050 7c 22 24 3f c8 88 5d 3f 73 e9 33 3f 82 61 6c 3f
       0.6411512 0.86536837 0.7027809 0.92336285
000060 39 71 75 3f ce 70 4e 3f c3 e9 5f 3f 8c e7 5b 3f
       0.9587589 0.80640876 0.8746607 0.8590019
000070 7d d4 69 3f 1a 75 5c 3f 4b c4 76 3f f4 54 70 3f
       0.91339856 0.8611618 0.9639327 0.9387963

gcn_layers.0.node_norm.batch_norm.bias f4 [32]
000000 4c 52 0d bd 97 ad 17 bd be e3 42 3d 2c e8 f0 3d
       -0.034502313 -0.037030783 0.047580473 0.11763033
000010 53 0b 00 bd 66 96 bd 3d de 56 06 3c f3 8d 9a 3d
       -0.0312608 0.09257202 0.008199422 0.07546606
000020 65 03 8f 3e 72 d4 91 bf 81 f3 c0 3c f5 e8 c9 3c
       0.27932277 -1.1392958 0.023553612 0.024647215
000030 6b 33 6a bd 33 d2 95 bd 9a 20 dc 3c 42 b2 33 3c
       -0.057177942 -0.07315483 0.026871014 0.010967793
000040 c9 5e 2c 3d a8 9e 8f 3c 09 23 0b 3d 46 71 a7 3d
       0.04208258 0.017531708 0.03396896 0.08175902
000050 2a ea 14 3d 61 9e 92 bf 0b ce cc bd 55 51 1c 3e
       0.03635613 -1.1454583 -0.10000237 0.152654
000060 43 d6 60 3d 70 43 7f 3c bd 9e 9b 3d 27 28 a2 3d
       0.054891836 0.015580043 0.07598636 0.07917815
000070 d3 be 8a bd 58 93 29 3d af d5 01 3e da 36 4b 3e
       -0.06774678 0.041400284 0.1267917 0.19845143

gcn_layers.0.edge_feat.U.weight f4 [32, 32]
000000 36 a2 73 3e ad 7c 0e be d0 72 a9 3e 16 c1 80 be
       0.23792347 -0.13914748 0.33095407 -0.25147313
000010 19 07 60 be 41 78 97 3e 48 bb a3 3d 77 d4 3e 3e
       -0.21877708 0.29583934 0.079947054 0.18635736
000020 b2 94 51 3e c1 eb 7f be 1c d8 24 3e 1f 8e f1 bd
       0.20466879 -0.24992277 0.16098064 -0.117946856
000030 1a dc 93 bd 6d 50 a6 be 02 04 70 3d 7a 84 3d be
       -0.072197154 -0.32483235 0.058597572 -0.18507567
000040 6a 5a 8c 3d 57 65 ad 3d 32 25 19 3e f0 f6 a7 bc
       0.068531826 0.08466595 0.14955595 -0.020503491
000050 b8 62 b4 bd 93 f0 0d 3c d4 1d 65 bd 64 ec 56 bc
       -0.088078916 0.008663314 -0.05593665 -0.013117883
000060 5a ad 65 3c d7 f9 f4 bd 0d a2 92 bd 9d 73 2b 3e
       0.014018381 -0.11961716 -0.07159815 0.16743322
000070 81 34 ec bd fa 1f 79 3c 9f 52 a4 3c 12 d8 00 3e
       -0.11533452 0.015205378 0.020058928 0.12582424
000080 6e 93 8b bd ae fd 19 3d 73 8b 94 3d be 73 5f bd
       -0.06815229 0.037595443 0.0725316 -0.05455374
000090 60 88 22 bd d7 a6 2b be 17 bb 53 be e0 be 57 bd
       -0.03968084 -0.16762863 -0.20676838 -0.052672267
0000a0 c7 08 58 be cb 28 39 3e 59 ec 46 be ac 32 6a bd
       -0.21097098 0.18081968 -0.19426097 -0.05717723
0000b0 fa 1d 2d bd 54 ee 5c 3d bc 2d d8 bb 04 79 0a be
       -0.042264916 0.053938225 -0.006597249 -0.13522726
0000c0 b7 5b d8 be 50 40 07 bc 9b 9e 1c 3d e4 6b be 3d
       -0.42257473 -0.008255079 0.038237195 0.09297922
0000d0 72 a1 95 3d 87 9d f6 3c be 51 52 3e fe 60 f8 bd
       0.07306184 0.030104412 0.20538995 -0.12127875
0000e0 00 9b ed 3d 3c f7 ca bd 0a 0b 8f bc 7e 30 c4 bd
       0.116018295 -0.099104375 -0.017461319 -0.09579562
0000f0 71 d4 f3 3d 2a 93 ff 3d bb d6 84 be 5f 64 0e bd
       0.11905754 0.12479241 -0.25945076 -0.03476369
000100 b9 62 a9 3d 50 9d 25 3c 27 cc 1e 3e 46 34 c8 bd
       0.08270783 0.010108307 0.15507565 -0.09775595
000110 57 a9 cf bd 43 82 b2 3d 6a d5 92 3e 9e b7 94 3e
       -0.10139721 0.08716252 0.28678447 0.2904634
000120 a8 52 93 3e 2e aa 20 be dd ba 6a 3d 87 f8 8b bb
       0.28774 -0.15689918 0.057307113 -0.00427157
000130 bf 61 9f be 66 32 e1 bd 98 d1 a1 3e 8f 8d 1d be
       -0.31129262 -0.10995941 0.3160522 -0.15386032
000140 17 1b b0 3d dc 97 40 3e 10 aa 3c be 69 85 34 3b
       0.08598917 0.1880793 -0.18424249 0.002754534
000150 78 71 3f bd 01 31 3d be e0 bd c8 bd e6 2b 09 3e
       -0.04673907 -0.18475725 -0.09801841 0.13395652
000160 32 ab 35 3e 32 04 90 3c a0 60 95 3d 41 c8 9a 3d
       0.17741087 0.017580125 0.072938204 0.07557727
000170 97 e0 bf bd 67 26 af 3d ae a1 3a bd 17 54 c9 3d
       -0.09369009 0.085522465 -0.045564346 0.09830492
000180 3c 6f c4 3d 90 38 71 bd e4 4f 2c 3e 5e 8c 56 bd
       0.09591529 -0.058891833 0.16827351 -0.05237996
000190 86 5b 1d 3d 07 7d f2 3c 83 86 93 bd 26 93 93 3d
       0.03841736 0.029600633 -0.072033904 0.07205801
0001a0 e2 f8 2a be 62 24 4a 3d ec 91 8d bd ab 97 9d bd
       -0.16696504 0.049351104 -0.06912598 -0.07694944
0001b0 5e 57 e1 3c 5c a7 62 3d e7 60 6f 3c 20 7c e6 3d
       0.02750748 0.055335388 0.014610506 0.11254144
0001c0 ac 16 fa 3d 86 ac ab bd 77 b8 ac 3a b7 98 43 3c
       0.122113556 -0.083825156 0.0013177533 0.0119382655
0001d0 8a f7 97 bd e7 1d 6a 3d 4d 24 9a be 01 d5 f4 bc
       -0.07420261 0.057157423 -0.3010582 -0.029886724
0001e0 d3 a3 68 be 3a c2 f2 bd 5e 22 66 bb 22 44 34 3e
       -0.22718744 -0.11853452 -0.00351157 0.17604116
0001f0 95 13 83 be 1c 24 12 3e c8 90 44 3e 0e 5f 9c be
       -0.25600877 0.14271587 0.19195855 -0.3054127
000200 74 04 0d 3d c7 f3 3d be 25 49 b2 bc 88 c7 69 be
       0.034428075 -0.18550025 -0.021763394 -0.22830021
000210 82 8c 80 be dd 3f 86 3e 67 1e 04 3e 0f 3d 76 3e
       -0.251072 0.262206 0.12902223 0.2404673
000220 30 65 70 3e af cc b7 3c cb 6a 69 bd 68 89 93 be
       0.234761 0.022436468 -0.05698661 -0.2881577
000230 ea 63 40 be ec 39 8a bc b3 b1 76 3e 79 fe 49 bd
       -0.18788114 -0.016873322 0.24091224 -0.04931495
000240 73 fb 8f bc fa 48 cc 3d f7 a0 a0 bd 2e 98 e0 bd
       -0.017575955 0.09974857 -0.078432016 -0.10966526
000250 f9 38 8e 3d 29 7d b8 bc b8 06 b2 3d 94 30 0a be
       0.069444604 -0.022520619 0.08692688 -0.13495094
000260 7c aa 4b 3b 6b c9 83 bb 67 e6 c3 bd fd f6 08 3e
       0.0031076958 -0.0040218136 -0.0956543 0.13375469
000270 79 f3 7b bd 59 cd 94 3d 21 fe 02 3e 2f 2f a4 bc
       -0.06151149 0.072657295 0.12792255 -0.02004203
000280 8a f7 99 bd 5b 44 40 3e bb cf 50 3c 49 ec 3e 3e
       -0.075179175 0.18776076 0.012744839 0.18644823
000290 4b 92 bd 3c c3 ce 1e be c0 f8 85 be 9f 88 1c be
       0.023141047 -0.15508561 -0.26166344 -0.15286492
0002a0 f4 c6 81 be be 2c da 3d 2e a7 69 bd 10 0b 5c 3e
       -0.25347102 0.10653065 -0.0570442 0.21488595
0002b0 1a 11 89 3e ff 36 80 3e 68 25 90 bd 84 64 8e 3e
       0.2677086 0.2504196 -0.07038385 0.27811062
0002c0 25 c8 6a be 03 d7 49 3d 11 7b c0 3d e8 03 ae 3d
       -0.22927912 0.049277317 0.09398473 0.08496839
0002d0 21 69 95 bd 48 77 5e bd 15 26 34 bd ec 5b 5e 3e
       -0.072954424 -0.054312974 -0.04398163 0.21714753
0002e0 65 86 46 be 29 e6 46 3d fa 75 6a 3d da dd 81 3d
       -0.19387205 0.04855934 0.057241417 0.06341143
0002f0 8b 61 0c be d8 93 2b 3e f8 3b 46 be b2 79 c1 bd
       -0.13709085 0.16755617 -0.19358814 -0.0944704
000300 fa bc 23 3d ec dc 72 be 3c 61 8b 3e 11 8e 75 be
       0.039975144 -0.23717088 0.2722262 -0.23979975
000310 bd 88 3b be fd 8b 91 3d 68 da 68 3e f5 da e1 3c
       -0.1831388 0.07106779 0.22739565 0.027570227
000320 ad 96 7a 3e be f8 60 be a1 93 98 3e 8a d8 a9 bd
       0.24471541 -0.21969888 0.29800132 -0.08293255
000330 85 8b 40 be a9 a2 74 be ab aa 3a 3e 32 f3 00 be
       -0.18803222 -0.23890175 0.18229167 -0.12592772
000340 35 18 6a 3d 4c d3 98 bd 99 b6 cd 3c a7 d9 c0 bd
       0.057151992 -0.07462177 0.025111483 -0.09416514
000350 bb aa 3f be 13 dd 16 be dc bf 09 be c1 bf 38 bd
       -0.18717472 -0.1473277 -0.13452095 -0.045104746
000360 e9 94 39 3e 03 3a 6f bc b5 33 2d 3d 44 39 91 bd
       0.18123211 -0.014601233 0.04228564 -0.07091001
000370 f6 29 f8 bd 03 60 ba bd da 57 09 3e 16 1a 3b 3d
       -0.121173784 -0.09100344 0.13412419 0.045679174
000380 3e a4 8f bd 97 11 02 be ae e4 98 bb a8 80 bf 3d
       -0.070137486 -0.12702022 -0.0046659326 0.09350711
000390 9e e2 a1 3c 96 06 35 bd 8a 82 2d 3d 15 39 c8 3d
       0.01976138 -0.044195734 0.04236082 0.097765125
0003a0 9b e3 ff 3d 9b 17 8f bd 9a f0 e5 3d 95 63 51 3d
       0.12494584 -0.06986924 0.11227532 0.05112036
0003b0 ef b0 be 3d f6 13 c6 bd e2 46 10 be c9 12 57 bd
       0.09311091 -0.09671776 -0.1408954 -0.05250815
0003c0 c2 96 89 be 9e c7 53 3e 82 fe 03 bb 20 cf dc 3c
       -0.26872832 0.20681617 -0.0020140712 0.026954234
0003d0 ef bd b5 bc eb 5a a0 3d b9 fa 71 3e c7 03 24 be
       -0.022185294 0.07829841 0.236308 -0.16017066
0003e0 8d 3a ef 3c 36 b4 ab bd 39 ef 14 be 4f 0c 39 be
       0.029202724 -0.08383982 -0.14544381 -0.18071102
0003f0 49 1f 01 3d 0d 16 7e 3d e2 54 b7 3c 9a 47 8f 3e
       0.031523976 0.062032748 0.022379342 0.27984315

gcn_layers.0.edge_feat.U.bias f4 [32]
000000 df 62 b7 be dc 19 2e 3f bd ea 4f 3e 8f 11 5b 3e
       -0.3581762 0.6800821 0.2030439 0.21393417
000010 b4 52 ca be 18 8e 2a 3f ea 10 fe be b9 a2 62 3f
       -0.39516222 0.6662307 -0.4962228 0.88529545
000020 34 4e 8e bf 30 39 be 3e e2 0e 9b be c7 2b b0 3d
       -1.1117616 0.37153006 -0.30284792 0.086021
000030 a0 16 b2 be 7f 45 e5 bd 8d 6b 08 3f be 84 ae bc
       -0.34782887 -0.11194896 0.5328911 -0.02130353
000040 65 23 b1 3e 02 1e 8e 3e f4 a6 58 bf 3a ef cd 3c
       0.34597316 0.2775727 -0.8462975 0.025138486
000050 6a de 2e 3d d6 b3 54 be 34 81 d1 3d b9 02 90 bf
       0.04269258 -0.20771727 0.10229722 -1.1250831
000060 22 74 40 3f ad ef 36 3f 9c 01 64 3f 88 0c 22 3f
       0.75177205 0.71459466 0.89064956 0.6330037
000070 79 fc 78 3e 3b 3c c0 bd d0 13 18 bf 43 02 7e bf
       0.2431506 -0.09386488 -0.5940523 -0.992222

gcn_layers.0.edge_feat.V.weight f4 [32, 32]
000000 a5 05 ca bc b9 dd 47 be 1c 7a f3 bc a9 ce aa 3d
       -0.024660895 -0.19518174 -0.029721312 0.083401985
000010 82 aa 31 3e 0c 80 a7 3d db 4a 1a 3e 4b e2 21 3b
       0.173502 0.0817872 0.15067618 0.0024701532
000020 db 8d 32 3e bb dc f5 3c 94 bd 84 3d 4f d7 23 bd
       0.17436926 0.030012479 0.06481472 -0.040000256
000030 b5 83 3e be 38 64 6b bc 06 c8 0b bd c4 b6 0f 3d
       -0.1860493 -0.014367156 -0.034126304 0.03508641
000040 bc ac f8 bd 55 81 20 be 06 30 27 be cc 6c ec bd
       -0.121423215 -0.15674336 -0.16326913 -0.11544189
000050 9a aa b0 bd e7 73 d7 3d d8 dd 0b 3d c3 c6 bc 3d
       -0.0862629 0.105201535 0.034147114 0.09217598
000060 03 2f 96 bd 94 0e 33 be 96 8d 28 3e 91 9e f0 3d
       -0.073331855 -0.1748603 0.16460261 0.11748994
000070 91 94 2c be 9c 28 8b bd 97 75 69 be 0e 4b 97 3d
       -0.16853549 -0.06794855 -0.22798763 0.073873624
000080 66 07 dc bd 78 bd 72 bd 5a 33 c8 bd 0b c1 f7 3b
       -0.10743599 -0.059262723 -0.097754195 0.0075608543
000090 03 6a c7 3d 1a 4d ac 3d dc 2b 75 bd 7b 3e 40 be
       0.09737017 0.084131435 -0.05985628 -0.18773834
0000a0 6b a8 80 3d 09 28 89 3d 39 f9 d8 3c 9f f0 9c bd
       0.06282123 0.06697089 0.026486026 -0.07663082
0000b0 e3 74 98 bc 7b 32 0d be 4a 8c ab bd ff bd ce 3c
       -0.018610423 -0.13788788 -0.083763674 0.025237082
0000c0 b2 df ed bd ff cb ba 3d 67 3f 0b 3e 31 1d 2a bd
       -0.11614932 0.091209404 0.13598405 -0.041531745
0000d0 a6 47 ea 3d 93 59 e6 3d 95 09 fd 3d a6 d9 d7 3d
       0.11439447 0.11247554 0.12355343 0.1053956
0000e0 09 b8 15 bd b5 58 c3 bd e3 d6 bc bd 4d cd 2f 3e
       -0.036552463 -0.09538404 -0.09220674 0.1716816
0000f0 36 76 0b 3b 91 b9 6d bd 3b 42 18 3e 23 8e 16 3e
       0.0021280176 -0.058038298 0.14869015 0.14702658
000100 8a 2b a1 3c 60 2f 2a 3e e0 ff 1c 3e ff cb 8c bb
       0.019674081 0.16619635 0.15331984 -0.004296779
000110 f5 d9 b0 bc e3 91 7e 3d 1f ad 0d be 4b 92 07 3e
       -0.021588305 0.062150847 -0.13835572 0.132394
000120 50 2d b4 bc aa b1 ac 3d ce ab f7 bd 46 f3 77 bc
       -0.021994263 0.08432324 -0.12093316 -0.0151336845
000130 04 a2 75 3d ad 7a 93 3c b9 53 cb bd 33 e3 2f 3e
       0.059968963 0.018002832 -0.09928078 0.17176513
000140 a2 87 f5 bd a3 f0 1d 3c 28 e5 8f 3d 59 92 70 3d
       -0.119887605 0.009639892 0.0702613 0.058733318
000150 a5 fd 1b bc a2 c0 04 be 4e 9d 10 3e 1b c8 b2 bd
       -0.009520923 -0.12964109 0.14122507 -0.08729573
000160 16 04 46 3d 64 6b d3 3d 55 02 9a 3c 13 e8 3d 3c
       0.04834374 0.103232175 0.01879994 0.011590975
000170 31 40 c5 bd c0 57 c2 3c 99 72 26 be 5b 67 cb bc
       -0.09631384 0.023723483 -0.16254653 -0.024829557
000180 37 e8 af bc 8e 0e 16 be 3f 64 d5 3d b8 ed 0b 3e
       -0.021473033 -0.1465399 0.10419511 0.13664901
000190 9e c9 81 3c 91 9c c3 bd f4 c0 90 bd 1e f0 b1 bd
       0.015843209 -0.09551347 -0.07068053 -0.08688377
0001a0 3f e2 94 bd 10 16 43 3e 6f ba 2d 3d e7 c9 36 bc
       -0.072697155 0.19051385 0.042414125 -0.011156536
0001b0 2b 04 e5 bb 1c 67 02 be 4b c8 3a 3e fe a8 72 3d
       -0.0069890223 -0.12734646 0.18240468 0.059243195
0001c0 8f 58 16 3e c6 6f 79 3d 9f 53 28 3c 53 3e a3 bd
       0.1468222 0.06089761 0.010273843 -0.07970872
0001d0 9f 73 bc bd f0 47 39 be c5 fe db 3c ab 06 17 3d
       -0.092017405 -0.18093848 0.026854882 0.036871593
0001e0 e6 ad 9a bd 78 cc 29 be a6 b6 02 be 98 81 80 bd
       -0.075527 -0.16581905 -0.12764987 -0.06274718
0001f0 f9 5f 16 be 58 7e 01 3e 01 9f 9c 3b f8 4b 27 be
       -0.14685048 0.12645853 0.004779697 -0.16337574
000200 48 24 10 bd 87 f5 18 3e fd bd 44 bd 60 26 57 3e
       -0.03519085 0.14937411 -0.04803275 0.21010733
000210 6f 19 ce bd 0b f2 a8 3d 29 21 57 3d ff 7c 0e be
       -0.10063445 0.08249291 0.05252186 -0.1391487
000220 11 e4 07 be 8d 5f 9a bd e0 98 ac bd 60 cd c8 bd
       -0.13270594 -0.07537756 -0.08427596 -0.09804797
000230 41 57 36 3c d6 00 07 be 41 df 14 bd 00 37 33 be
       0.011129201 -0.13183913 -0.036345724 -0.1750145
000240 1f de e0 3d ba a6 5f bd 75 45 7c 3d 52 da fc bd
       0.10979866 -0.054602362 0.061589677 -0.12346329
000250 29 20 09 bc ee 03 06 be c7 62 f8 3d ea 5c 0d 3e
       -0.008369484 -0.13087437 0.12128215 0.13804975
000260 28 c5 62 3d 96 bc 0d be 79 6f 07 3e fb f2 91 3d
       0.055363804 -0.13841471 0.13226117 0.07126423
000270 d2 a4 06 3e 8c c7 3c 3e 43 9c 3f 3d 07 ad ad bd
       0.13148811 0.18435496 0.046779882 -0.08480268
000280 e7 3b 35 bd 51 3d a3 bd fa 86 f6 bd cf b3 03 bb
       -0.04424658 -0.079706796 -0.120374635 -0.0020096188
000290 f9 5e 17 3e c3 e5 c1 3b 2c 5d e6 3d b0 fc bd bd
       0.14782323 0.0059172823 0.1124824 -0.09276712
0002a0 6b 22 12 3e 53 62 24 be bd 7f fe 3c 9c 32 75 3d
       0.14270942 -0.16053133 0.03106677 0.059862718
0002b0 1a b5 27 3e 65 07 3e 3d 32 9a aa 3c d9 45 40 be
       0.16377679 0.04639377 0.02082548 -0.18776645
0002c0 c6 d4 83 bd 9a c7 4d bb 7c 3d f5 bd 12 33 1e be
       -0.06437068 -0.003139949 -0.11974618 -0.1544917
0002d0 e4 e1 19 bd e7 0d 7a bc 97 d9 21 3e a3 ab 1c 3d
       -0.03756894 -0.015262104 0.1580566 0.038249623
0002e0 06 59 ca 3d 5f 13 c5 3d 11 f0 5c 3a ae af c3 3d
       0.09880261 0.09622835 0.00084281067 0.095549926
0002f0 db f4 41 3e fd 28 4d 3d 74 9e a4 3d ce 55 2a 3e
       0.18941061 0.050087918 0.08038035 0.16634294
000300 be a4 01 be 0e 37 58 bd 5b df 56 3d a4 3a ae bd
       -0.126605 -0.05278688 0.052459102 -0.085072786
000310 33 a0 98 3c db 54 f9 3d 36 fa 14 be ce 4a 23 3e
       0.018631076 0.12174388 -0.14548573 0.15946504
000320 70 cd 89 bd 94 11 05 be b2 63 9c bd 85 65 6b 3d
       -0.06728637 -0.12994987 -0.07636203 0.057469863
000330 0b 9a a3 bd 4c e8 d7 bd e7 86 2c 3d 1d 1d a1 3d
       -0.07988366 -0.10542354 0.04212084 0.07866881
000340 79 da 07 be 5f c1 ff 3d da 4c 2b 3e cd b3 ec 3d
       -0.13266934 0.124880545 0.16728535 0.11557732
000350 61 40 dd 3c 5e f7 95 bb 1e 48 45 bd d8 f2 93 bd
       0.027008237 -0.0045766076 -0.04816448 -0.07224053
000360 4a ea f1 bd ed 8d e7 3c 02 d9 e9 bd 08 79 ca 3d
       -0.11812265 0.028265918 -0.11418344 0.09886366
000370 6b 7c 28 3d 2d de ea 3d 4d dc 5b bd 60 fd a2 bd
       0.04113428 0.11468158 -0.053676892 -0.07958484
000380 a0 d6 a6 bd 65 52 e3 bd 18 34 14 be 82 89 34 3e
       -0.08146405 -0.110997 -0.14472997 0.1763058
000390 83 d5 f9 bd b3 05 94 bc f5 0b c3 3b 31 6c de bd
       -0.12198927 -0.018069124 0.005952353 -0.108604796
0003a0 9f cc c9 bd 07 37 95 bd e6 1a 3f 3e 48 fa ef 3b
       -0.098534815 -0.07285886 0.18662605 0.007323537
0003b0 5c d1 ed 3d e4 1b c1 bc 51 94 a1 3c 39 5f 15 be
       0.11612198 -0.02357287 0.019724043 -0.14587106
0003c0 78 5b 20 be e2 f6 20 3e 6c 9e b0 3d 4e 00 f7 3d
       -0.15659893 0.15719178 0.086239666 0.12060605
0003d0 08 3f b6 bd ff 1d 7b bd af c5 a9 bd bc a3 06 3e
       -0.08898741 -0.061307903 -0.08289658 0.13148397
0003e0 bb 69 ff 3a bf f3 0e bd 58 5d cd bd 77 2b d6 bb
       0.0019486466 -0.034900423 -0.100275695 -0.006535943
0003f0 47 fc 9d 3d a5 5e 8d 3c f8 03 d3 bd c8 23 fd bd
       0.07714134 0.017257044 -0.10303491 -0.1236034

gcn_layers.0.edge_feat.V.bias f4 [32]
000000 25 1f ea be cc 33 f0 3e 58 34 7c 3e 36 c5 cb bb
       -0.45726886 0.46914518 0.24629343 -0.0062185777
000010 5d f4 d3 be 8d 77 3e 3f 37 65 3a bf 3d 82 66 3f
       -0.41397372 0.7440117 -0.7281069 0.9004248
000020 93 d8 91 bf d1 8b a0 3e 15 6c 90 be e8 97 94 3e
       -1.1394218 0.3135667 -0.2820746 0.29022145
000030 d1 e8 9c be 7f be d5 3d 60 9d 88 3e e8 7c d4 3c
       -0.30646375 0.10436725 0.26682568 0.025938466
000040 1b 3c 8a 3e 5e 11 3e 3e 74 ff 7a bf b4 34 31 bd
       0.26998982 0.18561313 -0.9804604 -0.043263152
000050 7a 37 0c 3d bb 50 3f be 8b e6 67 3d 13 b3 91 bf
       0.034232594 -0.1868314 0.056616347 -1.1382774
000060 3f cf 54 3f f5 ba fe 3e c6 51 2d 3f b4 9f 92 3e
       0.8312873 0.49752012 0.677029 0.2863747
000070 ef 18 e5 3e c6 d8 a8 be 81 f4 20 bf 51 90 78 bf
       0.44745585 -0.32977885 -0.62873083 -0.9709521

gcn_layers.0.edge_norm.batch_norm.weight f4 [32]
000000 a7 ff 7a 3f 6e a0 76 3f 3d 59 79 3f 82 15 42 3f
       0.98046345 0.96338546 0.9740179 0.7581407
000010 c1 a4 79 3f 4d 0e 9d 3f c8 e6 80 3f a9 66 8d 3f
       0.9751702 1.2269989 1.0070429 1.1046954
000020 f8 3a 6f 3f 16 22 85 3f 41 59 6f 3f 8b d2 8a 3f
       0.93449354 1.0401027 0.93495566 1.0845503
000030 4e f4 86 3f 3c 06 56 3f 43 e0 58 3f ac cd 7d 3f
       1.0543306 0.8360326 0.84717196 0.99141955
000040 76 40 87 3f 48 e2 84 3f ee 01 64 3f 57 1b 71 3f
       1.0566547 1.0381556 0.89065444 0.9418234
000050 4a 08 74 3f 1c 48 7d 3f 15 9a 7c 3f b4 c9 5e 3f
       0.9532515 0.98938155 0.9867261 0.87026525
000060 c5 e9 89 3f ee 6b 92 3f d0 e0 6f 3f 92 e0 86 3f
       1.0774466 1.1439188 0.9370241 1.0537283
000070 a8 11 69 3f e4 85 a1 3f 88 76 76 3f d6 44 82 3f
       0.91042566 1.2618985 0.96274614 1.0177257

gcn_layers.0.edge_norm.batch_norm.bias f4 [32]
000000 56 88 f2 bd 4c bb a6 3d 71 c7 bc be 88 ae d3 bd
       -0.1184241 0.08141193 -0.36870912 -0.103360236
000010 20 cf f4 bd d0 3f 8f 3e c4 65 7d be d3 d7 a0 3c
       -0.119535685 0.27978373 -0.24745852 0.019634163
000020 d3 f0 4c be 50 4f f8 3d 57 80 3f be e9 41 ef 3d
       -0.20013742 0.12124503 -0.18701302 0.11682493
000030 09 07 13 3e 31 b4 96 bd 4e 98 9f bd ff a1 4c 3c
       0.14358152 -0.073585875 -0.07792722 0.012489795
000040 94 d9 a9 3d 17 19 1d 3d 37 09 7d be c9 e7 6a be
       0.08293453 0.038354006 -0.24710546 -0.22939982
000050 d0 79 70 bb 76 63 73 bd 75 92 58 3c 7c 10 37 be
       -0.00366937 -0.059421025 0.013218512 -0.17877382
000060 d1 97 06 be d9 c1 b0 3d aa fd 83 bd 7f 11 f7 3d
       -0.13143851 0.086307235 -0.06444867 0.12063884
000070 be 20 92 bc bc 66 32 3e d6 03 22 be 91 58 72 be
       -0.017837878 0.17422003 -0.15821776 -0.23666598

gcn_layers.1.node_feat.U.weight f4 [32, 32]
000000 ba a7 73 bd 07 86 db 3c d4 32 60 3d d9 41 e6 bd
       -0.05948613 0.026797308 0.054735973 -0.11243028
000010 20 0b da bd e5 39 91 3d 86 ea a9 3d 7a ff e1 3d
       -0.10646653 0.07091121 0.08296685 0.110350564
000020 24 95 2e bc 80 1e 8f bd 29 96 6f bd a7 28 92 bd
       -0.010655675 -0.06988239 -0.058492813 -0.0713666
000030 50 6f b1 bd 99 2b 3d be ce 81 30 be e3 3e 09 bd
       -0.08663809 -0.18473662 -0.17237017 -0.03350724
000040 87 a8 96 3d 22 05 98 3d cc 81 bb 3d 8e 87 4a 3d
       0.07356363 0.07422854 0.09155616 0.04944568
000050 bd 43 c3 3b 9f 89 05 be 53 92 14 be 0e 92 89 bd
       0.0059590028 -0.1304078 -0.14508943 -0.06717311
000060 27 80 32 be c7 b3 5a be 72 69 93 3d 68 32 5e 3c
       -0.17431699 -0.21357642 0.071978465 0.0135618225
000070 74 bf 32 be 95 7b 36 be 2d 0e 2b be 2c 26 8f 3e
       -0.17455846 -0.1782058 -0.16704626 0.2795881
000080 67 2c fe bc cf dd 4a be b2 97 fc 3c 7f 05 4f bd
       -0.031027032 -0.19811176 0.030834053 -0.05054235
000090 c7 33 dc bd fe 88 d0 3d 87 c9 55 bc 4c 67 4f be
       -0.10752063 0.10182379 -0.013048536 -0.20254248
0000a0 c5 c8 a4 3d ec 30 f7 be 2d 44 f6 bd 59 a7 d2 bc
       0.08046106 -0.48279512 -0.12024722 -0.025714563
0000b0 1d 4d 88 3d f3 aa 8a bd ae b4 ca 3d a4 f5 36 be
       0.06655333 -0.06770887 0.09897743 -0.17867142
0000c0 6b 1b 0c be c9 27 9b bd 98 78 15 bc ca bc 66 3d
       -0.13682334 -0.07575948 -0.00912299 0.056332387
0000d0 66 e1 69 3d f1 d0 a1 be 04 25 14 3e 2f ba d8 bd
       0.057099722 -0.31604722 0.14467245 -0.10582387
0000e0 cd cb 11 bd f3 ef 09 be 43 a8 ab 3d cf 4e 11 bd
       -0.03559475 -0.1347044 0.08381703 -0.03547555
0000f0 26 1e 06 be ef a4 85 bd 82 66 d7 3c 55 46 0c be
       -0.13097438 -0.06525599 0.026293997 -0.13698705
000100 0e 50 1c 3d 80 20 e7 3d 2b 01 dd 3d 91 29 69 3e
       0.038162284 0.11285496 0.107912384 0.22769763
000110 df e3 a5 ba 00 3b 22 3c df 39 0e 3e 36 dd b6 3d
       -0.0012656412 0.009901762 0.13889264 0.089289114
000120 bb ed 70 3d a0 ae 1b bc 14 d7 4b 3c d1 e9 1c be
       0.058820467 -0.009502083 0.012441415 -0.15323569
000130 3c 67 d7 3a a1 e7 16 3d 92 94 3f bc f3 92 91 3e
       0.0016433964 0.036841992 -0.011693137 0.28432426
000140 9f 1e 24 bc 20 55 59 3e fe f1 f5 3c cd 4f ae bd
       -0.010017066 0.21223879 0.030022617 -0.085113145
000150 40 c0 56 3e 3b d6 0f be 84 d9 57 3d 2b 2d 65 3c
       0.20971775 -0.14046566 0.052697673 0.01398782
000160 4b 84 45 3e 2c 25 8a bd 18 13 12 3d cc 5b 82 3d
       0.19288747 -0.06745371 0.03566274 0.06365165
000170 ae 75 60 bd 05 3a 03 3e 7b 2e 43 bd 4c 26 83 3d
       -0.054799728 0.12815101 -0.04765175 0.06403789
000180 b6 30 0e be 2b d1 3d be ff b4 54 bd 6f 4f 27 be
       -0.13885769 -0.18536822 -0.051930424 -0.16338895
000190 32 d9 03 be 98 f7 51 be e6 a5 32 3e a9 1f 00 be
       -0.12875822 -0.20504606 0.17446098 -0.12512077
0001a0 10 d3 bb 3c 2b 77 a9 3d dd c8 1d be c6 56 f0 bc
       0.02292779 0.082746826 -0.15408655 -0.029338252
0001b0 94 dc 7f bd 5b 05 7b bd 12 85 18 3d 67 f3 86 bd
       -0.06246622 -0.061284404 0.03723628 -0.06589394
0001c0 f1 57 29 3d ad 4e 71 be 0d 1e 4d be ce 43 fa bd
       0.041343633 -0.23565169 -0.20030995 -0.12219964
0001d0 9c fb ad bb ba 15 8b 3c 78 76 a2 bd 4d 44 30 be
       -0.005309535 0.016978133 -0.07932752 -0.17213555
0001e0 72 12 ea bd 47 0f 82 3c fd 67 c5 bb 5f 32 04 be
       -0.114292994 0.015876425 -0.0060243593 -0.1290984
0001f0 ee dc 26 be 04 bb a9 3d 7c b7 6e be a6 af 17 be
       -0.16295215 0.082876235 -0.23312181 -0.14813098
000200 e9 07 12 be e9 7a cd bd 49 86 2b be 25 4f 8e 3d
       -0.1426083 -0.10033209 -0.16750444 0.06948689
000210 72 e1 59 bc 03 9c 0f 3e 8a 1d 5c bb d4 86 c2 bd
       -0.013298379 0.14024357 -0.0033586943 -0.09498373
000220 60 e5 a3 3d 0c f8 41 bd 40 9e a2 bd f3 bb 68 3e
       0.08002734 -0.047355697 -0.0794034 0.22727947
000230 93 d5 5f 3e 77 00 f3 bd 25 fc 2e 3e e5 91 9b 3d
       0.21858816 -0.11865323 0.17088373 0.075961865
000240 c6 a3 92 3d 4a 91 b9 bc b3 83 55 3e 72 4c 87 3d
       0.071601436 -0.022652287 0.2085102 0.06606378
000250 58 77 48 bc d6 65 c8 3d df 94 44 bd b3 4d 15 3d
       -0.012235485 0.09785049 -0.047993537 0.036451053
000260 e0 67 db bd 96 bd 8f 3c 83 3d 7d bd 5a 0a 19 be
       -0.10713172 0.017546456 -0.06182624 -0.14945355
000270 2d 11 99 bd a0 0b 12 3e fe 10 10 3e 6e ba 85 3d
       -0.07473979 0.14262247 0.14068982 0.06529699
000280 26 52 5a bd 19 10 82 3c af d6 0c 3e a1 d2 3c be
       -0.053301 0.015876817 0.1375377 -0.18439724
000290 4d a0 18 be 79 d3 96 bd 43 7f f5 3b e5 a6 d8 3c
       -0.149049 -0.07364554 0.0074919774 0.026446769
0002a0 eb 81 9b 3d e4 ce bd be 4a eb 9a bc 1e ee 6f bd
       0.07593139 -0.37071908 -0.018911023 -0.058576696
0002b0 b1 f3 21 3d 67 19 40 be df ab 61 be 70 6a ee bc
       0.039539043 -0.1875969 -0.2203822 -0.029103488
0002c0 60 5d 99 3d 92 6d 3a bc af c1 0f 3e 82 35 0e 3e
       0.07488513 -0.011378663 0.14038728 0.13887599
0002d0 16 07 4f bc c1 e8 a6 be 02 f3 19 3e 70 2f 20 be
       -0.012635967 -0.32599452 0.15034106 -0.15643096
0002e0 5f 1a d9 3d c1 c4 fe 3c 28 b4 59 3c 92 34 c5 bd
       0.10600733 0.031099679 0.0132875815 -0.096291676
0002f0 cb 98 71 be 97 2f 2c 3c 1a 2e 73 be a8 6e 82 bd
       -0.23593442 0.010509393 -0.23748055 -0.06368762
000300 d6 26 2e bd a7 b5 75 3c b2 7c 63 bd e3 a3 0a 3c
       -0.042517506 0.014996923 -0.05553884 0.008461925
000310 fb 11 06 3e ee b2 da 3d a9 c1 98 bd 5c de de bc
       0.13092797 0.106786594 -0.07458813 -0.027205639
000320 f8 ee d5 bb 0e 77 09 3d 46 e4 69 3e e4 4c d2 3d
       -0.0065287314 0.033560805 0.22840986 0.10268572
000330 e5 73 0d 3d 86 39 7d bd 10 c2 01 3d 62 0d 72 3e
       0.034534354 -0.061822437 0.031679213 0.23637918
000340 9d be df 3c 4d 25 52 3e 58 97 31 3e 79 76 2e bd
       0.027312571 0.20522042 0.1734289 -0.042593453
000350 14 db 41 bd 57 d9 96 bd b3 cc 92 3d fe ed f9 bc
       -0.04732807 -0.07365673 0.071679495 -0.030508991
000360 71 37 9f 3d fd 0a 42 3e f3 c6 37 be d1 c8 dc bd
       0.077742465 0.18949504 -0.17946987 -0.1078049
000370 7f 94 59 3e be 73 0b 3e 25 e5 c4 bd fa 6e 78 3d
       0.21248053 0.13618371 -0.09614018 0.06065271
000380 f0 68 6d 3e 50 35 06 3e 4d 7a f5 bc f2 c4 33 3e
       0.23184562 0.13106275 -0.029965544 0.17555597
000390 78 33 f6 bd de 3f 1e 3e e1 41 bf bd b7 f5 48 3c
       -0.12021536 0.15454051 -0.09338737 0.012265614
0003a0 2e 1e 8d be 0f 45 0e be 74 9e 0e be 35 2d e8 bc
       -0.27562088 -0.13893531 -0.13927633 -0.028341869
0003b0 2e 46 41 3e ea bb c1 3d 5e 88 27 3e 2f 8b 90 3d
       0.18874428 0.0945967 0.16360614 0.07057797
0003c0 40 cc 5b 3d 64 f5 18 3d 88 b5 d1 3d da fc 75 3e
       0.053661585 0.037343398 0.102397025 0.24022236
0003d0 f8 77 99 bd cd eb 10 be 4d e2 4c 3e a7 60 31 3e
       -0.07493585 -0.14152451 0.20008202 0.17322026
0003e0 95 30 7f 3d 60 54 0d 3d f6 27 29 3e 74 ad 19 3e
       0.06230219 0.034504294 0.1651915 0.15007573
0003f0 21 df 04 3d 95 2f 43 3e cd 40 76 bd 5d f2 dd bd
       0.032439355 0.1906112 -0.060120393 -0.10837243

gcn_layers.1.node_feat.U.bias f4 [32]
000000 d7 c2 3e bd a2 d0 1a 3e 75 91 7f bd d8 40 ca bd
       -0.046572533 0.1511865 -0.062394578 -0.09875649
000010 3f 73 d7 3d ad 4f 9b 3d 76 ff 0c bd b6 3e 77 3c
       0.10520028 0.07583556 -0.034423314 0.015090635
000020 a9 bc b0 3d e3 9a 80 3d 9f 71 20 be e8 c8 26 3e
       0.08629734 0.06279542 -0.15668343 0.16287577
000030 11 a2 b8 bd 03 a7 fe 3d 34 12 3e bd 8f 9d eb bc
       -0.09015287 0.12434199 -0.04640408 -0.028761653
000040 b5 e0 6f bd b3 39 10 be 4c f1 90 bd f8 fe 24 3e
       -0.058563907 -0.1408451 -0.07077274 0.16112888
000050 c6 23 6b 3d 93 c9 3e bd be e5 3d 3d e8 69 f9 bd
       0.057407163 -0.046578955 0.046361677 -0.12178403
000060 ca 1c c4 bd 7a 76 ea bd 4a b8 22 bc f0 c9 00 3e
       -0.095758036 -0.11448379 -0.009931633 0.12577033
000070 c3 8d c7 bc c3 19 fc 3d d5 51 19 bd 5e 98 6e bd
       -0.02435959 0.12309601 -0.037431557 -0.058250777
