models/vrp_20_k3_unnormalized.pt (torch, 151558 bytes, 196 tensors)

node_feature_embedding.weight f4 [16, 3]
0.111424536 0.020666733 0.011866139 -0.029594526 1.1260692 -0.024759918 0.1763133 -0.58651805
0.1398884 0.18592146 -0.5096236 -0.02283084 0.4972281 0.73412234 -0.44994837 -0.5990138
-0.2775614 -0.3345631 -0.6886864 -0.072784744 -0.2288455 0.74498874 -0.8388777 0.07513058
-1.0278254 -0.018154882 0.31706393 -0.6734021 -0.26575017 0.22705097 -0.060324073 -0.32716385
-0.405833 -0.14910328 -0.34583876 -0.16789591 -0.52719265 0.31654054 -0.03022566 -0.29548034
-0.14653933 -0.39776528 0.8456114 0.09328873 0.42933503 0.52847874 0.7976038 -0.043423433
00000000: 8c32 e43d 484d a93c 326a 423c 3870 f2bc
00000010: 0923 903f 50d5 cabc 798b 343e 0c26 16bf
00000020: e83e 0f3e 3262 3e3e b176 02bf be07 bbbc
00000030: ae94 fe3e 71ef 3b3f a25f e6be f858 19bf
00000040: 871c 8ebe db4b abbe c04d 30bf 2b10 95bd
00000050: 7a56 6abe 95b7 3e3f b0c0 56bf 10de 993d
00000060: c88f 83bf 8cb9 94bc 3456 a23e 1464 2cbf
00000070: 6810 88be 0d80 683e 6016 77bd 0582 a7be
00000080: 58c9 cfbe 88ae 18be c711 b1be e8ec 2bbe
00000090: 19f6 06bf 9a11 a23e ce9b f7bc 3349 97be
000000a0: 680e 16be e4a7 cbbe fd79 583f 290e bf3d
000000b0: cdd1 db3e 624a 073f c32f 4c3f c5dc 31bd

distance_embedding.weight f4 [8, 1]
-0.9407522 -0.44039536 0.70467144 -1.1633312 -1.0475346 1.0219193 0.97295475 -1.1294864
00000000: 23d5 70bf 807b e1be 5965 343f 09e8 94bf
00000010: 9d15 86bf 40ce 823f 9013 793f 0393 90bf

edge_feature_embedding.weight f4 [3, 8]
0.576179 -0.38639525 -1.521419 1.82915 1.0908047 0.9234192 1.0197374 1.309837
1.84762 1.1066015 -1.5407827 1.8288336 0.2824226 0.060548354 -1.037414 0.26911923
-1.0839729 -0.7437803 1.4079047 -0.9845667 -0.9301043 -1.1510837 1.7736504 -2.5924592
00000000: 7880 133f 99d5 c5be dcbd c2bf 9621 ea3f
00000010: 7d9f 8b3f 3365 6c3f c186 823f bda8 a73f
00000020: d07e ec3f 1ea5 8d3f 5e38 c5bf 3817 ea3f
00000030: b299 903e 8d01 783d fbc9 84bf ffc9 893e
00000040: a0bf 8abf 6368 3ebf 3936 b43f 900c 7cbf
00000050: 511b 6ebf b656 93bf fa06 e33f daea 25c0

gcn_layers.0.node_feat.U.weight f4 [16, 16]
-0.020026749 0.23925808 -0.16365765 -0.10876846 0.11897805 -0.08992588 -0.10546683 0.25512528
-0.06648907 0.12356466 0.17623177 -0.28209934 -0.07140551 -0.17989017 0.28708372 -0.008142629
0.021848116 -0.20007896 0.10426757 0.016385283 0.051890288 -0.110015765 -0.23568797 0.027618216
-0.2687591 -0.25032485 0.004623168 -0.12700112 0.046507064 0.15535095 0.23875132 0.050924193
-0.013943251 -0.24290183 -0.124424234 0.2682489 0.08941332 0.20010607 -0.08749762 0.24569583
-0.23835374 -0.15194817 0.0966003 0.039141748 -0.23750088 0.13834615 0.013874491 -0.050043713
-0.056646783 -0.07526226 0.0726532 -0.02507556 0.20469365 -0.19417596 -0.2931908 0.19831829
0.008945378 0.14107895 0.21517223 0.019825399 -0.10324646 -0.017570123 0.31188548 0.063551016
0.15440813 0.21654584 0.12751396 -0.17369573 -0.027821785 -0.30453986 -0.07266606 -0.053205412
0.05434833 -0.13821447 0.021870641 -0.3327245 0.29803944 -0.2110537 -0.20881307 0.2098017
-0.27218154 -0.04920794 -0.1890675 0.060766395 0.16866097 0.18951978 -0.09475664 0.23742975
-0.16721307 -0.23451391 0.3567299 -0.01853239 0.23608918 0.1434918 0.10991907 0.061020732
-0.052145775 -0.10010133 -0.18135746 -0.1626311 -0.26243973 0.11477601 -0.24693318 -0.047700223
0.33300483 0.045224372 -0.112930335 0.07340206 -0.22260454 -0.2950464 0.04665897 -0.052068673
-0.10374916 -0.3676385 0.34450465 0.08798268 0.15597962 -0.025598109 -0.25228968 -0.02241992
0.22306004 -0.121447384 0.006738545 0.040810898 -0.2910702 0.026333246 0.04600478 -0.288692
0.072247006 0.107048966 -0.33190483 -0.35366994 0.006727103 0.03921885 0.06310163 -0.28394827
0.10732227 -0.2208569 0.074520506 0.14868216 -0.053269003 -0.06842846 0.038494654 0.06548903
0.05999226 0.0372842 -0.036314353 0.0842818 -0.030068073 -0.05036998 0.32526737 0.03284863
0.14430463 0.08788434 0.2122435 0.27963516 0.10604669 0.12409535 -0.18677275 -0.3127501
-0.021745363 -0.3293111 0.16740574 0.23857577 -0.030467156 0.14178842 0.17184785 -0.26411557
0.28775182 -0.108386114 0.17551364 -0.15597762 0.17736152 -0.091740176 0.1644361 -0.21608227
0.10018978 -0.403722 0.08915995 0.21056837 -0.21801738 0.00077368075 0.20403323 0.19165352
-0.25041264 -0.19172788 0.10352096 -0.04365745 -0.14748581 0.0020414654 0.16266184 -0.036482867
0.10870511 0.14753434 -0.033287432 -0.45497018 -0.12300521 0.20016451 0.19240682 -0.14795156
0.20375271 0.1551608 -0.144778 -0.030796751 0.119783886 -0.106227085 0.036885835 0.30686238
-0.25624606 0.20056729 -0.11765901 -0.31585553 0.0971169 0.09481032 0.071530975 0.098780006
-0.23148456 -0.0056774677 0.24414735 -0.100565314 -0.23341995 -0.19015457 0.086462095 0.25610647
-0.15095986 -0.019289343 0.084757775 0.11328842 0.34902462 0.040914353 -0.12014667 -0.29598358
-0.34403265 0.047202796 0.009194217 -0.01411659 0.07603815 -0.17730688 -0.22778356 0.27697048
-0.2736943 -0.020151617 -0.19452952 -0.122841336 0.32922262 0.01824762 0.042105246 0.19208564
-0.013903273 -0.38161126 0.051369417 0.292541 -0.1424436 0.042885184 0.15732802 0.116765544
00000000: 230f a4bc 1200 753e df95 27be 00c2 debd
00000010: c4aa f33d 0f2b b8bd fefe d7bd c89f 823e
00000020: 6c2b 88bd 780f fd3d 1a76 343e 536f 90be
00000030: 0d3d 92bd 2135 38be a3fc 923e a968 05bc
00000040: d2fa b23c 80e1 4cbe 3c8a d53d 6e3a 863c
00000050: e98a 543d f24f e1bd 3058 71be 993f e23c
00000060: cb9a 89be 942a 80be f27d 973b 950c 02be
00000070: 317e 3e3d 5214 1f3e 3a7b 743e e395 503d
00000080: 3c72 64bc 42bb 78be 22d2 febd eb57 893e
00000090: 551e b73d 9be8 4c3e f431 b3bd b097 7b3e
000000a0: 0113 74be 4d98 1bbe 61d6 c53d 1953 203d
000000b0: 6e33 73be 9daa 0d3e d551 633c a3fa 4cbd
000000c0: 7506 68bd 1a23 9abd 33cb 943d 436b cdbc
000000d0: 369b 513e 10d6 46be 1b1d 96be f313 4b3e
000000e0: a28f 123c 0077 103e 1c56 5c3e e068 a23c
000000f0: e172 d3bd 38ef 8fbc 74af 9f3e 0927 823d
00000100: 2a1d 1e3e 31be 5d3e 0593 023e 4bdd 31be
00000110: 83ea e3bc a6ec 9bbe f1d1 94bd ebed 59bd
00000120: 5b9c 5e3d 1888 0dbe 0f2a b33c de5a aabe
00000130: a098 983e 761e 58be 18d3 55be 42d6 563e
00000140: 615b 8bbe 448e 49bd e99a 41be 2fe6 783d
00000150: 76b5 2c3e 7911 423e c50f c2bd c920 733e
00000160: e739 2bbe 6a24 70be 4da5 b63e 3dd1 97bc
00000170: 5dc1 713e 84ef 123e 401d e13d e0f0 793d
00000180: cf96 55bd ed01 cdbd c5b5 39be c488 26be
00000190: 805e 86be af0f eb3d 0ddc 7cbe 4f61 43bd
000001a0: 9c7f aa3e 313d 393d 0548 e7bd d253 963d
000001b0: 72f2 63be 5210 97be 7a1d 3f3d f645 55bd
000001c0: 717a d4bd 1d3b bcbe ea62 b03e 4330 b43d
000001d0: 1fb9 1f3e 20b3 d1bc 1d2c 81be fba9 b7bc
000001e0: da69 643e 68b9 f8bd 03cf dc3b 5429 273d
000001f0: 2707 95be d2b8 d73c 826f 3c3d 70cf 93be
00000200: 3df6 933d 7d3c db3d 6eef a9be 3a14 b5be
00000210: 086f dc3b f2a3 203d 6d3b 813d ab61 91be
00000220: c7cb db3d 5028 62be 359e 983d 2340 183e
00000230: 9930 5abd 3824 8cbd 92ac 1d3d 1d1f 863d
00000240: 72ba 753d 51b7 183d 5cbe 14bd f09b ac3d
00000250: 5251 f6bc c150 4ebd 7289 a63e 498c 063d
00000260: 98c4 133e b4fc b33d 5c56 593e 572c 8f3e
00000270: 022f d93d b425 fe3d 5b41 3fbe c820 a0be
00000280: 5523 b2bc 779b a8be 696c 2b3e 354d 743e
00000290: 4296 f9bc fc30 113e e2f8 2f3e 283a 87be
000002a0: 3554 933e 8af9 ddbd d9b9 333e 99b8 1fbe
000002b0: 429e 353e 46e2 bbbd f061 283e ac44 5dbe
000002c0: 4d30 cd3d a6b4 cebe 7e99 b63d 3c9f 573e
000002d0: f33f 5fbe d6d0 4a3a 16ee 503e d240 443e
000002e0: 1636 80be 5054 44be cc02 d43d 27d2 32bd
000002f0: 8506 17be 1bca 053b d390 263e 0f6f 15bd
00000300: c9a0 de3d 3e13 173e 6758 08bd daf1 e8be
00000310: 28ea fbbd edf7 4c3e 4b06 453e 9d80 17be
00000320: 8da4 503e 79e2 1e3e af40 14be 7849 fcbc
00000330: 4151 f53d 968d d9bd 9a15 173d 111d 9d3e
00000340: af32 83be 8361 4d3e 35f7 f0bd d1b7 a1be
00000350: 3ae5 c63d ea2b c23d d57e 923d 2c4d ca3d
00000360: 4a0a 6dbe 0d0a babb c301 7a3e 30f5 cdbd
00000370: a405 6fbe e1b7 42be 0a13 b13d 6320 833e
00000380: 3995 1abe af04 9ebc 7c95 ad3d c203 e83d
00000390: 5bb3 b23e cf95 273d 750f f6bd 298b 97be
000003a0: 0c25 b0be b857 413d 57a3 163c 4549 67bc
000003b0: e4b9 9b3d ef8f 35be 1840 69be 13cf 8d3e
000003c0: a921 8cbe 0115 a5bc bf32 47be 3d94 fbbd
000003d0: de8f a83e 087c 953c 8d76 2c3d 19b2 443e
000003e0: 8eca 63bc 8d62 c3be bd68 523d efc7 953e
000003f0: bcdc 11be 60a8 2f3d 991a 213e c622 ef3d

gcn_layers.0.node_feat.U.bias f4 [16]
0.19875276 0.16328135 0.090933435 -0.06212846 0.036654443 -0.22333123 0.06947218 -0.22813044
-0.22603701 0.11880711 0.037448913 -0.057105746 0.008396719 -0.07817356 -0.2484953 -0.20501493
00000000: d885 4b3e 3a33 273e 4f3b ba3d 697a 7ebd
00000010: f822 163d f1b0 64be 6e47 8e3d 079b 69be
00000020: 3f76 67be 2451 f33d 0864 193d b7e7 69bd
00000030: 6492 093c 7619 a0bd 8d75 7ebe 6fef 51be

gcn_layers.0.node_feat.V.weight f4 [16, 16]
0.10230192 -0.26337346 0.041990973 -0.015584905 0.047411896 0.15518372 -0.06877099 0.014953311
0.13748159 0.12168287 -0.15486906 0.15758145 0.17491263 0.12141909 -0.048933525 -0.042512484
-0.016769297 -0.011339652 0.18782926 -0.07499667 -0.17117843 0.15231389 0.17394951 -0.3274333
0.30130726 -0.0831638 0.15876696 -0.18697748 0.09244708 0.16133644 0.09513473 0.009401029
0.02538015 0.017480314 -0.14488403 -0.41285965 0.08365693 0.05853514 0.059606 -0.017576031
-0.06050449 0.08297425 -0.24741168 -0.22285262 0.06213466 0.20208137 0.039677337 -0.21485038
0.076018505 0.19160438 -0.03921335 -0.220118 0.122327104 -0.13745464 -0.09207048 -0.22335732
0.02998959 0.32824773 0.03995196 0.053867243 0.29877886 0.26350644 0.03315238 -0.22813118
-0.20463532 -0.13742647 0.13194942 0.35180616 0.16433406 0.17242375 0.0011057911 0.13749783
0.1982788 -0.12466171 0.08542013 -0.11280057 -0.17872831 -0.15092787 0.039948028 -0.20367543
0.19879864 -0.024930568 0.24836856 -0.020723144 0.016269986 0.1344658 0.15117453 -0.11102014
-0.036041778 0.376743 -0.26528433 0.104787774 0.20619608 0.041020136 -0.08117807 0.022194408
0.10735004 0.24553585 -0.14867008 -0.030873364 -0.041777246 0.08796523 0.07791384 0.16365477
-0.06775883 -0.21993937 0.119223535 0.22334701 -0.077017695 -0.035891127 0.10625538 0.036881085
-0.070944674 0.45090705 -0.23794699 -0.45756277 -0.12441481 -0.16401607 0.012228849 -0.059298243
0.07786659 0.156999 0.026386192 0.025697073 0.021376865 0.20423569 -0.07822429 0.22398451
0.055757053 -0.26072717 -0.14266255 0.5045693 0.099888384 0.19597994 -0.028104661 0.11938953
-0.16752276 -0.021010758 -0.18585952 -0.13167238 -0.29707527 -0.13093159 0.002674465 -0.39333373
-0.05902225 0.029987613 -0.19258824 -0.0045706118 0.029579656 0.13887079 0.033752635 0.2717102
0.03327513 -0.13808832 -0.06756232 -0.20329246 -0.119277686 -0.10602012 0.08347449 0.3743946
0.003328932 0.35056505 0.12503135 -0.2530434 -0.14716242 -0.21124914 0.07138374 0.23332821
-0.09587096 -0.20136535 0.08366048 -0.005187305 0.03608825 -0.021454612 -0.08729298 0.32573923
-0.08316859 0.2547436 0.03955592 -0.109174706 0.044979747 0.055870634 0.08018403 -0.2958894
0.17344898 -0.1368602 0.13670835 -0.2388422 0.26335052 -0.1330029 0.05905668 0.050406665
-0.2948815 0.03187962 -0.0560537 0.18691123 -0.052671883 -0.04223424 -0.26426563 0.31499812
-0.065288305 0.10588055 0.29397228 0.05764374 -0.27693364 -0.1779154 -0.14288673 -0.068410076
0.012148019 -0.14743543 -0.14830147 0.051027875 -0.16479456 -0.13437763 -0.19132608 0.059313364
-0.09772899 0.14082643 -0.11019891 0.22996193 0.035725497 0.16649286 -0.21734212 -0.3637651
0.19859514 -0.24840997 -0.16168758 -0.10039149 -0.08163639 -0.04940639 -0.07463476 -0.17981717
0.24182849 -0.06891603 0.21710509 -0.13723929 -0.027674556 -0.02093544 -0.12172947 -0.10433243
0.20306517 -0.08771796 0.19227408 -0.015895456 0.07117292 0.13880958 0.24220537 0.12888443
0.019061215 -0.003103545 -0.21228646 0.121496625 0.12416977 -0.11056463 0.111799255 -0.3399293
00000000: ab83 d13d e3d8 86be bafe 2b3d d457 7fbc
00000010: fa32 423d 7be8 1e3e ced7 8cbd bbfe 743c
00000020: f9c7 0c3e de34 f93d ff95 1ebe 085d 213e
00000030: 4c1c 333e 92aa f83d 856e 48bd 9221 2ebd
00000040: c45f 89bc f3c9 39bc 5056 403e db97 99bd
00000050: 6649 2fbe 2cf8 1b3e d21f 323e 56a5 a7be
00000060: f244 9a3e c851 aabd ce93 223e 0677 3fbe
00000070: e554 bd3d 6135 253e ffd5 c23d c606 1a3c
00000080: 08ea cf3c e032 8f3c 7b5c 14be 5762 d3be
00000090: 5354 ab3d 8bc2 6f3d 6c25 743d 9cfb 8fbc
000000a0: 8ed3 77bd 67ee a93d 7d59 7dbe 7a33 64be
000000b0: ea80 7e3d 6bee 4e3e b484 223d bd01 5cbe
000000c0: 97af 9b3d f033 443e 2d9e 20bd 9d66 61be
000000d0: a286 fa3d e9c0 0cbe 738f bcbd c8b7 64be
000000e0: bbac f53c 1610 a83e aba4 233d e6a3 5c3d
000000f0: 8bf9 983e 51ea 863e caca 073d 389b 69be
00000100: ec8b 51be 86b9 0cbe c01d 073e f01f b43e
00000110: 3047 283e da8f 303e 31f0 903a 3bcc 0c3e
00000120: 9909 4b3e a34e ffbd c0f0 ae3d fc03 e7bd
00000130: 8e04 37be d68c 1abe 8ba0 233d 4b90 50be
00000140: df91 4b3e 313b ccbc 5454 7e3e 95c3 a9bc
00000150: a248 853c 67b1 093e 7fcd 1a3e 875e e3bd
00000160: 8ba0 13bd 75e4 c03e 59d3 87be f99a d63d
00000170: 1125 533e bb04 283d b040 a6bd 0cd1 b53c
00000180: 56da db3d c06d 7b3e f83c 18be 23ea fcbc
00000190: 9e1e 2bbd 1d27 b43d 4b91 9f3d 1e95 273e
000001a0: 24c5 8abd c937 61be 782b f43d 14b5 643e
000001b0: 74bb 9dbd 9302 13bd 6c9c d93d 9f10 173d
000001c0: 714b 91bd 4add e63e 60a8 73be ab45 eabe
000001d0: 31cd febd d4f3 27be 835b 483c b7e2 72bd
000001e0: 8578 9f3d 59c4 203e db27 d83c ab82 d23c
000001f0: 891e af3c 2923 513e 0e34 a0bd 325c 653e
00000200: 8261 643d 087e 85be 2216 12be 742b 013f
00000210: 4892 cc3d f7ae 483e bf3b e6bc 7f82 f43d
00000220: 168b 2bbe c11e acbc f551 3ebe 20d5 06be
00000230: 401a 98be ee12 06be 1446 2f3b 0a63 c9be
00000240: 51c1 71bd 95a8 f53c da35 45be 12c5 95bb
00000250: 0951 f23c 2534 0e3e 3440 0a3d 991d 8b3e
00000260: 814b 083d 0667 0dbe 1d5e 8abd e62b 50be
00000270: dc47 f4bd 1421 d9bd acf4 aa3d a6b0 bf3e
00000280: 362a 5a3b 437d b33e 3808 003e e88e 81be
00000290: bfb1 16be b251 58be a331 923d 97ed 6e3e
000002a0: fe57 c4bd b832 4ebe 3056 ab3d 45fa a9bb
000002b0: 46d1 133d 95c1 afbc a9c6 b2bd 4bc7 a63e
000002c0: 4b54 aabd c16d 823e 6305 223d fd96 dfbd
000002d0: af3c 383d 9bd8 643d 8637 a43d d17e 97be
000002e0: 9c9c 313e 1525 0cbe 46fd 0b3e 0d93 74be
000002f0: e1d5 863e ea31 08be 6be5 713d 3877 4e3d
00000300: b5fa 96be 3494 023d 9198 65bd a865 3f3e
00000310: 79be 57bd cffd 2cbd d34d 87be 6f47 a13e
00000320: e0b5 85bd e7d7 d83d 8983 963e d81b 6c3d
00000330: 3fca 8dbe 742f 36be e650 12be 951a 8cbd
00000340: 7c08 473c 50f9 16be 57dc 17be 9b02 513d
00000350: e8bf 28be 4a9a 09be fcea 43be 92f2 723d
00000360: 2326 c8bd ce34 103e f7af e1bd 247b 6b3e
00000370: e654 123d 1b7d 2a3e ef8e 5ebe 6b3f babe
00000380: 865c 4b3e 2f5f 7ebe 6e91 25be 0e9a cdbd
00000390: fb30 a7bd 5b5e 4abd 1cda 98bd fe21 38be
000003a0: e3a1 773e d923 8dbd cc50 5e3e 7588 0cbe
000003b0: c0b5 e2bc cd80 abbc 4d4d f9bd 3eac d5bd
000003c0: 51f0 4f3e 79a5 b3bd 7fe3 443e 3037 82bc
000003d0: 1cc3 913d 1924 0e3e af04 783e 48fa 033e
000003e0: 4426 9c3c d864 4bbb 9f61 59be 39d3 f83d
000003f0: b84c fe3d b56f e2bd 02f7 e43d 370b aebe

gcn_layers.0.node_feat.V.bias f4 [16]
-0.12066508 0.12794329 -0.12645578 -0.118715405 -0.06007566 0.077153504 -0.011496485 -0.03450318
-0.23398808 0.23492563 0.010311256 -0.1202476 -0.15619367 0.2239106 0.09815295 0.03559669
00000000: 411f f7bd 9103 033e a07d 01be 1021 f3bd
00000010: e511 76bd a802 9e3d c15b 3cbc 3553 0dbd
00000020: 929a 6fbe 5890 703e 8bf0 283c 6044 f6bd
00000030: 3cf1 1fbe d248 653e 6a04 c93d d6cd 113d

gcn_layers.0.node_norm.batch_norm.weight f4 [16]
0.9298983 0.91035306 0.93604445 0.86391747 0.85848516 0.84990597 0.9963756 0.85860676
0.9155148 0.9284174 0.9339364 0.97259545 0.85102546 0.9266248 0.8943085 0.87966055
00000000: d10d 6e3f e60c 693f 9ca0 6f3f b229 5d3f
00000010: afc5 5b3f 7093 593f 7912 7f3f a7cd 5b3f
00000020: 2e5f 6a3f c3ac 6d3f 7516 6f3f 04fc 783f
00000030: cedc 593f 4837 6d3f 67f1 643f 6f31 613f

gcn_layers.0.node_norm.batch_norm.bias f4 [16]
0.05870465 -0.011910227 -0.26183385 0.15074223 0.38338873 -0.35110953 0.429614 0.26524034
-0.20969923 -0.05643854 0.6066182 0.48145995 0.2545272 -0.6060291 -0.27274957 -0.22024843
00000000: 4974 703d 1d23 43bc 160f 86be 2c5c 1a3e
00000010: 874b c43e a1c4 b3be 5ef6 db3e 95cd 873e
00000020: 65bb 56be 192c 67bd 554b 1b3f eb81 f63e
00000030: 6451 823e b924 1bbf d5a5 8bbe ce88 61be

gcn_layers.0.edge_feat.U.weight f4 [16, 16]
0.24607195 0.2480018 0.10171306 0.25166836 -0.20036934 0.05017473 -0.09140155 -0.19498219
-0.11180336 -0.12336288 -0.030766224 0.15599158 -0.16450165 0.02885309 0.22845721 -0.10355933
-0.36079118 -0.1271153 0.159381 -0.13113828 -0.29843393 0.17964965 0.14993207 -0.10345151
0.13683058 0.26275626 -0.07963051 -0.024834955 -0.15459384 0.21677275 0.1240926 0.10462855
0.3186489 -0.11384918 -0.077513285 -0.0882967 -0.119881 -0.2379433 -0.07494537 0.28901878
-0.29837614 -0.10321058 -0.060218588 -0.045607295 -0.046176147 -0.11118219 0.145888 -0.12413376
-0.039025065 0.29779866 -0.012812417 0.3880216 0.3316881 -0.40485352 -0.34130055 0.41443947
0.09773914 -0.015045669 -0.049325187 -0.0011289043 0.2444393 -0.046209205 0.061622784 0.22981445
0.0798622 0.07142519 -0.11401779 0.06964395 -0.0019536996 -0.112610035 -0.4036269 0.18962431
-0.09980443 0.21280399 -0.338837 0.33783498 0.119085886 0.023290765 -0.026574792 0.07353143
0.023545008 -0.07400567 0.30826727 -0.12154306 -0.18758653 0.32120723 -0.025904864 -0.29233813
-0.2807698 0.08866907 0.18922837 -0.3682554 -0.03393724 -0.25977582 0.10465832 -0.09030354
-0.22356422 -0.2958359 0.28349125 -0.18478896 -0.36711589 0.20128335 0.31306872 -0.22065133
-0.11507886 0.08570077 -0.18864745 -0.14635676 -0.32869488 -0.41464633 0.03140001 -0.25614712
0.3838565 0.22716972 -0.3540805 0.15842596 0.21829018 -0.5556746 -0.1959169 0.16232197
-0.08156703 -0.112827286 -0.103941426 0.0449081 -0.18086663 0.04259082 -0.12436337 0.026851721
0.27717793 0.28623876 -0.20963894 0.047645297 0.05110218 -0.45706892 -0.36886868 0.43265048
-0.1252907 -0.2424928 -0.15702012 0.07321516 0.27273086 0.21809503 0.16168043 0.024174653
0.09042562 0.037011072 -0.30431122 0.4218755 0.32112566 -0.26729167 -0.091269925 0.5011735
0.115147285 -0.10699519 -0.24490987 -0.001509086 0.0013940618 -0.18643612 0.18568158 0.22661948
0.58177817 0.53310204 -0.8468489 0.7620551 0.4121834 -0.68013144 -0.6166751 0.5366533
-0.06475144 -0.040165402 0.16796719 0.12159501 0.0076082214 -0.27823088 -0.22233745 0.09607408
1.267166 1.0083683 -1.6531821 1.1194111 0.9054448 -1.1499283 -0.98318195 1.0691957
0.21627402 0.30941126 -0.22268435 0.045345563 0.03569402 0.19941927 0.058179416 0.33976254
0.3857298 0.070049636 -0.69000834 0.4468462 0.54647934 -0.34324825 -0.50281733 0.51559925
0.19456948 0.18206209 0.07208064 0.1272827 -0.26404712 -0.09325741 -0.13091873 -0.06909903
0.15826 0.16066742 -0.38106614 0.17911018 0.40134165 -0.35710227 -0.0675016 0.31970644
0.046249636 0.08355343 0.08238563 0.09765617 -0.10923285 0.1603536 -0.256678 0.008867696
0.0060324916 -0.19851202 -0.045056086 0.14079784 0.10602068 0.2987446 -0.018505538 0.13450168
0.1327562 -0.046885055 0.06494908 -0.25250578 -0.3070314 -0.14198942 -0.1316239 -0.31480503
-0.2839077 -0.06416454 0.29968598 0.14157201 -0.21452165 -0.18603179 0.17141142 -0.2849282
-0.33538148 0.14457634 -0.123373374 -0.29509068 -0.01075038 -0.16908453 0.061922386 -0.2295412
00000000: 49fa 7b3e 2ff4 7d3e f04e d03d adda 803e
00000010: 9f2d 4dbe 0584 4d3d bc30 bbbd 69a9 47be
00000020: 29f9 e4bd ada5 fcbd 7309 fcbc 42bc 1f3e
00000030: 1f73 28be 515d ec3c b0f0 693e ea16 d4bd
00000040: 9fb9 b8be 832a 02be c634 233e 1d49 06be
00000050: 55cc 98be 14f6 373e cb87 193e 63de d3bd
00000060: 511d 0c3e fd87 863e 5215 a3bd ad72 cbbc
00000070: d94d 1ebe adf9 5d3e 4324 fe3d 7e47 d63d
00000080: f325 a33e c229 e9bd 49bf 9ebd e6d4 b4bd
00000090: 2b84 f5bd 69a7 73be f57c 99bd 45fa 933e
000000a0: c2c4 98be 1260 d3bd c4a7 76bd b7ce 3abd
000000b0: 3323 3dbd 7db3 e3bd aa63 153e d739 febd
000000c0: bfd8 1fbd 1179 983e 2ceb 51bc c4aa c63e
000000d0: 06d3 a93e f648 cfbe f2be aebe 6931 d43e
000000e0: 752b c83d 1c82 76bc 3509 4abd bef7 93ba
000000f0: 4c4e 7a3e dd45 3dbd 2c68 7c3d 7b54 6b3e
00000100: cb8e a33d 5f47 923d 2982 e9bd 7da1 8e3d
00000110: a409 00bb 17a0 e6bd 2fa8 cebe e02c 423e
00000120: 4466 ccbd 4ae9 593e 0b7c adbe b5f8 ac3e
00000130: 4de3 f33d 46cc be3c 61b3 d9bc a597 963d
00000140: 76e1 c03c 4990 97bd 35d5 9d3e 91eb f8bd
00000150: af16 40be 4675 a43e 7036 d4bc 58ad 95be
00000160: 0fc1 8fbe 2198 b53d 15c5 413e f98b bcbe
00000170: c601 0bbd 5601 85be 1a57 d63d 10f1 b8bd
00000180: 05ee 64be ce77 97be c425 913e 5139 3dbe
00000190: 9df6 bbbe 391d 4e3e 8b4a a03e 6cf2 61be
000001a0: 77ae ebbd e383 af3d cc2c 41be 8cde 15be
000001b0: b24a a8be 864c d4be 4c9d 003d b725 83be
000001c0: d788 c43e 2e9f 683e 0a4a b5be 6a3a 223e
000001d0: 7687 5f3e b140 0ebf 719e 48be bb37 263e
000001e0: 9d0c a7bd fe11 e7bd 3edf d4bd 8ef1 373d
000001f0: 1a35 39be b673 2e3d 39b2 febd 24f8 db3c
00000200: 44ea 8d3e e38d 923e 97ab 56be b727 433d
00000210: 8550 513d f004 eabe 5bdc bcbe 5d84 dd3e
00000220: 354c 00be 0850 78be e2c9 20be d4f1 953d
00000230: 61a3 8b3e 4e54 5f3e 8e8f 253e ec09 c63c
00000240: 1131 b93d ec98 173d aece 9bbe 1100 d83e
00000250: 956a a43e 74da 88be baeb babd e84c 003f
00000260: 57d2 eb3d 4b20 dbbd a7c9 7abe 86cc c5ba
00000270: f4b8 b63a 1ce9 3ebe 5023 3e3e f00e 683e
00000280: 6aef 143f 6079 083f 17cb 58bf 0b16 433f
00000290: b409 d33e 181d 2ebf 6bde 1dbf 1c62 093f
000002a0: 679c 84bd 7a84 24bd 97ff 2b3e ce06 f93d
000002b0: 634e f93b 4774 8ebe 6eac 63be 7dc2 c43d
000002c0: 7f32 a23f 3612 813f 799b d3bf dd48 8f3f
000002d0: 3bcb 673f da30 93bf d0b1 7bbf 68db 883f
000002e0: f076 5d3e 276b 9e3e 5e07 64be 45bc 393d
000002f0: e533 123d 9134 4c3e 8a4d 6e3d 5bf5 ad3e
00000300: 607e c53e 2f76 8f3d 63a4 30bf 06c9 e43e
00000310: 12e6 0b3f 3cbe afbe a3b8 00bf 50fe 033f
00000320: 393d 473e 7c6e 3a3e 049f 933d 6556 023e
00000330: 2f31 87be befd bebd 8f0f 06be cb83 8dbd
00000340: e90e 223e 0086 243e 1a1b c3be a968 373e
00000350: a77c cd3e 1cd6 b6be 473e 8abd 90b0 a33e
00000360: 4270 3d3d 101e ab3d ccb9 a83d f5ff c73d
00000370: 79b5 dfbd bc33 243e 4c6b 83be d049 113c
00000380: 35ac c53b bc46 4bbe bb8c 38bd 4f2d 103e
00000390: 5f21 d93d 0df5 983e ed98 97bc cfba 093e
000003a0: 3ef1 073e 8b0a 40bd 0604 853d 7048 81be
000003b0: 3833 9dbe ad65 11be 6ac8 06be 202e a1be
000003c0: 5a5c 91be b368 83bd 7170 993e 41f8 103e
000003d0: 90ab 5bbe 1e7f 3ebe 7a86 2f3e 1ce2 91be
000003e0: 1fb7 abbe d20b 143e 2eab fcbd 2016 97be
000003f0: 5d22 30bc 7f24 2dbe 54a2 7d3d d90c 6bbe

gcn_layers.0.edge_feat.U.bias f4 [16]
0.12671377 0.6682714 0.37531564 -0.25013363 -0.2934887 -0.15276094 -0.5887816 0.3641512
0.009088569 -0.25239533 -0.547835 -1.8656598 -0.41093567 -0.36675888 -0.20921822 0.817712
00000000: 41c1 013e d613 2b3f 5f29 c03e 8411 80be
00000010: 2744 96be 5d6d 1cbe 64ba 16bf 0772 ba3e
00000020: 39e8 143c f639 81be ea3e 0cbf f1cd eebf
00000030: 2966 d2be d2c7 bbbe 4d3d 56be 9355 513f

gcn_layers.0.edge_feat.V.weight f4 [16, 16]
-0.0373481 0.16949548 0.073072806 -0.07170629 0.030656142 -0.30539024 -0.10894314 0.04426638
-0.07769792 -0.035360422 -0.056501586 0.06955978 -0.07978858 -0.20453463 0.17410603 -0.11545924
-0.2667667 0.48891586 0.0809804 -0.27383107 0.04380297 0.12539281 0.029018702 0.070438005
0.028589152 -0.06126332 -0.18520747 0.1827903 0.13080415 -0.2111997 0.20789655 0.25941613
0.16426057 -0.13469444 0.045297235 0.07398547 -0.15729442 0.00278867 0.17264792 -0.05940315
0.015419845 -0.08743039 -0.19027375 -0.066746965 -0.10694319 -0.30012995 0.07493764 0.18721114
0.105517834 0.2436951 -0.09110701 -0.08784131 0.07454305 0.17006585 -0.18603097 -0.12552124
0.21469735 0.06786789 0.18645683 0.11417516 -0.20972827 -0.11184677 0.08797394 -0.08086338
-0.07104237 -0.21426582 -0.06773956 0.36868626 0.02601553 0.14364316 0.04325452 0.223723
0.1988455 0.19139986 0.15616176 0.117314875 -0.3212057 0.120157465 -0.11705283 -0.18422458
0.13199033 -0.08090335 -0.14977707 0.01494865 0.17044912 -0.064984694 0.1661588 0.004763351
0.07770044 -0.020932017 -0.17601971 0.18667862 0.039719976 -0.26888254 -0.12130257 -0.1484104
0.19804208 -0.12152163 -0.16251118 0.140548 -0.028726077 0.21097618 -0.16230999 0.05479352
0.040376488 -0.0033399092 -0.046474602 0.083157144 0.12098266 0.22600445 -0.23938973 0.122354746
0.18984775 0.073248975 -0.059300777 -0.0751254 -0.12304107 -0.022996906 -0.19532712 0.10657481
0.072705925 -0.06373677 -0.019691516 -0.14976947 0.21794029 0.18581294 0.20060489 -0.102241755
0.050284572 0.19433153 -0.27642217 -0.018082762 -0.18214342 0.020097723 -0.12480507 0.17415152
-0.1104379 -0.05071304 0.12338716 -0.08553547 0.30098325 0.050587315 0.08987664 -0.1510566
-0.03655938 -0.16450448 -0.10651197 -0.065241784 0.022586277 0.14181104 -0.12712817 0.0673147
-0.17542939 -0.2049513 0.03963185 -0.21152796 0.18881384 0.024035167 0.2626016 -0.14068837
0.27341586 -0.3765824 -0.06662698 -0.07965938 0.1138756 0.08545923 0.28193486 0.015142565
-0.07884745 0.115117 -0.16778368 -0.0020254415 -0.15608688 0.19832873 0.16357043 -0.1611852
0.024399966 0.12049703 -0.010147439 -0.062269755 -0.11582984 0.23842056 -0.21362792 -0.09890837
-0.13194591 -0.15842949 -0.1251019 0.023732085 -0.008122081 0.08906729 0.04863981 0.18332346
-0.14669976 0.07385633 0.0067637847 0.087892525 0.17140464 0.026118377 -0.045179375 -0.060362265
0.004853824 0.1745403 -0.1264633 -0.061746504 0.043978814 -0.1492705 -0.15841828 -0.21954298
-0.20204107 0.05061515 -0.006027404 0.054992773 0.13193414 -0.007549303 -0.1077131 0.26433605
-0.0045103175 0.17435296 -0.17446688 -0.22012798 0.11731498 0.020328108 -0.1426783 -0.2527173
-0.18193358 -0.2583303 -0.233832 0.21975306 0.055590004 0.056838244 -0.10374361 -0.071641944
-0.18737607 -0.10831949 -0.10635168 0.2588838 0.018690327 0.26548618 0.15919556 -0.16788009
-0.20367233 0.23761675 -0.032451678 -0.11997474 0.2949143 -0.17928953 0.12617128 0.0719625
-0.0794113 -0.21864255 -0.095091425 -0.17776911 -0.029347157 -0.1303648 0.12830462 0.21730836
00000000: 52fa 18bd 3990 2d3e 32a7 953d bfda 92bd
00000010: 9722 fb3c 1c5c 9cbe 951d dfbd aa50 353d
00000020: 1620 9fbd 17d6 10bd 356e 67bd 5c75 8e3d
00000030: 3268 a3bd 8771 51be da48 323e e575 ecbd
00000040: a595 88be 2e53 fa3e 0dd9 a53d 9633 8cbe
00000050: be6a 333d f966 003e a1b8 ed3c cd41 903d
00000060: cc33 ea3c 3fef 7abd 07a7 3dbe 612d 3b3e
00000070: 86f1 053e bc44 58be d5e2 543e 31d2 843e
00000080: ec33 283e 57ed 09be 9889 393d b285 973d
00000090: ca11 21be 1ec2 363b 9eca 303e b850 73bd
000000a0: 84a3 7c3c b40e b3bd 1fd7 42be a2b2 88bd
000000b0: 0805 dbbd a2aa 99be e878 993d 47b4 3f3e
000000c0: bc19 d83d 358b 793e 5096 babd 25e6 b3bd
000000d0: 07aa 983d be25 2e3e e77e 3ebe a488 00be
000000e0: 9fd9 5b3e 52fe 8a3d 8aee 3e3e abd4 e93d
000000f0: 02c3 56be eb0f e5bd ae2b b43d b39b a5bd
00000100: a97e 91bd 8068 5bbe 0abb 8abd 72c4 bc3e
00000110: 851e d53c 3117 133e a72b 313d a417 653e
00000120: 289e 4b3e 53fe 433e dee8 1f3e c842 f03d
00000130: 1375 a4be 1e15 f63d 65b9 efbd 5ea5 3cbe
00000140: 7928 073e a8b0 a5bd 295f 19be 2feb 743c
00000150: 378a 2e3e b216 85bd 8825 2a3e e215 9c3b
00000160: 6921 9f3d 9f79 abbc 833e 34be ae28 3f3e
00000170: 6ab1 223d f9aa 89be 7b6d f8bd e5f8 17be
00000180: 8bcb 4a3e 55e0 f8bd 5569 26be d1eb 0f3e
00000190: f352 ebbc 240a 583e 9734 26be 2c6f 603d
000001a0: d161 253d 61e2 5abb 275c 3ebd 4b4e aa3d
000001b0: c2c5 f73d b66d 673e 9522 75be 2095 fa3d
000001c0: 7367 423e 8f03 963d 5fe5 72bd 59db 99bd
000001d0: f5fc fbbd 0264 bcbc d503 48be e543 da3d
000001e0: d8e6 943d 6c88 82bd 1a50 a1bc 2b5d 19be
000001f0: bd2b 5f3e bf45 3e3e 5e6b 4d3e 2064 d1bd
00000200: 32f7 4d3d d8fe 463e 3587 8dbe 4d22 94bc
00000210: ce83 3abe fba3 a43c cd99 ffbd c754 323e
00000220: 442d e2bd 7ab8 4fbd 68b2 fc3d 382d afbd
00000230: 7a1a 9a3e a534 4f3d 3e11 b83d 95ae 1abe
00000240: 4abf 15bd dd73 28be f322 dabd 7c9d 85bd
00000250: db06 b93c ea36 113e e32d 02be 4adc 893d
00000260: c3a3 33be c1de 51be 0255 223d c99a 58be
00000270: 6a58 413e 66e5 c43c b873 863e 9d10 10be
00000280: 2afd 8b3e 69cf c0be ba73 88bd 7524 a3bd
00000290: 9c37 e93d 4005 af3d c459 903e 8518 783c
000002a0: c67a a1bd 76c2 eb3d 7ccf 2bbe 45bd 04bb
000002b0: 3dd5 1fbe b016 4b3e 027f 273e bc0d 25be
000002c0: 70e2 c73c 26c7 f63d 7241 26bc 920e 7fbd
000002d0: 3238 edbd 8524 743e 47c1 5abe 7990 cabd
000002e0: d41c 07be 573b 22be b61a 00be ca69 c23c
000002f0: 7a12 05bc e968 b63d 8a3a 473d 25b9 3b3e
00000300: 7638 16be fd41 973d bda2 dd3b ff00 b43d
00000310: b384 2f3e 35f6 d53c 020e 39bd 6c3e 77bd
00000320: d40c 9f3b b1ba 323e 987f 01be e7e9 7cbd
00000330: 2123 343d 5eda 18be 6738 22be e0cf 60be
00000340: dbe3 4ebe d551 4f3d 8881 c5bb 1a40 613d
00000350: be19 073e 2560 f7bb b098 dcbd 0e57 873e
00000360: 49cb 93bb 9589 323e 72a7 32be 3b69 61be
00000370: d642 f03d 2287 a63c 431a 12be 2964 81be
00000380: cc4c 3abe de43 84be a871 6fbe f206 613e
00000390: 58b2 633d 38cf 683d 8877 d4bd 03b9 92bd
000003a0: 83df 3fbe 9cd6 ddbd e9ce d9bd 6b8c 843e
000003b0: 751c 993c ceed 873e 2904 233e c2e8 2bbe
000003c0: 7b8f 50be ce51 733e 0dec 04bd 51b5 f5bd
000003d0: 02ff 963e ad97 37be 0b33 013e 1361 933d
000003e0: 64a2 a2bd d5e3 5fbe 4bbf c2bd 1b09 36be
000003f0: 7369 f0bc 5a7e 05be 4962 033e 1586 5e3e

gcn_layers.0.edge_feat.V.bias f4 [16]
0.23497555 0.58612096 0.5338246 -0.26866344 -0.42943108 0.20852724 -0.6178579 0.39819914
0.2031825 -0.2986598 -0.47502422 -1.6744603 -0.39220187 -0.58617926 -0.3103273 0.7844688
00000000: 6e9d 703e 060c 163f bba8 083f 418e 89be
00000010: 64de dbbe 2a88 553e ef2b 1ebf c2e0 cb3e
00000020: 130f 503e f0e9 98be 6036 f3be b754 d6bf
00000030: afce c8be d80f 16bf 38e3 9ebe f3d2 483f

gcn_layers.0.edge_norm.batch_norm.weight f4 [16]
0.85279834 0.9084466 0.96684676 1.0309545 0.90376705 1.1838032 0.7624806 0.7036295
1.0638175 1.0882803 1.1640741 1.0662892 1.1210256 0.99635255 0.9814459 1.1106827
00000000: fe50 5a3f f58f 683f 4583 773f 51f6 833f
00000010: 475d 673f dd86 973f ee31 433f 1021 343f
00000020: 2c2b 883f c54c 8b3f 6100 953f 2a7c 883f
00000030: c47d 8f3f f610 7f3f 0a40 7b3f da2a 8e3f

gcn_layers.0.edge_norm.batch_norm.bias f4 [16]
-0.061165515 -0.10851563 0.11131494 -0.23221518 -0.049530327 0.13427982 0.28143543 -0.26061
0.031530343 -0.029080411 -0.10078946 0.03246675 -0.425243 -0.016366605 0.05150405 0.07821049
00000000: b188 7abd 713d debd 16f9 e33d d1c9 6dbe
00000010: 50e0 4abd a680 093e 4e18 903e ad6e 85be
00000020: f625 013d 0b3a eebc b46a cebd dbfb 043d
00000030: 73b9 d9be 4213 86bc e9f5 523d d22c a03d

gcn_layers.1.node_feat.U.weight f4 [16, 16]
-0.18614036 -0.22282043 0.0993639 0.040843565 0.18595614 0.027540445 0.10024879 0.06455404
0.056675196 -0.0806438 0.008783143 -0.025196545 0.14309445 0.22837174 0.37422848 0.28305578
-0.026866347 0.037818972 -0.26221308 -0.054551534 0.19215485 -0.19317085 0.042028937 -0.27044168
0.27775177 -0.0575588 -0.051686484 -0.1095285 0.2138687 0.19818215 0.0907248 -0.04522456
-0.1424731 0.1627635 -0.044074513 -0.17406857 0.059347223 -0.09547224 0.26751184 0.2305945
-0.010722681 0.24594736 0.44458854 -0.07394777 -0.05251324 0.06872459 -0.007257369 -0.26672137
-0.16056387 -0.028191024 0.06323075 -0.30887735 -0.1807736 0.104556 0.039557643 -0.045897484
0.025019607 0.34942093 0.3114551 0.055275634 0.15284133 -0.21454896 -0.10739071 -0.061509993
-0.3119682 -0.08215465 0.04065813 0.117021866 -0.24594836 -0.16688132 -0.3686948 -0.12856038
0.002157293 -0.18435661 -0.17432067 0.104299344 -0.1437256 -0.2134009 -0.05886816 0.026388891
-0.046925936 0.0012346841 -0.2887325 -0.04933835 0.3313953 0.028884886 -0.27142602 0.14625654
-0.062406927 0.22179955 -0.24780345 -0.18893489 0.26247498 0.20514904 0.061928753 0.124367915
-0.2768655 -0.027286338 -0.14092256 -0.179906 0.26969343 -0.083825216 -0.14974841 -0.059517935
0.041224286 0.027312724 -0.1591618 -0.19288208 -0.026163602 0.3092452 -0.0182098 -0.067774095
-0.023088709 -0.08348226 -0.106339745 -0.2710018 -0.046470243 0.28801852 -0.07073068 -0.41043177
-0.313652 0.1357816 0.14892057 0.020233816 -0.027217891 -0.060284406 0.06453772 0.06385636
-0.059486758 0.18079624 0.052531853 -0.02977456 0.20029859 0.17233011 0.4051413 0.24258748
0.08322577 -0.0050519276 0.026214592 0.13170975 -0.12375079 0.12392959 0.0657685 0.009859087
0.088003926 0.23961566 0.07852756 -0.40513992 -0.26951435 -0.14563127 -0.018915687 0.058613084
0.13039678 -0.17262019 0.008306599 0.18976058 -0.057946973 -0.08177385 0.007072351 -0.0555748
-0.21881877 -0.09882531 -0.07704088 -0.14886205 -0.078043126 -0.002630736 0.18267699 -0.0008698993
0.09412005 0.34786043 0.14025915 -0.03443013 0.084625505 -0.09766448 -0.22701418 -0.06835939
-0.07394629 0.3731237 0.011984812 0.02875678 0.14867933 -0.23252425 0.12339987 -0.19710046
0.16669634 -0.094135426 -0.14268985 -0.054644395 -0.018317766 0.05182143 0.0018963146 0.17757002
-0.12277195 -0.20628317 -0.07614643 -0.1802568 0.34318662 0.24755557 0.30628386 -0.13960697
0.082147 0.24292418 0.033288296 -0.009280683 -0.06310282 0.15067588 0.01759837 0.034692112
-0.036277276 0.08324692 0.32350028 0.24014905 0.022066046 -0.08556987 0.017893901 0.11533897
-0.2396353 -0.18089084 0.010128491 0.14459924 -0.30943483 -0.04146875 0.11016163 0.011287914
-0.03329446 -0.12711386 -0.14973816 -0.26358944 -0.048631735 -0.17522238 -0.18021674 -0.13092695
0.12115556 -0.06238604 -0.13216683 0.006247365 -0.11197184 0.083139285 -0.21626751 0.23208831
-0.053142224 0.43465385 -0.12651302 0.22472005 0.21705873 0.06577378 0.07684443 -0.10748222
0.0048987637 -0.27536675 -0.33936363 -0.093162626 0.14611375 0.0016680352 0.11223578 0.018597174
00000000: 949b 3ebe 0a2b 64be 4d7f cb3d 954b 273d
00000010: 496b 3e3e 809c e13c 3d4f cd3d e934 843d
00000020: 4024 683d 9428 a5bd 2ce7 0f3c fc68 cebc
00000030: 5a87 123e 48da 693e e09a bf3e b0ec 903e
00000040: d016 dcbc 11e8 1a3d cb40 86be 6e71 5fbd
00000050: 3ec4 443e 94ce 45be 8926 2c3d 5577 8abe
00000060: 7b35 8e3e c7c2 6bbd 35b5 53bd 7a50 e0bd
00000070: 6600 5b3e 43f0 4a3e edcd b93d 633d 39bd
00000080: 78e4 11be 7aab 263e 7a87 34bd 083f 32be
00000090: 1316 733d f386 c3bd 50f7 883e f720 6c3e
000000a0: 2fae 2fbc a0d9 7b3e 1ca1 e33e ee71 97bd
000000b0: 2018 57bd 7abf 8c3d 39cf edbb b48f 88be
000000c0: db6a 24be ddf0 e6bc 207f 813d 2c25 9ebe
000000d0: b71c 39be 7521 d63d 3207 223d 00ff 3bbd
000000e0: ebf5 cc3c 4de7 b23e 0b77 9f3e b468 623d
000000f0: 7082 1c3e b9b2 5bbe a9ef dbbd e7f1 7bbd
00000100: 4cba 9fbe b240 a8bd 2489 263d 29a9 ef3d
00000110: e3d9 7bbe f0e2 2abe 91c5 bcbe 55a5 03be
00000120: 5f61 0d3b fbc7 3cbe 1e81 32be e59a d53d
00000130: ce2c 13be c485 5abe bd1f 71bd 842d d83c
00000140: 6935 40bd 20d5 a13a bfd4 93be 0217 4abd
00000150: a5ac a93e ff9f ec3c 5af8 8abe 46c4 153e
00000160: 689e 7fbd 6c1f 633e 30c0 7dbe 2678 41be
00000170: 1f63 863e 9712 523e 01a9 7d3d 9bb4 fe3d
00000180: 51c1 8dbe 9987 dfbc 014e 10be 4739 38be
00000190: 4215 8a3e 8eac abbd a657 19be 14c9 73bd
000001a0: ccda 283d efbe df3c 50fb 22be e182 45be
000001b0: 0d55 d6bc 6355 9e3e b82c 95bc 25cd 8abd
000001c0: 8824 bdbc bff8 aabd a7c8 d9bd bfc0 8abe
000001d0: 9557 3ebd 2a77 933e 3fdb 90bd 1d24 d2be
000001e0: ff96 a0be 550a 0b3e a27e 183e 63c1 a53c
000001f0: 0ef8 debc c8ec 76bd 5a2c 843d 20c7 823d
00000200: 63a8 73bd a622 393e a42b 573d c7e9 f3bc
00000210: 131b 4d3e 4e77 303e ae6e cf3e da68 783e
00000220: 4672 aa3d a48a a5bb fcbf d63c ecde 063e
00000230: 0e71 fdbd ccce fd3d a3b1 863d 0288 213c
00000240: 673b b43d cf5d 753e 0fd3 a03d 806e cfbe
00000250: c9fd 89be 5d20 15be 12f5 9abc 4614 703d
00000260: bc86 053e 59c3 30be 6718 083c 9950 423e
00000270: ce59 6dbd 0c79 a7bd 2ebf e73b 67a2 63bd
00000280: 0712 60be ed64 cabd 9cc7 9dbd 4b6f 18be
00000290: 13d5 9fbd 6d68 2cbb ad0f 3b3e f409 64ba
000002a0: 03c2 c03d c31a b23e 18a0 0f3e 9c06 0dbd
000002b0: 2350 ad3d 5104 c8bd 6876 68be 0200 8cbd
000002c0: 2771 97bd 120a bf3e f25b 443c 5793 eb3c
000002d0: 653f 183e d61a 6ebe 12b9 fc3d b4d4 49be
000002e0: 72b2 2a3e 13ca c0bd 4a1d 12be cdd2 5fbd
000002f0: 240f 96bc b542 543d c28d f83a ead4 353e
00000300: dc6f fbbd e53b 53be a9f2 9bbd 3d95 38be
00000310: 28b6 af3e 357f 7d3e 3dd1 9c3e 21f5 0ebe
00000320: b03c a83d 1ec1 783e 4f59 083d 010e 18bc
00000330: 0d3c 81bd c74a 1a3e 752a 903c 5119 0e3d
00000340: 7b97 14bd 5c7d aa3d d4a1 a53e a2e9 753e
00000350: dac3 b43c 423f afbd 3b96 923c d736 ec3d
00000360: f562 75be 733b 39be f8f1 253c d311 143e
00000370: 3e6e 9ebe 23db 29bd 6c9c e13d f1f0 383c
00000380: c65f 08bd 232a 02be f654 19be 32f5 86be
00000390: 1232 47bd 7f6d 33be bd8a 38be b711 06be
000003a0: 6820 f83d 8188 7fbd be56 07be b2b6 cc3b
000003b0: 7e51 e5bd ee44 aa3d 3b75 5dbe 8fa8 6d3e
000003c0: a9ab 59bd f38a de3e a18c 01be 031d 663e
000003d0: a544 5e3e 67b4 863d 9d60 9d3d a31f dcbd
000003e0: cf85 a03b dffc 8cbe 12c1 adbe 0ccc bebd
000003f0: d89e 153e f9a1 da3a dfdb e53d 1a59 983c

gcn_layers.1.node_feat.U.bias f4 [16]
-0.20580462 -0.18370761 -0.03426998 0.0011410647 -0.14927113 0.23450416 0.016556546 0.0009745517
-0.24727026 0.18875852 0.2620559 0.23277095 0.23411258 -0.031812157 0.058539648 0.21145327
00000000: 72be 52be d91d 3cbe ae5e 0cbd c78f 953a
00000010: 88da 18be dc21 703e 98a1 873c 0f79 7f3a
00000020: 6a34 7dbe ea49 413e 312c 863e 825b 6e3e
00000030: 35bb 6f3e 774d 02bd 45c7 6f3d 3587 583e

gcn_layers.1.node_feat.V.weight f4 [16, 16]
-0.09347172 0.11833904 -0.0007050851 -0.121115826 0.009687535 -0.092142396 0.1717332 0.10732052
-0.14669594 0.21569881 -0.0046017948 0.040929712 0.097887136 -0.09691751 -0.21789765 0.07434433
0.044932626 -0.103606634 0.37561432 0.1607093 -0.21872969 0.07496992 -0.15251881 0.09742978
-0.2439821 0.062366933 0.07487853 0.015490626 -0.26494107 0.054829065 0.07890334 -0.19463369
0.003848393 0.14366333 -0.18612407 0.005320817 0.08306604 0.12364037 -0.16941048 0.059677426
0.007451254 -0.1926313 0.07282079 -0.10996769 0.057587847 -0.20118468 0.109225184 0.06841407
0.17165354 -0.21623445 -0.1295057 0.12022296 0.20144813 -0.18037482 -0.16592273 0.035528786
-0.31363177 -0.18187885 -0.043513987 -0.42583188 -0.043179266 -0.014774716 -0.13330281 0.15064445
-0.2277018 -0.02042661 0.043245684 -0.28287333 -0.080026686 0.10147366 -0.098000295 0.0027744274
0.06401046 -0.019535381 0.17561907 -0.1447961 0.023667604 0.18519835 -0.043175846 0.09768694
0.18050887 -0.19086544 0.27662438 -0.20032322 -0.22302599 0.09328963 -0.07297057 0.18499361
0.072606124 -0.25452104 0.13009048 -0.2229939 -0.13510936 0.03665629 -0.13453358 0.017741
0.02031087 0.045046367 0.06305486 0.18363638 0.013605043 0.19831781 -0.14336519 0.21540347
-0.1708788 -0.046859123 -0.05514996 0.06684277 0.11458778 0.040147267 0.029749645 -0.102869935
0.040801715 0.048517242 0.024207622 0.025493734 0.27122778 0.1695785 0.08688036 0.09150729
-0.11248808 -0.18394032 -0.0055870176 0.052718878 0.44764853 -0.02414945 0.12071427 -0.09573759
-0.11873504 -0.16176037 -0.2733192 0.07276735 -0.12356013 -0.29645082 0.08424728 -0.08098291
-0.39134532 -0.043524228 -0.46067378 -0.041730035 0.0075345905 0.028818643 0.1367326 -0.2196577
0.13963933 -0.18456854 0.034406528 -0.06544309 -0.068206824 0.0648419 -0.29114017 0.22474338
-0.11137991 0.058242556 0.05846421 -0.0009757356 -0.06605037 0.13397367 0.02116132 0.13607872
0.06916983 0.058991738 0.041587107 0.14066385 0.16567454 -0.03601347 -0.18291247 0.16758367
-0.07164458 -0.23988096 -0.30164304 0.12510455 0.0032098624 0.17285076 0.15253352 0.058789395
0.011401421 -0.2470334 0.067801885 -0.13326974 -0.040464528 -0.13982388 0.04109521 0.12185777
0.061919805 0.15893185 0.16033396 -0.22717166 -0.20579451 0.008150432 -0.23305784 0.010241407
0.08281436 -0.28633904 0.0673004 -0.006288706 -0.16910487 -0.2478606 0.24130397 -0.031211631
-0.32190472 0.23291273 0.10733584 0.09537178 -0.333409 -0.27633166 -0.13302974 0.107441604
-0.039297663 -0.22659956 -0.12497581 -0.1701734 0.046181235 -0.104087085 0.14993899 -0.3080201
0.3070835 0.19111665 0.16507441 -0.38963556 0.07270132 -0.069455355 -0.21861859 0.14797905
-0.047361616 0.064871974 0.3590908 0.083061665 0.1515559 -0.026583886 0.1740103 0.022451079
0.17416108 0.2669266 -0.060126793 0.14312857 0.095413476 0.33760443 -0.13247722 0.119267926
-0.02159922 -0.2712139 0.087405086 -0.21505852 -0.22627169 0.087403074 -0.15860796 0.12278332
-0.04714566 0.26571298 0.13576405 0.23754184 0.05254034 0.06271375 0.02541613 -0.2516016
00000000: 1a6e bfbd bd5b f23d 76d5 38ba 930b f8bd
00000010: 78b8 1e3c 27b5 bcbd d4da 2f3e dcca db3d
00000020: 7637 16be 26e0 5c3e a7ca 96bb eaa5 273d
00000030: 0d79 c83d b07c c6bd 9020 5fbe d741 983d
00000040: 460b 383d b72f d4bd 8550 c03e fb90 243e
00000050: adfa 5fbe d489 993d e42d 1cbe 4489 c73d
00000060: 72d6 79be 7874 7f3d ea59 993d 65cc 7d3c
00000070: 5ba6 87be 7194 603d 1398 a13d 0e4e 47be
00000080: 5235 7c3b 7b1c 133e 4f97 3ebe 405a ae3b
00000090: 871e aa3d 2a37 fd3d f179 2dbe 5170 743d
000000a0: a629 f43b 2441 45be 1123 953d be36 e1bd
000000b0: 3ce1 6b3d 5b03 4ebe 74b1 df3d ad1c 8c3d
000000c0: f2c5 2f3e 906c 5dbe 249d 04be 7537 f63d
000000d0: 6b48 4e3e 2db4 38be a6e7 29be a286 113d
000000e0: 5894 a0be 733e 3abe b93b 32bd a306 dabe
000000f0: bedc 30bd a711 72bc 8880 08be 8a42 1a3e
00000100: a92a 69be b555 a7bc 6322 313d c6d4 90be
00000110: 08e5 a3bd 6cd1 cf3d 61b4 c8bd 2bd3 353b
00000120: eb17 833d aa08 a0bc 7cd5 333e 6e45 14be
00000130: 90e2 c13c a3a4 3d3e 28d9 30bd 1710 c83d
00000140: 51d7 383e 3b72 43be b6a1 8d3e 8821 4dbe
00000150: ed60 64be a20e bf3d 9871 95bd f76e 3d3e
00000160: 85b2 943d 9550 82be 7036 053e 8358 64be
00000170: 1c5a 0abe e824 163d 2cc3 09be 9355 913c
00000180: fb62 a63c 8a82 383d e822 813d 2d0b 3c3e
00000190: b0e7 5e3c d313 4b3e 53ce 12be ba92 5c3e
000001a0: dafa 2ebe 5aef 3fbd ede4 61bd dde4 883d
000001b0: ffac ea3d 7671 243d 87b5 f33c 79ad d2bd
000001c0: b31f 273d 04ba 463d 104f c63c 3cd8 d03c
000001d0: 5ede 8a3e fca5 2d3e 55ee b13d 2d68 bb3d
000001e0: 2760 e6bd da5a 3cbe 4d13 b7bb c0ef 573d
000001f0: 3032 e53e 11d5 c5bc 0b39 f73d 1212 c4bd
00000200: 5b2b f3bd 83a4 25be 7ff0 8bbe 0c07 953d
00000210: 180d fdbd 67c8 97be d789 ac3d 5eda a5bd
00000220: 6a5e c8be 7646 32bd 6fdd ebbe 1ded 2abd
00000230: bae4 f63b 1315 ec3c a103 0c3e f3ed 60be
00000240: 9dfd 0e3e 89ff 3cbe dced 0c3d 0707 86bd
00000250: 05b0 8bbd d4cb 843d 5310 95be 2123 663e
00000260: 261b e4bd bf8f 6e3d 2b78 6f3d 82c8 7fba
00000270: 6b45 87bd 6530 093e 815a ad3c 3858 0b3e
00000280: e9a8 8d3d 52a1 713d 3e57 2a3d 2f0a 103e
00000290: 96a6 293e dc82 13bd 684d 3bbe 0e9b 2b3e
000002a0: 65ba 92bd 5ba3 75be f570 9abe 681b 003e
000002b0: 8e5c 523b caff 303e bf31 1c3e 26cd 703d
000002c0: 07cd 3a3c 53f6 7cbe b7db 8a3d dd77 08be
000002d0: 22be 25bd fe2d 0fbe 7353 283d 9190 f93d
000002e0: 9f9f 7d3d 08bf 223e 962e 243e b09f 68be
000002f0: ccbb 52be 6489 053c b7a6 6ebe 93cb 273c
00000300: 939a a93d 089b 92be cbd4 893d 7d11 cebb
00000310: d429 2dbe 2bcf 7dbe 6318 773e 89af ffbc
00000320: b2d0 a4be ad80 6e3e e5d2 db3d 4852 c33d
00000330: 96b4 aabe 587b 8dbe f338 08be 580a dc3d
00000340: 96f6 20bd b709 68be 51f3 ffbd f041 2ebe
00000350: 8928 3d3d 9c2b d5bd 9b89 193e d0b4 9dbe
00000360: 0c3a 9d3e 15b4 433e 4409 293e 507e c7be
00000370: 6ee4 943d 9c3e 8ebd 8ddd 5fbe d287 173e
00000380: 41fe 41bd 99db 843d c0da b73e 3c1c aa3d
00000390: 7831 1b3e 73c6 d9bc c22f 323e 53eb b73c
000003a0: 4857 323e 9aaa 883e 8347 76bd 4c90 123e
000003b0: 2468 c33d 7dda ac3e 1ca8 07be be42 f43d
000003c0: d9f0 b0bc 8cdc 8abe 7001 b33d 4d38 5cbe
000003d0: c4b3 67be 6200 b33d 206a 22be d275 fb3d
000003e0: cf1b 41bd 880b 883e bb05 0b3e 2b3e 733e
000003f0: 8a34 573d 1170 803d 7d35 d03c edd1 80be

gcn_layers.1.node_feat.V.bias f4 [16]
0.14254718 0.18318804 0.018859478 -0.06380231 0.15085913 0.03489589 -0.08444792 -0.09395174
0.14836064 -0.057078138 0.1833778 0.096215464 0.2251829 -0.05167423 0.17687711 -0.15768737
00000000: e3f7 113e a595 3b3e 317f 9a3c c9aa 82bd
00000010: d17a 1a3e feee 0e3d 08f3 acbd c569 c0bd
00000020: daeb 173e c4ca 69bd 64c7 3b3e 9d0c c53d
00000030: 5996 663e 5ba8 53bd 461f 353e cc78 21be

gcn_layers.1.node_norm.batch_norm.weight f4 [16]
0.84443617 1.2233149 1.0028348 1.1006824 0.74049526 0.7611411 0.70479405 0.9238595
1.1091679 0.7511715 1.1001874 1.2484341 0.9731191 0.8021706 0.92633843 1.0757136
00000000: f82c 583f 9595 9c3f e45c 803f 29e3 8c3f
00000010: 1991 3d3f 25da 423f 626d 343f 0e82 6c3f
00000020: 37f9 8d3f c74c 403f f1d2 8c3f b0cc 9f3f
00000030: 551e 793f 0d5b 4d3f 8424 6d3f fcb0 893f

gcn_layers.1.node_norm.batch_norm.bias f4 [16]
-0.2959641 0.29970807 0.23924461 -0.09113399 0.61348027 -0.06306854 -0.21679036 0.0022371004
-0.1303276 0.052389227 0.50562495 -0.19130996 -0.05898457 0.81811005 0.062445633 0.2644355
00000000: 9b88 97be 5673 993e 8afc 743e 75a4 babd
00000010: 0b0d 1d3f 142a 81bd 4bfe 5dbe 519c 123b
00000020: 9974 05be 1696 563d a370 013f c2e6 43be
00000030: ce99 71bd a96f 513f fec6 7f3d 1764 873e

gcn_layers.1.edge_feat.U.weight f4 [16, 16]
0.045370683 0.079251714 -0.065796874 -0.2301949 0.20063426 -0.059589963 0.0021676458 -0.018129019
0.15220207 -0.16392328 0.17849456 -0.102215335 -0.24821547 -0.22812492 0.015194431 0.007678691
-0.08244343 0.07419132 0.17457749 -0.095814645 0.2884946 0.32596982 0.042448584 -0.26530105
-0.30603117 0.14290172 0.2936729 -0.19097085 -0.00096728746 0.028580645 0.14551641 0.04499753
-0.024342777 0.16264078 -0.07029417 -0.044351954 -0.14009318 0.09442081 -0.26041815 -0.061958604
0.09107093 -0.19203879 0.06667959 0.23594373 -0.24592756 -0.15748154 0.2297161 -0.17546493
-0.101615354 0.22026426 0.15894094 -0.086598046 -0.246353 -0.07813338 -0.16915259 0.22844931
-0.01788087 -0.18990888 -0.070019804 0.0065241945 -0.23417331 -0.22548929 0.109332465 -0.06618399
-0.17512786 0.04557468 -0.1683727 -0.2380843 0.19583173 0.15307164 0.2207087 -0.20888041
-0.15873843 -0.15213607 0.14037608 0.06776647 0.23112606 -0.1943083 0.19820167 0.1902824
-0.27434462 -0.079544835 -0.049781512 0.044483427 -0.010070554 0.1366911 0.06308793 -0.4887387
-0.36455306 -0.112510964 -0.26753122 0.1384948 0.09900413 0.13995518 0.2354172 0.07268319
-0.34137657 -0.4150312 -0.16144286 0.25027514 -0.24593186 0.14807284 -0.15431693 0.10866811
-0.064868905 0.18787004 -0.15442728 0.14542042 0.32233188 0.1408454 0.069518186 0.058292303
0.23805524 -0.07102999 -0.28360176 0.22074436 0.177304 0.24756697 -0.04075818 0.005884002
-0.2407825 -0.24898393 0.14543104 -0.07963934 -0.1772792 -0.12715884 -0.10196261 -0.109013095
0.3155309 0.16285469 -0.1721035 0.26793262 -0.20152706 0.35636798 0.17409036 -0.1282229
-0.24613632 -0.11678331 0.4167093 0.11409405 0.08553247 -0.41919607 0.20390202 0.0055652293
0.3177443 -0.082330704 -0.068976395 0.15433611 0.053112157 -0.10612473 0.15531212 0.31516472
0.11840791 0.18260169 0.099347845 0.11740577 0.12860748 0.107168294 0.15368126 0.04581757
0.27894235 0.038693693 0.112804 0.5061526 0.060102634 -0.30876848 -0.3058342 -0.036838897
-0.37087327 0.46523336 0.27575308 -0.11355118 0.5541962 0.17539999 -0.1432509 -0.026443427
-0.05691031 -0.18684918 -0.12345311 0.44353628 0.09749568 0.17760335 -0.04154717 0.22694023
-0.42938033 0.22499435 -0.05950676 0.057844028 0.33023152 0.24958223 0.27426264 -0.10114551
-0.07809433 0.19822422 -0.030906366 0.23970495 0.020494213 0.026457429 -0.035970505 0.115103945
-0.18911299 0.10020621 0.25022686 -0.05316772 0.22741112 0.1809748 -0.0073835375 0.044231158
0.017086761 0.12034363 0.09707219 0.5312034 0.24186036 0.011650706 -0.24252282 0.24622782
-0.39324224 0.23262313 0.54603714 0.24155673 0.3975777 0.23178202 -0.16652367 -0.03866284
0.082564026 -0.21207207 -0.12704012 -0.4976704 -0.097230785 0.12892607 -0.30612776 0.108373486
-0.19081274 -0.11689203 0.17921342 -0.43650392 -0.22154066 -0.57613426 0.14162867 0.26837048
0.3886727 -0.100569315 -0.015329135 0.23620884 0.03232756 -0.14634226 -0.3786445 0.31166643
-0.36137977 0.45377868 -0.04563784 0.15030666 0.40634245 0.045068692 -0.012118717 -0.42586112
00000000: 9cd6 393d b94e a23d 83c0 86bd 36b8 6bbe
00000010: 1173 4d3e 9b14 74bd 100f 0e3b 4f83 94bc
00000020: dcda 1b3e 81db 27be 47c7 363e 4656 d1bd
00000030: 322c 7ebe 9499 69be 10f2 783c 879d fb3b
00000040: 1ad8 a8bd 9ef1 973d 71c4 323e 783a c4bd
00000050: 90b5 933e 84e5 a63e 91de 2d3d 8ad5 87be
00000060: 1eb0 9cbe d454 123e 4b5c 963e dd8d 43be
00000070: 9091 7dba f521 ea3c 4102 153e 544f 383d
00000080: 816a c7bc 4e8b 263e 64f6 8fbd 65aa 35bd
00000090: 9674 0fbe b35f c13d 8755 85be 4ec8 7dbd
000000a0: 6583 ba3d d1a5 44be 4f8f 883d 3c9b 713e
000000b0: 6fd4 7bbe d742 21be b33a 6b3e 14ad 33be
000000c0: b61b d0bd f48c 613e 6ac1 223e 515a b1bd
000000d0: f643 7cbe 6504 a0bd 5636 2dbe 9eee 693e
000000e0: e77a 92bc 7977 42be 8b66 8fbd e9c8 d53b
000000f0: 21cb 6fbe aae6 66be b3e9 df3d 798b 87bd
00000100: b854 33be 84ac 3a3d e569 2cbe 5fcc 73be
00000110: 1d88 483e d0be 1c3e 7601 623e bfe4 55be
00000120: 548c 22be 8fc9 1bbe bfbe 0f3e 26c9 8a3d
00000130: 4fac 6c3e c1f8 46be 61f5 4a3e 64d9 423e
00000140: e676 8cbe 67e8 a2bd b3e7 4bbd 4134 363d
00000150: f7fe 24bc c0f8 0b3e 3f34 813d f53b fabe
00000160: b3a6 babe 266c e6bd daf9 88be 95d1 0d3e
00000170: adc2 ca3d 6950 0f3e 3511 713e edda 943d
00000180: e9c8 aebe f87e d4be 4751 25be 1024 803e
00000190: 90d5 7bbe 68a0 173e 4205 1ebe 638d de3d
000001a0: fdd9 84bd 0161 403e 2f22 1ebe 17e9 143e
000001b0: af08 a53e c739 103e 8d5f 8e3d e9c3 6e3d
000001c0: c1c4 733e 2c78 91bd 4034 91be cf0a 623e
000001d0: 2e8f 353e 3282 7d3e 0df2 26bd 96ce c03b
000001e0: b08f 76be a5f5 7ebe e0eb 143e f319 a3bd
000001f0: ae88 35be ed35 02be c6d1 d0bd 4242 dfbd
00000200: 448d a13e 61c3 263e e63b 30be 772e 893e
00000210: 1c5d 4ebe dd75 b63e be44 323e dd4c 03be
00000220: 290b 7cbe 172c efbd ec5a d53e 24aa e93d
00000230: a62b af3d dea0 d6be b1cb 503e 875c b63b
00000240: 62af a23e 009d a8bd 7f43 8dbd 490a 1e3e
00000250: 228c 593d ec57 d9bd 240a 1f3e 455d a13e
00000260: d97f f23d f0fb 3a3e e276 cb3d 7072 f03d
00000270: aeb1 033e 0d7b db3d 9f5e 1d3e 34ab 3b3d
00000280: 88d1 8e3e 477d 1e3d c905 e73d 3793 013f
00000290: 2e2e 763d e716 9ebe 4d96 9cbe 62e4 16bd
000002a0: 1ae3 bdbe 1133 ee3e 822f 8d3e 858d e8bd
000002b0: cddf 0d3f 0e9c 333e 5db0 12be e39f d8bc
000002c0: c91a 69bd 6455 3fbe fcd4 fcbd 3017 e33e
000002d0: d1ab c73d a7dd 353e 5e2d 2abd 0563 683e
000002e0: bdd7 dbbe eb64 663e 5cbd 73bd dced 6c3d
000002f0: 1b14 a93e 7c92 7f3e 276c 8c3e 6125 cfbd
00000300: ecef 9fbd 4afb 4a3e 592f fdbc 3775 753e
00000310: 7be3 a73c 40bd d83c cf55 13bd 9ebb eb3d
00000320: d6a6 41be ea38 cd3d bc1d 803e 65c6 59bd
00000330: 76de 683e 7551 393e 9af1 f1bb bb2b 353d
00000340: 89f9 8b3c b976 f63d c9cd c63d f2fc 073f
00000350: 3eaa 773e 9ae2 3e3c e757 78be 2523 7c3e
00000360: 0c57 c9be c234 6e3e 17c9 0b3f a65a 773e
00000370: 4e8f cb3e 4458 6d3e 2e85 2abe ed5c 1ebd
00000380: 5417 a93d 6c29 59be ce16 02be a8ce febe
00000390: ef20 c7bd 3205 043e c7bc 9cbe ebf2 dd3d
000003a0: 6a64 43be 1765 efbd b983 373e 717d dfbe
000003b0: 8edb 62be 897d 13bf 1b07 113e db67 893e
000003c0: 1c00 c73e 49f7 cdbd 0d27 7bbc bbe0 713e
000003d0: e769 043d bfda 15be b1dd c1be be92 9f3e
000003e0: c506 b9be ae55 e83e beee 3abd fde9 193e
000003f0: 1e0c d03e f399 383d 958d 46bc 780a dabe
